Assets/ML-Models/AirCollectorPlus03.onnx (onnx, 60158 bytes, 9 tensors)

network_body._body_endoder.seq_layers.0.weight f4 [64, 137]
000000 ba 18 05 be 9c d2 0c be bf 11 ac 3b 9e 67 a1 3c
       -0.12997714 -0.13752216 0.005251139 0.019702729
000010 6d 79 90 bd e9 b4 bb be 81 9c a6 bd a7 71 ff 3d
       -0.0705441 -0.3666146 -0.081353195 0.12472849
000020 11 c6 3d be 89 57 8e 3c 16 78 63 3b b9 29 1b 3e
       -0.18532588 0.017375724 0.0034709028 0.15152635
000030 47 b9 37 bd fb 3a 09 3d c2 1f ec 3c 46 98 a2 3d
       -0.04485443 0.033503514 0.028823737 0.079392
000040 e3 cb ea 3d 4c 3c b2 bd ea 78 25 3d 16 93 c2 bd
       0.114646696 -0.08702907 0.040398516 -0.09500711
000050 9d ea 9b bd f0 6d 6e be 82 cb b5 3b 37 86 4d 3e
       -0.07613108 -0.23284125 0.0055479417 0.2007073
000060 dc 43 9c 3d 8c e6 b8 bd 2f 68 64 3e ce 34 de bd
       0.07630131 -0.09028348 0.22305368 -0.108499154
000070 f6 f3 84 bd f0 3e f9 bd 53 47 2b 3e c6 02 52 bd
       -0.06491844 -0.121702075 0.16726427 -0.051272176
000080 c7 f1 58 3d e8 23 80 bd 86 89 13 3e a5 b2 f2 bc
       0.05296495 -0.062568486 0.1440793 -0.0296262
000090 07 29 71 be fb e1 80 be 16 cb ac bd 6c 50 44 be
       -0.23550807 -0.2517241 -0.08437173 -0.19171304
0000a0 98 29 a4 3d a6 13 06 bd 16 d0 9c 3b 2a 8e db bd
       0.08015746 -0.032733582 0.004785548 -0.10720475
0000b0 49 6d ba bd b8 c0 0a 3d 9a 1f b6 3c 10 65 e4 3d
       -0.09102876 0.033875197 0.022231866 0.11152089
0000c0 a5 d7 cf be 42 cb 18 be c0 d9 f8 bd 00 b1 8d 3d
       -0.4059421 -0.14921287 -0.121509075 0.06918526
0000d0 8e d3 53 bc 90 c8 2a bd b8 77 9c bc 79 fa 20 bd
       -0.012928857 -0.041695178 -0.019100055 -0.03930137
0000e0 b2 8a a8 be 61 4b 92 3a 7d 96 24 3e 6b cf f2 bc
       -0.32918316 0.0011161381 0.16073032 -0.02963992
0000f0 a0 c4 4b 3d 0c 38 d0 bd 58 1d e0 bc ed dd 28 3c
       0.049748063 -0.1016694 -0.027357742 0.0103068175
000100 1c c3 3e be dd d6 3f be a1 be 0b 3d 22 8c 00 3e
       -0.18629116 -0.18734308 0.034117345 0.12553456
000110 3e 3b ed 3d 54 f0 9b bd 05 ef 31 3d 6b 90 10 3e
       0.11583565 -0.07614198 0.043440837 0.14117591
000120 95 77 4d be 7b 5c 99 bd 2b 07 bb ba d8 14 00 bd
       -0.20065148 -0.074883424 -0.0014269104 -0.03126988
000130 6d 58 b7 bd 8a d4 17 3e ef 8b 18 3e 0e 46 2e 3e
       -0.08952413 0.14827171 0.1489713 0.17018911
000140 4d 56 95 be 05 c8 18 bf fb 53 60 3e 2e 3b 93 3b
       -0.29167405 -0.59680206 0.21907036 0.0044931388
000150 4e 9e 0a 3e ab 39 e1 3d 84 4b 9f bd b4 1e 0b bc
       0.13536951 0.109973274 -0.07778075 -0.008491207
000160 5a d8 05 be 5d 54 f9 3c 26 b8 19 be cc 7d 15 3e
       -0.13070813 0.030435735 -0.15011653 0.14598769
000170 59 3a fd bc 2c 41 91 3c 6f 42 c8 bd d1 ed 1d be
       -0.030911611 0.017731272 -0.09778296 -0.15422751
000180 54 96 ff bd 47 3e 78 be d9 ea bc bb 8d 46 c9 3c
       -0.12479845 -0.24242507 -0.0057653007 0.024569774
000190 9d 1a a8 bd a5 26 61 3a 3c 1c 9a bd ee a6 27 3e
       -0.08208201 0.00085888273 -0.075249165 0.16372272
0001a0 b5 52 3d be 71 ae 8c 3d 6e e8 46 bd ea d7 6d bd
       -0.18488581 0.068692096 -0.048561506 -0.05806724
0001b0 bb 77 14 be 33 57 28 bd d6 b8 5e 3d 19 c2 1b be
       -0.14498799 -0.041098785 0.054375492 -0.15210761
0001c0 f0 b9 91 be d3 2a 20 bc 37 7c 1f 3b ff 44 a1 3d
       -0.28462172 -0.009775835 0.0024335512 0.07874488
0001d0 18 50 49 be a5 e2 b3 bd ee 1a ba 3d 97 07 fa bd
       -0.1965946 -0.087834634 0.09087168 -0.12208479
0001e0 e2 16 82 bd 4e 7e d0 3d 04 0d 47 bc 51 9e 93 be
       -0.06352021 0.10180341 -0.012149099 -0.28831723
0001f0 1c 39 e1 3d 56 46 b1 bd ed 2c d4 bd 76 9b 91 bd
       0.10997221 -0.08655994 -0.103601314 -0.0710973
000200 6e f2 f8 3d db b4 ab bd 87 a6 ed 3d e5 c9 32 ba
       0.12155615 -0.08384105 0.11604028 -0.0006820246
000210 d1 cf 37 3e 8a b0 a4 bd 67 ce c9 3e 4f 8f 56 3d
       0.1795037 -0.08041485 0.39415285 0.052382763
000220 63 2e c6 3e b5 c7 ab be 39 5d a3 be df fb fa 3c
       0.38707265 -0.33550802 -0.3190706 0.03063768
000230 2e ac 93 3d 8b 23 94 be 4f 93 a4 be d5 56 0d 3e
       0.07210575 -0.28933367 -0.32143638 0.13802655
000240 40 b1 e1 3d 62 b7 9c be 06 67 95 be ec f8 2d 3e
       0.11020136 -0.3060866 -0.29180163 0.16989487
000250 9f 57 67 3e 03 a0 f5 be ea ca 81 be c2 9c 46 3d
       0.22592019 -0.47973642 -0.25350124 0.04848934
000260 3d 91 29 be 3e a5 f5 3c 8e 06 b6 be ab ab 92 3d
       -0.1655931 0.02998602 -0.35551876 0.07161649
000270 5d 96 75 bb c6 f7 86 be 1e 39 0e be 6a 06 7d 3d
       -0.0037473657 -0.2636091 -0.13888976 0.061773695
000280 7f 94 67 3d a3 a3 eb 3c 7f 06 7f be aa 9f 72 3c
       0.0565381 0.028764552 -0.24904822 0.014808575
000290 47 19 43 3d ee 87 03 be df 87 80 be 0b 76 4c bc
       0.04763153 -0.12844822 -0.2510366 -0.0124793155
0002a0 7c a2 b9 3b 43 bc 4a be 06 95 43 be 36 8b be bc
       0.0056651216 -0.19798379 -0.19099817 -0.02325974
0002b0 03 6c e7 bc 48 2f 29 be 84 4d 1a be 7e 76 78 3d
       -0.028249746 -0.16521943 -0.15068632 0.060659878
0002c0 41 18 41 bd b4 1d c3 bc 13 a1 84 be f4 00 bc bc
       -0.04714227 -0.023817874 -0.2590414 -0.022949673
0002d0 89 4f 68 bc 02 16 81 be 0b 2e 5e 3d 40 bc a7 3c
       -0.014179119 -0.25212103 0.05424313 0.020475507
0002e0 cb ed 26 3d 98 d0 ee be 6f 81 96 bc b0 9a d8 bd
       0.04075412 -0.4664352 -0.018372266 -0.10576379
0002f0 7b 62 cc 3d 25 f2 84 be ee 23 76 be b4 55 9a 3d
       0.09979721 -0.25965992 -0.24037144 0.07535878
000300 8b bf 96 3d 5a 81 8d be 98 0a 8e 3d c3 0d e8 3d
       0.07360753 -0.2763775 0.06935614 0.1133075
000310 8f e7 19 3e b9 d6 b1 bd 41 c8 13 be c9 8b cb bb
       0.15029739 -0.08683533 -0.1443186 -0.006211732
000320 01 fa e3 bc a6 1a 74 bd cf e3 23 3d bc 59 39 3d
       -0.027829172 -0.059595726 0.040012177 0.045251593
000330 08 01 9c 3d 72 bb 78 be 7b 56 54 be 68 82 11 3e
       0.07617384 -0.24290255 -0.20736115 0.14209902
000340 09 57 b3 3d bb 1d 41 be d8 74 a6 3c b9 04 2b 3d
       0.08756835 -0.18858998 0.020319387 0.04175255
000350 14 70 f7 3c 43 68 5c be de 5a 50 3e 5d 6c c4 3d
       0.03020481 -0.21524148 0.20347163 0.09590981
000360 01 31 73 bd 5f 51 1f bd f9 5f 18 be 98 92 4c 3d
       -0.059372906 -0.03889596 -0.1488036 0.04994449
000370 e9 a5 3f 3c c3 84 22 bd 50 1b 27 3e a0 55 8f 3d
       0.011697271 -0.039677393 0.16319013 0.069987535
000380 2c ed 0c 3d eb 2a 34 be 82 e5 7d be ba 66 8b bb
       0.034405872 -0.17594497 -0.24794582 -0.0042541893
000390 e9 d9 5a bd 23 ad 8b bc 9a 89 a6 3d b2 38 61 bd
       -0.05343047 -0.017050331 0.08131714 -0.05498571
0003a0 ca 0e f3 bd 0c 65 03 be 91 4e 85 be 1b b5 53 bd
       -0.11868055 -0.12831515 -0.26036504 -0.051686388
0003b0 05 b4 27 be 27 d5 5f be dc a3 86 bd 89 92 5b 3d
       -0.16377266 -0.21858655 -0.065742224 0.053606544
0003c0 60 92 ea bc f9 fb 85 be b4 68 0c be 2b 41 b5 bd
       -0.02863425 -0.26168802 -0.13711816 -0.088503204
0003d0 b1 e5 dd bc 7f ed 09 be 0d 41 29 3d b4 9e 8e bc
       -0.027087064 -0.13469504 0.041321803 -0.01740966
0003e0 9f 66 3b bc 9d bb ad be 6f 84 aa bc 4d 88 d5 3c
       -0.011438041 -0.339322 -0.020815102 0.02606597
0003f0 9c 3e b3 bc b8 81 cb be aa 94 ac 3d 66 90 f5 bc
       -0.02188044 -0.39747405 0.08426793 -0.029976081

network_body._body_endoder.seq_layers.0.bias f4 [64]
000000 14 fd 44 bc 40 b6 3b bc 11 43 ba bb 06 19 b6 3c
       -0.012023229 -0.011457026 -0.0056842645 0.022228729
000010 61 6a cc 3c 0a d1 06 3d 30 8d 16 3d 35 d0 bd bc
       0.02495307 0.0329142 0.03675574 -0.02317057
000020 d6 4f b9 3a 5c 7d d9 3c 48 82 f1 bc 3e bc 87 3c
       0.0014138173 0.026549034 -0.029481068 0.016569253
000030 82 fc 07 bd 7f 8f a2 bc 42 0b 0a 3d a4 e1 70 3c
       -0.033199795 -0.019843815 0.033702143 0.014702234
000040 b7 7a b9 3c c3 50 77 bc a8 a7 1c 3c 05 d7 9b bc
       0.022641523 -0.015094939 0.009561457 -0.019023428
000050 9d 4a cd 3c 58 34 1c bb 80 45 a2 bc 75 e3 e9 bc
       0.025059992 -0.002383491 -0.01980853 -0.028550843
000060 3b 49 29 3d 53 63 de bc 8a fb c6 bc a2 be ab 3b
       0.041329604 -0.02714697 -0.024289865 0.005241231
000070 10 81 da bc ab 5f 18 bd c7 fa 67 bc 6b e6 03 bd
       -0.02667287 -0.03720061 -0.014158911 -0.032202166
000080 10 2a 1b bb bf 8c 04 3d 2f a4 f7 3c 6f 76 b2 3c
       -0.0023676194 0.03236079 0.030229656 0.02178499
000090 98 a4 fe 3c 1b b4 3b bc 1f a5 57 3d 5b 8e c8 3c
       0.031084344 -0.011456515 0.052647706 0.024481943
0000a0 65 52 d2 3b e5 24 72 3d f8 09 24 bd 95 ec 9c bc
       0.0064185136 0.059117217 -0.04004857 -0.01915578
0000b0 a5 d1 fa 3b 97 4d be 3c 37 aa 92 3b b3 83 d0 3c
       0.007654386 0.023230357 0.0044758576 0.025453424
0000c0 52 38 ad 3c 0c c2 05 3d 42 c6 2b bb 27 24 bc bc
       0.02114502 0.03265576 -0.00262107 -0.022966458
0000d0 61 fe 83 3d 6a 1f 12 3d 6d fc 12 bd 9a 9a f0 bc
       0.06445003 0.03567449 -0.035885263 -0.029370595
0000e0 c5 e9 b5 3c 3a 47 ca 3c 62 a3 93 bc c0 9f 66 3c
       0.022206197 0.024692167 -0.018022243 0.014076173
0000f0 c8 1f c2 3c dc 57 4e 3c a3 1a 67 3b 01 5b ec 3c
       0.023696795 0.0125941895 0.003526368 0.028851988

network_body._body_endoder.seq_layers.2.weight f4 [64, 64]
000000 7a 61 c5 3d 0f 97 1e 3e 16 d3 47 3d c1 60 c5 3d
       0.09637733 0.15487312 0.04878529 0.09637595
000010 61 69 57 bc 96 7f c3 3c 8d a5 6c be 7d 7a fd bd
       -0.013147683 0.023864549 -0.23110028 -0.123768784
000020 9f 82 48 be d3 5a c6 bc f8 7a 77 3e ce 3c e0 3c
       -0.19581078 -0.02421323 0.24168003 0.027372744
000030 49 34 a1 3d da ab 94 bd 35 04 18 be e2 f0 84 be
       0.07871301 -0.072593406 -0.14845355 -0.2596503
000040 df de 46 3d b8 ed 83 3e 37 e5 16 3d 8c 10 a4 3e
       0.04855239 0.25767303 0.03683969 0.32043874
000050 05 d7 ad 3d c3 22 82 3e 2e 9d bb 3e c2 a0 0d be
       0.08488277 0.25417146 0.36643356 -0.13830855
000060 9a a9 bf 3d 48 7f f4 3d 55 a0 b7 bd 81 3e db 3e
       0.09358521 0.119383395 -0.08966128 0.42821124
000070 96 d6 0b be 52 12 15 3e 9a 7a d3 3e 94 48 66 3e
       -0.13656077 0.1455777 0.41304475 0.22488624
000080 38 69 5c 3d 43 c7 35 be 7f a7 ff bd e2 e7 17 be
       0.053811282 -0.17751794 -0.12483119 -0.1483455
000090 9e f5 26 be 13 22 89 3d fb 55 48 be 7b 78 8c 3e
       -0.16304633 0.06695952 -0.19564049 0.2743567
0000a0 74 db 0f 3d e8 d1 af be 94 46 9c bd 8d 06 55 bb
       0.035121396 -0.34339833 -0.07630649 -0.0032505125
0000b0 d8 89 a0 3d 82 d1 35 be b6 38 5e 3e bb e4 7c 3e
       0.078387916 -0.17755702 0.21701321 0.24696629
0000c0 13 07 ce 3d 11 7b e9 3d 8d 29 6d 3d ea ba 06 3e
       0.10059943 0.11400426 0.057900954 0.1315724
0000d0 f2 d4 75 be 51 08 6e be 79 c8 0a 3e 1b 22 1d bd
       -0.24007013 -0.2324536 0.13553037 -0.038362604
0000e0 eb 55 03 be ad 29 99 bd b6 05 83 bc da 38 a7 be
       -0.12825744 -0.07478652 -0.015993934 -0.32660562
0000f0 3e 4f 10 be f0 c0 a5 bd c8 be f6 bd 53 aa 68 3d
       -0.14092728 -0.080934405 -0.120481074 0.05680306
000100 3f 11 c3 3d f2 9e f8 3e 20 59 ea 3c 45 e3 a3 bd
       0.09524774 0.48558766 0.028606951 -0.080023326
000110 01 3c a3 3d 18 61 db bd 70 e6 ca 3d 8a 1b c3 bb
       0.07970429 -0.107118785 0.09907234 -0.0059542106
000120 b2 e0 ba bd fa 50 9a be 70 9e 9b 3e 0a 1c 58 be
       -0.091248885 -0.30139905 0.30394316 -0.21104446
000130 b1 e9 b2 3d 93 bc 6d be de b3 55 be 50 4d a0 be
       0.08735979 -0.23216467 -0.20869395 -0.31308985
000140 35 f8 19 be cb a2 c5 bd a1 94 b3 bc 5d fc 06 be
       -0.1503609 -0.09650191 -0.021921458 -0.13182206
000150 e5 e1 8b bc f9 32 d0 3d 98 15 ac bd 45 e1 10 be
       -0.017075488 0.10165972 -0.08402556 -0.14148434
000160 2a af 11 bb 55 2d a6 3d e8 9b 1c be 7e 76 99 3d
       -0.002222965 0.08114115 -0.15293849 0.07493304
000170 68 d0 8d be 79 55 b6 bc d0 9b 73 3e 53 fb cc 3c
       -0.27698064 -0.022257553 0.23789907 0.025022184
000180 6c 1d 25 be 66 60 1d 3c 54 ed 89 bb fb d6 d3 3c
       -0.16124505 0.009605503 -0.0042092 0.025859347
000190 6e 98 bc bc e7 92 83 3d 20 88 b3 ba 33 e9 e1 3d
       -0.023021903 0.06424504 -0.0013697185 0.11030807
0001a0 b1 f1 22 3c bc d4 a7 be 74 ad 8c be d4 40 41 3e
       0.009945319 -0.3277949 -0.27476084 0.18872386
0001b0 4c 9e 24 3e 16 80 27 3e 60 ef 96 bd e3 9c 66 3e
       0.1607601 0.16357455 -0.07369876 0.22520785
0001c0 b7 14 8e be 94 97 58 be b2 e1 36 3e 4b c6 66 3e
       -0.2775018 -0.21151572 0.17859533 0.2253658
0001d0 a5 a5 dd bd 2b 7f ba bd fd dd aa 3e 9d 27 bf 3d
       -0.1082261 -0.091062866 0.3337249 0.093337275
0001e0 03 ee f3 bc f0 07 27 be c6 b1 59 be 49 9b f6 3d
       -0.029776579 -0.16311622 -0.21259221 0.12041337
0001f0 35 20 29 3e 68 fb 75 be 43 13 10 3d b4 f3 53 3d
       0.16516192 -0.24021685 0.03517462 0.051746085
000200 9e 66 cd 3d 07 c9 9a bd 26 da 22 bd 58 22 df bd
       0.10029338 -0.07557874 -0.039758824 -0.108952224
000210 20 bc e9 3d 94 f8 4a 3e 9f 1a 7d 3e 40 57 85 bd
       0.11412835 0.19821388 0.24717186 -0.06510782
000220 84 90 3f 3e 48 eb b2 3d bf 45 26 bd 14 98 19 bd
       0.18707472 0.087362826 -0.04059386 -0.03749855
000230 43 11 1c be 9b 92 de bd fc f7 18 3e e0 7f e1 bd
       -0.1524096 -0.108678065 0.14938349 -0.11010718
000240 98 bd 00 bd c5 fd b9 3c bd 00 04 3e 97 1c 35 3e
       -0.03143081 0.022704015 0.12890907 0.17686687
000250 1b 83 91 bd e6 55 e1 bd ef 6f 5a 3e 68 30 85 3d
       -0.071050845 -0.11002712 0.21331762 0.065033734
000260 46 a6 8f 3e 6e 60 24 3e 32 57 07 3d 5d 52 09 be
       0.28056544 0.1605241 0.03304214 -0.13410325
000270 4f 6b 23 be b3 df 13 bd 24 9d fe bb e1 1f 7d be
       -0.15958904 -0.036102008 -0.0077701975 -0.24719192
000280 ec d9 2a be 1d 5b b6 bd d4 9e b5 3c aa ed f9 bd
       -0.16684693 -0.08904097 0.022170462 -0.12203534
000290 32 7d 60 3d 30 12 06 bc 85 d6 dc 3b 11 e8 ae 3d
       0.054806896 -0.008183047 0.00673944 0.08540357
0002a0 62 7c 13 3e 53 81 e0 3d b8 f9 88 3d b1 5b c1 be
       0.14402917 0.10962167 0.06688255 -0.37765267
0002b0 ef 0d 26 bd 6f 8a 66 3e 6f 64 c3 be eb ac 9a 3d
       -0.04054063 0.22513746 -0.38162562 0.07552513
0002c0 22 c9 a1 bd b2 ed 12 bc c8 1a 23 be 65 08 bc bc
       -0.07899691 -0.008967804 -0.15928185 -0.022953222
0002d0 4a 78 ea 3d 12 8f 79 3e 07 d2 c4 3d 7e 44 54 be
       0.114487246 0.24370983 0.09610372 -0.20729253
0002e0 45 50 7e 3e 29 16 da bd 23 4b 05 be 58 5c 15 3e
       0.24835308 -0.10648758 -0.13016944 0.14586008
0002f0 a1 c0 03 bd 76 21 ba 3e 3a c8 23 bd 3a 9c 47 3e
       -0.032166127 0.36353654 -0.039985873 0.1949319
000300 57 ef 01 3e 44 40 f5 bd 2f f5 95 3c 49 13 f9 bd
       0.12688957 -0.11975148 0.01830539 -0.121618815
000310 66 e4 c8 bd 04 40 4b be 06 c6 a6 bd 7b e5 77 3c
       -0.098091885 -0.19848639 -0.08143239 0.015130396
000320 ba d1 0b be 89 e7 b3 3c 36 54 6d bd b0 10 21 3e
       -0.13654223 0.02196099 -0.057941638 0.15729022
000330 ae df 24 3d f3 46 6b bd 89 17 c9 3c d0 59 f8 bd
       0.04025238 -0.05744071 0.024547355 -0.121265054
000340 f3 64 ba bb a0 94 34 39 5d 97 84 3c ed a0 ac bd
       -0.0056883036 0.00017221505 0.016185457 -0.08429132
000350 47 d2 44 3e 5f 15 da 3d a3 0d 21 3d 48 a7 b4 3b
       0.1922084 0.106486075 0.039319646 0.0055131055
000360 70 bf ed bd 17 19 bd bd 82 27 4f 3e 06 21 14 be
       -0.116087794 -0.09233301 0.20229915 -0.14465722
000370 2f 91 27 be 73 2b 0d 3e 14 51 05 bd 71 e5 c2 3c
       -0.16363977 0.13786106 -0.032548025 0.023791047
000380 82 72 a8 3d ce b3 a1 be 2a 91 2c 3e 23 a4 b1 3d
       0.08224966 -0.31582493 0.1685225 0.08673885
000390 9d 17 8a 3e 29 d6 25 be 2f cd f6 bd b1 c2 14 3e
       0.2697114 -0.16194977 -0.120508544 0.14527394
0003a0 df 86 70 be eb 17 52 3d 51 cb 8f 3c 82 a3 de bd
       -0.23488949 0.05129234 0.017553004 -0.108710304
0003b0 d7 f3 22 3c eb ae 1d be fb cb c6 3d c2 91 f6 bd
       0.009945831 -0.15398757 0.09706875 -0.1203952
0003c0 bb 8d e1 3d ab 7c e7 bd b9 5f 45 be 53 66 e6 3c
       0.11013361 -0.113030754 -0.19274797 0.028124964
0003d0 2e 94 1b 3e 2f 63 dd 3d 27 1b 27 3d 06 d7 ae 3d
       0.15193245 0.108099334 0.04079738 0.08537106
0003e0 2b e7 5d 3e c4 8a 12 3d b3 a0 19 be 34 d1 52 bd
       0.21670215 0.03577687 -0.15002708 -0.051469043
0003f0 59 fd 53 3d 64 90 a5 3e 32 0f d1 bd 13 4d 57 3d
       0.051755283 0.32336724 -0.102079764 0.052563738

network_body._body_endoder.seq_layers.2.bias f4 [64]
000000 3b e1 d9 3b a5 52 53 bc 4b 77 28 3d 9f 3e ac 3b
       0.006649164 -0.012898122 0.04112939 0.0052564885
000010 0e 58 38 3d c2 53 a8 3d 69 f6 4d 3c 95 91 b0 3c
       0.04500585 0.082191005 0.012570956 0.021553794
000020 d3 2a 87 bd 55 2d b5 3b 3a e7 b9 3b e1 90 0b 3a
       -0.06599965 0.0055290856 0.0056733163 0.0005324018
000030 bf cc 85 bd a4 3c 1b 3d 5e d1 f9 bc 50 20 50 3d
       -0.06533193 0.03789963 -0.030495342 0.050812066
000040 ba ce e9 bb 44 cc 70 ba 36 01 84 bd 63 f9 82 bc
       -0.0071352394 -0.00091857114 -0.064455435 -0.015988057
000050 8a d5 86 bd 84 70 95 3c 5d e8 32 bc be aa b1 bb
       -0.06583698 0.018242128 -0.010919658 -0.0054219654
000060 a4 55 fd bc b7 e1 7c 3c d9 e1 99 3d 43 99 75 3d
       -0.030924626 0.015434674 0.0751378 0.059960615
000070 c5 bc bb bc b5 e6 16 3d 57 4c 93 3d ea 8a e8 bc
       -0.02291716 0.036841113 0.07192295 -0.028386552
000080 ed f3 93 3d 9f 2f 21 3b 8c 20 b0 bd 20 49 23 bd
       0.072242595 0.0024595035 -0.08599958 -0.03986466
000090 0d 13 8d bb d2 f9 84 bc d8 ca 8a bb 06 80 c6 bc
       -0.0043052495 -0.016232405 -0.0042356066 -0.024230968
0000a0 eb 4a 28 3c 12 e8 cb 3c 34 bd 27 3d 48 91 35 bc
       0.010271768 0.024890933 0.040951923 -0.011082001
0000b0 53 ef 9a bd ef f3 2e 3d ec a8 e6 bc 4c 19 e8 3c
       -0.07565179 0.042713102 -0.02815672 0.028332375
0000c0 82 c8 03 bd b7 50 9c 3d 13 3b 8b 3d 4a 27 b9 3c
       -0.03217364 0.07632583 0.06798377 0.022601742
0000d0 7d c1 11 3d 55 d1 c3 b9 00 6f 13 bb 43 e1 a7 3b
       0.035584915 -0.00037349263 -0.002249658 0.005123289
0000e0 4a c4 d4 ba 89 dd 18 3d e2 ba 08 3b 9e aa 09 3d
       -0.0016232815 0.037320647 0.0020863344 0.03360998
0000f0 bb 7c 96 3b 57 3d a1 3d eb 49 c8 3c b2 c4 a2 3b
       0.0045925057 0.07873028 0.02444931 0.0049672956

action_model._continuous_distribution.log_sigma f4 [1, 2]
000000 30 df 29 bf 26 6b 63 bf
       -0.6635618 -0.8883537

action_model._continuous_distribution.mu.weight f4 [2, 64]
000000 75 b1 45 bd e6 79 ba bd 56 6e 8e 3d d8 9e 35 3c
       -0.04826494 -0.091052815 0.06954639 0.011085235
000010 3c 42 b3 3d 53 b4 20 3e 48 f7 4d 3d c2 18 73 3d
       0.087528676 0.15693788 0.050284654 0.059349783
000020 87 b1 d9 bd e2 2c 01 bc e4 13 22 3c ee 1b 11 3c
       -0.10629564 -0.007884236 0.009892438 0.008856757
000030 76 e9 f0 bd 4e 7c 42 3c 49 c6 36 bc 94 c9 be 3d
       -0.11763279 0.011870457 -0.011155673 0.09315792
000040 c6 f2 00 be 7e bd 28 be 9f b0 84 bd 2e 33 ef 3b
       -0.1259261 -0.16478536 -0.06479 0.0072998023
000050 3a 84 a3 bd ee 84 3f bd 75 f9 36 3c 4c b5 00 3d
       -0.079842046 -0.04675763 0.011167874 0.0314229
000060 ba 04 25 bd d6 6f 5c bd b2 28 04 3d fd 10 78 3d
       -0.04028771 -0.053817593 0.032265373 0.060563076
000070 b8 a8 d8 bd 26 c0 92 3d 0d d9 fb 3d 38 ad fd bc
       -0.105790555 0.07165556 0.122972585 -0.030966386
000080 a6 69 8e 3d 4b 13 f2 3c e2 ea cc bd 51 a3 bc bc
       0.069537446 0.029550215 -0.10005738 -0.023027094
000090 fe 9e 6b bb b2 8d f0 bd 60 2c 08 bd cd f4 cc bd
       -0.003595292 -0.11745776 -0.033245444 -0.100076295
0000a0 bb 13 eb 3c 2f 65 f2 bd 6e 91 47 3d b6 06 e1 bd
       0.028695932 -0.118357055 0.048722677 -0.10987608
0000b0 ed 1a c5 bd 83 a5 f8 3c fe ec 99 bd 31 d3 a9 3d
       -0.09624276 0.03035236 -0.07515906 0.08292235
0000c0 ba 1f b8 3a 54 bb 1b 3e 1a b8 ec 3d 6e 5f 87 bc
       0.0014047541 0.15208179 0.11558552 -0.016524997
0000d0 c6 b5 8f 3d ed 6e 0a bd 2d 84 c1 3c d3 60 fb 3c
       0.070170924 -0.033797193 0.023622597 0.030685818
0000e0 b0 67 ec 3c c0 40 ae 3d dd f6 0a 3d e5 da a6 3d
       0.028858036 0.08508444 0.033926833 0.081472196
0000f0 c0 19 a0 bd 23 cd 27 3e 01 50 77 3d be e3 a3 bd
       -0.078174114 0.16386847 0.060379032 -0.08002423
000100 7e fe 41 3d 06 0c a3 bd eb 70 4c bd 64 57 2b bb
       0.047361843 -0.07961278 -0.049912374 -0.0026144618
000110 60 65 b4 3c 77 52 86 bd 17 f6 4f 3d 88 33 de 3c
       0.022020996 -0.06558698 0.0507718 0.027124181
000120 65 e7 08 3c 5d e3 a0 bc e5 6d 24 3d 55 c3 84 bb
       0.00835595 -0.019639665 0.040143866 -0.0040516057
000130 9b 28 d0 bb 9b e7 ab bc c3 cb a8 3d 4a fe 96 3c
       -0.006352497 -0.020984462 0.082419895 0.018431801
000140 a9 4e ad bd ba 58 23 bd 18 69 4b 3d 5b 72 05 bc
       -0.08462269 -0.039879538 0.049660772 -0.00814494
000150 ab 7b 03 3c 11 fd 10 bd ca 01 86 3d 6c 92 50 bd
       0.00802509 -0.035397593 0.0654331 -0.05092089
000160 fb 99 3f 3e d0 91 34 be 8a 01 32 3d 6f dd c5 bd
       0.18711083 -0.17633748 0.0434585 -0.09661376
000170 61 50 95 bd 0b fc a2 bc 24 18 ce ba 22 96 5b bd
       -0.07290722 -0.019895574 -0.0015723747 -0.053609975
000180 7e 70 36 bc c5 d1 0e 3d ed 7b 1e 3d 84 8c 95 3d
       -0.011135219 0.03486802 0.038692404 0.07302192
000190 2e ca 26 bc 9c a8 17 bd ec 95 95 bc 6f 31 6d bd
       -0.010180039 -0.037026033 -0.018259965 -0.05790847
0001a0 12 ad 3d 38 40 91 19 be 73 62 2c 3d 1c 54 ee bd
       4.5222296e-05 -0.14996815 0.042086076 -0.11637136
0001b0 37 b5 58 3b 50 39 d5 3c a6 35 37 3a e8 c0 d1 3d
       0.0033066997 0.026028305 0.000698889 0.10241872
0001c0 77 b0 7a 3b da 5e 57 3d 73 69 17 3d ae 0a 25 be
       0.0038252154 0.052580692 0.0369658 -0.16117355
0001d0 84 2b 3d bd 7c bd b4 bd 21 20 1f bd 3f 68 bd bc
       -0.046184078 -0.08825204 -0.038849 -0.023120997
0001e0 99 31 f9 3c 74 2f fb 3d d5 66 fb 3d 2a f8 ee bb
       0.030419158 0.1226491 0.12275473 -0.007292767
0001f0 7e 3b 08 be 44 79 a1 bb 42 d6 9b bd 97 69 d2 bd
       -0.13303944 -0.004927786 -0.07609226 -0.10274046

action_model._continuous_distribution.mu.bias f4 [2]
000000 05 8a bd 3d a7 e8 73 bc
       0.09254841 -0.014887012

action_model._discrete_distribution.branches.0.weight f4 [2, 64]
000000 76 b3 a9 3e 80 0c 05 3e a6 74 b5 bd 1d 48 9c 3b
       0.3314473 0.1299305 -0.088601395 0.0047693388
000010 32 43 d7 bd cf fa 43 bd 22 c4 c8 3d 9c e5 87 bb
       -0.10510863 -0.04784661 0.09803034 -0.0041472446
000020 30 c8 a0 3d a8 15 85 3e 8e 7d 95 3e b4 d4 4d 3e
       0.07850683 0.25993085 0.29197353 0.20100671
000030 05 dd 03 3e b8 f0 8d 3e 15 f2 84 3e 11 7e ae bd
       0.12877281 0.27722716 0.25965944 -0.08520139
000040 f2 e4 c0 3c 99 69 52 bd 3e 0c 32 bd 78 d6 42 bd
       0.02354667 -0.051370237 -0.043468706 -0.047567815
000050 5e f0 03 3e 7c 5d 28 be a7 f0 25 bc 48 2c 97 bb
       0.12884662 -0.16441911 -0.010128177 -0.004613433
000060 76 9f e8 3c 74 3a 49 3d 33 29 7b bd c0 5b 48 bd
       0.02839635 0.04912801 -0.061318588 -0.048915625
000070 1b c5 25 3e 74 f8 38 be 6c 9e 02 bc c8 19 67 3e
       0.16188471 -0.18063527 -0.007972341 0.22568429
000080 b1 18 93 be 99 68 93 3b 03 74 4f 3d 4a e8 7c bb
       -0.28729776 0.004498553 0.050647747 -0.0038590604
000090 50 01 49 bc 24 70 64 3e d6 f1 40 3e 19 3d 12 3b
       -0.012268379 0.22308403 0.18842253 0.002231425
0000a0 f8 af be 3c b4 44 43 bd 11 6d ef 3d 61 a7 9a 3d
       0.023277268 -0.047672942 0.11690725 0.07551456
0000b0 7f b1 b8 3d df ab 96 be 87 1d 96 3e 72 60 c5 3d
       0.0901823 -0.29428002 0.29319403 0.09637536
0000c0 cc bf f3 bb fb 59 81 bc 93 6c e5 3b 1c 9b c6 3d
       -0.0074386355 -0.015789976 0.0070014684 0.096975535
0000d0 74 03 e8 bd 41 de 5a 3e 70 f3 30 bd ca 7c 4a be
       -0.11328784 0.21373846 -0.04320091 -0.19774166
0000e0 6e 7a 86 3e e9 6a aa 3c b5 57 1b 3e ed a0 01 3d
       0.2626528 0.020802932 0.15170176 0.03164761
0000f0 2b e9 6e 3d c5 c9 14 bd 5e 4a fa bd a4 eb 76 3d
       0.058327835 -0.036325235 -0.12221216 0.06028332
000100 c7 b8 a4 be 05 2b 02 be 2c f3 89 3d aa 23 f1 bc
       -0.32172224 -0.12711723 0.067358345 -0.029435951
000110 fb 01 96 3d a2 7a 7f 3d 57 29 ce bd 87 87 ad 3c
       0.073245965 0.06237281 -0.10066479 0.021182789
000120 b5 4e ac bd 85 df 84 be b6 c6 91 be 78 0e 35 be
       -0.0841345 -0.25951782 -0.28471917 -0.176813
000130 73 ac 02 be ad 62 81 be 8a dd 85 be 49 90 ab 3d
       -0.12761097 -0.25270596 -0.26145583 0.083771296
000140 86 88 f3 bc 5e 37 8d 3d 3d e6 06 3d 46 7d 84 3d
       -0.029728185 0.06895326 0.032934416 0.064692065
000150 61 5b 14 be 71 7d 29 3e 29 b2 01 3d 7c 4a 7e 3b
       -0.14487983 0.16551758 0.031664047 0.003880172
000160 b8 f4 14 bd 3b 1d b5 bc 34 85 ad 3d f1 e4 73 3d
       -0.036366194 -0.022108665 0.08472672 0.059544507
000170 f1 25 18 be eb 9b 42 3e ad 6b e7 3a 1d 8c 6a be
       -0.14858223 0.1900479 0.0017655991 -0.22905011
000180 83 12 92 3e 58 bb 9b bc 3b 46 8b bd 1a 4e a7 3c
       0.28529748 -0.01901023 -0.06800505 0.020422984
000190 c2 c8 1e 3c 12 98 64 be 6c 65 38 be 7e 3e 4e bc
       0.009691419 -0.22323635 -0.1800744 -0.0125881415
0001a0 3a 05 f6 bc d8 75 3e 3d d7 65 0e be eb 04 99 bd
       -0.03003179 0.046499103 -0.13906036 -0.07471641
0001b0 c1 7c be bd 8d 71 8b 3e 21 41 90 be bb bb e4 bd
       -0.09301139 0.2723507 -0.2817469 -0.11168619
0001c0 bf 58 0d 3c ad 5a 9b bb 08 dd 4a 3c 63 f6 82 bd
       0.008627116 -0.004741034 0.0123817995 -0.06394651
0001d0 cb 70 a1 3d ad d4 76 be d5 81 25 3c f6 3e 52 3e
       0.07882842 -0.24104567 0.010101755 0.2053183
0001e0 5b 0d 96 be 7c 25 10 bd 83 dc 25 be df 85 04 bd
       -0.29307064 -0.035191998 -0.161974 -0.032354232
0001f0 e2 5b 82 bd 3e 2a 7d 3d 98 48 c5 3d cc b4 89 bd
       -0.063651815 0.061807863 0.09632987 -0.067239374

action_model._discrete_distribution.branches.0.bias f4 [2]
000000 ed b0 de bc cf b0 de 3c
       -0.027183974 0.027183918
