Assets/ML-Models/AirCollectorPlus2.onnx (onnx, 48856 bytes, 9 tensors)

network_body._body_endoder.seq_layers.0.weight f4 [64, 93]
000000 6b 24 23 3d fb de 42 bd a9 5d 23 bd 84 d1 27 3e
       0.039829653 -0.047575932 -0.039884243 0.16388518
000010 fc 56 8a 3c 3e 86 37 3d a1 67 8b 3d 11 48 f5 bd
       0.01688718 0.044805758 0.06806875 -0.11976636
000020 45 5b 71 bd ee f7 21 3d 18 af 04 bd 7f b3 e1 bd
       -0.058924932 0.039543085 -0.032393545 -0.11020564
000030 59 71 c9 bb fa e9 7a bd 9a e4 d7 3d 37 7a 66 bd
       -0.0061475453 -0.061258294 0.10541649 -0.056268897
000040 90 bc 7f 3e 8e 7b d2 3d 6f bf 87 3d e1 e1 9c bd
       0.24974275 0.102774724 0.0662831 -0.076602705
000050 d9 51 b6 3d 98 cc a3 3c d1 00 eb bd a0 3c 28 3d
       0.0890233 0.019995019 -0.11474765 0.04107344
000060 d3 38 20 be c9 70 08 3e 8c 63 00 bd 4a d5 f0 3c
       -0.15646677 0.13324274 -0.031344935 0.02939858
000070 bb 76 e4 3b fa 72 11 be aa 8e 4c bd b7 18 a8 bd
       0.0069721616 -0.14204016 -0.049940743 -0.08207839
000080 ce a5 cf 3c ae 3c c8 bd 87 0a 9e bd eb 5c a2 bc
       0.025347617 -0.09777199 -0.07716852 -0.019819697
000090 c0 a4 95 3c e0 6f 87 bd d4 c8 f0 3d fc e1 c9 bc
       0.018267035 -0.06613135 0.11757055 -0.02464389
0000a0 79 05 b7 3d 14 0e e4 bc 08 d4 f4 3d f3 10 d3 bd
       0.08936591 -0.027838744 0.11954504 -0.10305967
0000b0 37 30 5b be bc 3c 38 bc 90 15 00 be f3 bf dc bd
       -0.21405111 -0.011244949 -0.12508225 -0.10778799
0000c0 5c dd 01 bc 61 17 d8 3d 76 e8 e5 3d 73 c6 22 bc
       -0.007926311 0.10551334 0.11225979 -0.009935009
0000d0 fa 42 35 be 8f b6 b2 bd 16 9a c4 3d 7b d0 d1 bd
       -0.17701331 -0.087262265 0.09599702 -0.102448426
0000e0 35 14 1e 3d 21 73 19 be 5e 72 81 be 0c 19 be 3d
       0.03859349 -0.14985324 -0.25282568 0.09282121
0000f0 e1 37 61 3d c3 dd 1d bd 58 24 00 3d 6d 77 41 3d
       0.05498493 -0.038541567 0.03128466 0.047233034
000100 95 08 4c 3e 8e 2f f6 bd 83 72 66 bc 64 8c 89 bc
       0.19925149 -0.12020789 -0.014065388 -0.016790576
000110 e2 d6 bc 3c b0 e3 07 3d d3 e0 68 bd 1e 3c 63 bc
       0.023051683 0.033176124 -0.056855034 -0.0138693135
000120 bb ca e8 3d e1 dd 60 bd e4 86 52 3a 7d e9 41 bd
       0.11366793 -0.0548991 0.00080309645 -0.047341812
000130 33 58 20 3d 89 d4 20 be bc 34 9d bd 04 ee a6 3d
       0.039146613 -0.15706076 -0.07676074 0.08150867
000140 01 49 83 3e 18 0f 2e be e7 ae 59 be 57 a8 70 bd
       0.25641635 -0.16997945 -0.21258126 -0.05875429
000150 d1 30 8e bd 65 52 69 bd 6f 09 07 bc 30 4d 43 be
       -0.06942905 -0.056963343 -0.008241995 -0.19072413
000160 e4 dc 41 bd 5d 13 f2 3d 30 50 a5 39 42 3c eb 3d
       -0.0473298 0.118200995 0.00031530997 0.11486103
000170 5b cc 12 be 46 c1 2d 3d 03 cb 5f bd d0 65 34 3d
       -0.14335768 0.042420648 -0.054636966 0.04404241
000180 08 9c 7d 3c 8c ba 09 3e b3 dc e6 3d ff 2c e2 bd
       0.015479095 0.13450068 0.11272564 -0.110437386
000190 7a 0f 69 3d 7c 2f 1d 3c 41 8d df bd b6 1e 27 bd
       0.056899525 0.009593841 -0.10915614 -0.040800773
0001a0 8a 16 02 be ba d2 02 3e 86 28 ea 3d 11 70 19 3e
       -0.1270391 0.12775698 0.114335105 0.14984156
0001b0 53 e0 0a 3d 56 fe 9f 3d 69 2b 00 3e f9 40 70 3d
       0.03390534 0.078121826 0.1251656 0.058655713
0001c0 60 6b 0d bd 79 c3 23 bd e1 fb 88 be ac c5 06 3c
       -0.03452623 -0.03998134 -0.26754668 0.00822584
0001d0 40 e1 1d 3d 75 cb 0c 3e f0 d0 94 3d 4f 2c 8d 3b
       0.038544893 0.13749488 0.07266414 0.0043082605
0001e0 1d 38 1d 3d ed 47 27 3e e4 48 c9 bd a2 d9 1f 3e
       0.038383592 0.16336031 -0.09828356 0.15610364
0001f0 86 4b 3a 3d 8c ca 15 3c bc d8 ef 3d ab c4 2d 3c
       0.04548218 0.009142529 0.11711261 0.010605971
000200 07 1e 6b be 06 8b a7 3d ba 0a bd 3d cf 05 ac bc
       -0.22960673 0.081808135 0.092305616 -0.020998864
000210 d8 c0 ad bd 4d 37 b0 bb 29 0d b9 bd 16 60 e3 3b
       -0.08484048 -0.005377686 -0.09035713 0.0069389446
000220 6e fb 7a bd 4f af 1a 3d 08 af d2 bd 22 dd ea 3c
       -0.06127494 0.037764844 -0.10287291 0.028669897
000230 22 f7 75 3e a3 55 7f 3d 42 76 5e bc 3c b5 d4 3d
       0.24020055 0.06233753 -0.013578 0.1038613
000240 5c 72 d2 bd 6c 90 6f be e8 23 5c be 38 d6 a9 3d
       -0.102757186 -0.23394936 -0.21498072 0.08292812
000250 35 6f bc bd 00 9c 9a 3c d5 23 b6 bc 49 21 01 bd
       -0.092008986 0.018873215 -0.022233883 -0.031525884
000260 e2 33 19 be 2e b7 6f 3d 51 72 cc 3d 7f 64 54 bc
       -0.14961198 0.058524303 0.099827416 -0.012963413
000270 4e 84 eb bd 3c 7d de 3c 0f 1c 17 be 3b cb 58 bd
       -0.114998445 0.027159326 -0.14756797 -0.05292819
000280 02 17 ee bd 83 b5 5d 3e d6 dc 86 bd b3 d8 16 bd
       -0.11625482 0.21651272 -0.0658509 -0.036827754
000290 27 0e f9 bd cf e3 a6 3d 8c 1a c0 bc ac 2c bd bd
       -0.121609025 0.0814892 -0.023450159 -0.09237036
0002a0 02 63 76 3d 4e 7d 18 be 6d 37 4c bd 29 0d 07 3e
       0.060153015 -0.1489155 -0.049857546 0.13188614
0002b0 f6 e9 98 3c ae b2 cb bc f7 10 af 3d e7 51 53 be
       0.018666249 -0.024865475 0.08548158 -0.20636712
0002c0 07 1e 9d bd 8e 57 a6 bd c0 0d 19 bd d3 28 46 be
       -0.07671743 -0.081221685 -0.03736663 -0.1935151
0002d0 ee f6 78 3d b4 ef 03 3d c4 ba 24 3e aa 72 13 3e
       0.060782366 0.03221102 0.1608687 0.1439921
0002e0 68 56 96 bd 6c ff a0 bc de 6b 15 bc f1 be a5 bd
       -0.073406994 -0.019653045 -0.009119956 -0.0809306
0002f0 b2 be 12 3e dd fe 24 3d 38 c3 42 be c9 9b 5c 3d
       0.14330557 0.04028212 -0.19019783 0.053859506
000300 14 ca 99 bd 84 4b 6f bb 4b 17 46 3e cf 75 ad 3d
       -0.075092465 -0.0036513517 0.19344823 0.08469736
000310 a3 0c a8 3c b9 de 09 be ce dc f6 bd c9 50 78 bd
       0.020513838 -0.13463868 -0.12053834 -0.060623918
000320 70 18 31 3d 41 a8 04 bd 6d 74 3f 3e af 24 11 3e
       0.043236196 -0.032387022 0.18696757 0.1417415
000330 c7 ea b7 bd 8d 56 5c bc 33 19 37 bd 35 1a 4b be
       -0.08980327 -0.01344837 -0.044701766 -0.19834216
000340 4c 2e 12 be 34 5d 1e 3d 8d 93 23 3d de 5f 73 bd
       -0.14275473 0.038663104 0.039935637 -0.059417598
000350 88 67 13 bd ce 04 5b 3d 57 a3 18 bc c0 99 32 be
       -0.035987407 0.05347138 -0.009316287 -0.17441463
000360 10 50 08 be 66 3b 13 bc c7 be 13 3e ed fd 75 be
       -0.13311791 -0.00898633 0.14428245 -0.24022646
000370 d1 e1 99 3d 04 07 d9 bd 24 21 34 be 83 75 a0 3d
       0.07513774 -0.10597041 -0.17590767 0.078349136
000380 22 30 a6 3c f6 8c 2d 3e 5c cc a8 bc e2 49 49 3d
       0.020286623 0.16948304 -0.020605259 0.049142726
000390 c1 d5 94 bd 0e 86 38 bc e5 8d 58 be 1f e5 31 bb
       -0.07267333 -0.01126243 -0.21147878 -0.0027144623
0003a0 05 9f 64 3d 16 cd bc 3b 70 36 c1 bd 43 95 f3 3d
       0.055815715 0.005761753 -0.09434211 0.11893704
0003b0 15 47 c9 3d 1f e7 77 3d ed 6b a6 3d 8c 18 0b 3c
       0.09828011 0.06052315 0.08126054 0.008489739
0003c0 6a 74 26 3e a0 3d 86 ba 29 f9 45 be 2c 5f 26 3e
       0.16255346 -0.0010241754 -0.19333328 0.16247243
0003d0 7e 8a 83 3c b7 9a f0 3d fe e2 a2 3d 44 63 06 be
       0.01605725 0.117482595 0.079534516 -0.13123804
0003e0 bb 52 70 3d 8b 0c a4 3d a8 ca bb bd 2d 03 d5 bd
       0.058672648 0.08010205 -0.09169513 -0.10400996
0003f0 34 21 2c bd 6a 28 2e 3e 63 23 ad bd af e7 00 3e
       -0.042023852 0.17007604 -0.08454015 0.1258838

network_body._body_endoder.seq_layers.0.bias f4 [64]
000000 02 6d 1b bd 02 2b 09 bd f8 0d e6 3c 8d 0a 09 3d
       -0.037945755 -0.03348828 0.028082833 0.033457328
000010 5f 33 01 bd 4d 1e a5 3b 91 c4 f3 bc 72 5e 82 3c
       -0.031543132 0.0050390125 -0.029756816 0.015914176
000020 9a 1c d1 3a 96 2d 44 3d d1 27 bb bc a7 47 ca 3b
       0.0015953959 0.047895037 -0.022846134 0.0061730924
000030 95 72 07 bb f7 82 73 bd ee c9 42 bd 38 2a ee 3c
       -0.0020667661 -0.05945107 -0.047555856 0.029072866
000040 63 0d 45 bc d8 6a 33 bd c3 04 25 3d 60 bd 37 3d
       -0.012027117 -0.043803066 0.040287744 0.044858336
000050 0d 7b 2a 3d a2 32 c2 bc 28 8a 19 3b 3b b7 2f 3b
       0.041621257 -0.023705784 0.0023428295 0.0026812095
000060 fd 76 75 bc 31 b3 dd 3b 12 99 be bc cc 94 82 bd
       -0.014981982 0.006765746 -0.023266349 -0.06376037
000070 28 38 10 bc 28 fd ee bb 8e 49 7b 3d 2c d6 02 3d
       -0.008802451 -0.007293362 0.061349444 0.03194253
000080 68 3d be 3c 03 19 b4 3c 0e 85 2d 3a f9 d8 04 3d
       0.02322264 0.021984583 0.0006619253 0.032433484
000090 48 84 b9 39 7f 05 16 bd 1d 7e f7 3c 92 2c b8 bc
       0.00035384507 -0.036626335 0.030211503 -0.02248219
0000a0 0d c3 b8 3c bd 37 42 bd ff d2 f9 bb bd 8e a0 bb
       0.022553945 -0.047416437 -0.0076240296 -0.004899828
0000b0 ef 74 dd ba 0c 00 79 bd 4a b5 5a 3d 0a 1c f0 3b
       -0.0016895811 -0.06079106 0.053395547 0.0073275613
0000c0 19 34 7e bc 00 7c 12 3d 9f e1 18 bd 93 01 fa bc
       -0.015515351 0.035762787 -0.037324544 -0.030518329
0000d0 6e b1 57 bc b0 f5 5d bc d9 15 e1 bc 71 21 8c bb
       -0.013164861 -0.013547346 -0.027476238 -0.0042764475
0000e0 71 1a 17 3d ea 57 fa 3c 0d c8 4d bc 13 ae 0b bd
       0.03689045 0.030559499 -0.012559903 -0.034101557
0000f0 a3 9f 01 bd 29 a4 e4 3c 27 bd 96 3b fb 7e 05 3d
       -0.031646382 0.027910309 0.0046001854 0.0325918

network_body._body_endoder.seq_layers.2.weight f4 [64, 64]
000000 59 07 5f 3d c7 d6 0d be 5d 16 1e be f5 a8 d8 be
       0.054450367 -0.13851462 -0.15438218 -0.42316404
000010 b2 ca 1f be 3f e2 40 bd aa f0 27 3e 2b 2e 03 be
       -0.15604666 -0.047090765 0.164004 -0.1281058
000020 8a 16 18 3e f3 34 40 3c 68 e2 77 3d 4a 75 67 be
       0.14852348 0.011731374 0.060518652 -0.22603336
000030 87 03 97 3e 01 ab 61 bd 43 5e 28 3d e1 9f 99 bc
       0.2949488 -0.055094723 0.04110552 -0.018752994
000040 cd 9a 66 bd 77 d9 ef 3d a8 bc d1 3b 56 69 69 3d
       -0.056299973 0.117114 0.0064006634 0.05698522
000050 e8 ef 71 be dd ca f2 3d 83 35 57 3d 93 10 1d 3d
       -0.23626673 0.11855099 0.052541267 0.038345885
000060 8c 66 27 3e 89 c9 09 be 15 0e 09 3e a7 c4 86 3d
       0.16347712 -0.13455786 0.13384278 0.06580477
000070 17 b8 61 bd a1 cd d5 bd c6 8e 63 be 3d 05 da bd
       -0.055107202 -0.10439611 -0.22222432 -0.106455304
000080 03 4d 6a be bc 79 83 bc 18 74 5a 3b 0b a3 ce bd
       -0.2288094 -0.016049258 0.0033333357 -0.10089692
000090 0e 8c 12 be c5 d2 8f 3d 8a 1d df bd 76 9d b6 bd
       -0.14311239 0.07022623 -0.10894306 -0.08916752
0000a0 72 81 04 be f4 13 d2 bd d5 65 37 bd b3 6d a3 3c
       -0.12940004 -0.10257712 -0.04477485 0.01994977
0000b0 22 8a 67 3e d7 e5 7d bd a6 e1 0b be 24 8a 7b bd
       0.22611287 -0.06198677 -0.13660297 -0.061411038
0000c0 87 fe 7c 3e f9 31 fc bd 2f 7b 2a 3e bd 1e a2 bd
       0.2470647 -0.12314219 0.16648553 -0.07916019
0000d0 91 f0 7e 3e 07 dd b3 3d 63 6c a5 3e 12 37 b5 3c
       0.24896456 0.08782392 0.32309255 0.022120986
0000e0 b4 bb 37 bd 29 75 85 be e3 84 0d 3e 82 d1 63 be
       -0.044856742 -0.2606595 0.13820224 -0.2224789
0000f0 b8 76 27 3e db a4 74 3d ce 9d e7 bd cf 9f b4 39
       0.16353881 0.05972753 -0.11309396 0.00034451342
000100 a4 da 48 bd ce 67 0e 3d a7 bf eb bd 6c b0 b6 bd
       -0.049036637 0.034766965 -0.11511164 -0.089203686
000110 4a b0 d0 3d dc 02 97 bc e4 ac 44 3e 01 a3 54 bd
       0.101898745 -0.01843398 0.19206578 -0.051913265
000120 37 ce d7 b9 ad 7e c8 bc 76 c0 1a bd b3 33 23 bd
       -0.00041161638 -0.024474466 -0.0377812 -0.039844226
000130 25 a2 d9 3c e9 5e 11 3e f8 24 10 be cb 96 63 3e
       0.026566574 0.14196362 -0.14076602 0.22225492
000140 5f 3e 34 bd 2b fc a0 3d fe 2c f9 bd 10 fb bb 3d
       -0.044004794 0.07860597 -0.12166785 0.09178746
000150 0f 5b 75 3d 1a d9 c9 3b a1 02 19 be 48 69 f6 3d
       0.059901293 0.0061599137 -0.14942409 0.120317996
000160 61 00 c4 3d 9a f9 05 be 6c f7 23 be a0 f9 36 bd
       0.09570385 -0.13083497 -0.16012353 -0.044671655
000170 04 2b 52 3d 45 d6 ab bd 87 01 5a be 16 62 11 be
       0.051310554 -0.08390478 -0.21289645 -0.14197573
000180 71 bd 68 3d 81 d3 5e be f4 98 42 3e e4 f4 47 bd
       0.05682129 -0.2176037 0.1900366 -0.04881753
000190 0c 3b 6e be 63 07 87 bc e4 96 dc bd 80 45 39 3d
       -0.23264712 -0.016483014 -0.107709676 0.045232296
0001a0 9c e1 f7 3c 11 9d 16 3d b2 47 b9 bd c9 5c a8 3d
       0.030258946 0.036770884 -0.09046878 0.08220822
0001b0 a9 a3 42 3e 6a 87 6c 3e 0d 2b 32 3d 98 2a c7 bc
       0.19007744 0.23098531 0.043498088 -0.024312302
0001c0 a0 1f 1d 3e be 97 ea bd 90 0c be bd 77 f9 f8 bc
       0.15344095 -0.11454724 -0.0927974 -0.030392392
0001d0 9f 5f 76 be 15 d9 1c 3e d6 7b b8 3c 8a fc 5e bd
       -0.24059914 0.15317185 0.022519987 -0.05444006
0001e0 98 03 e7 3d 72 40 3d 3d 28 64 39 bd 35 00 09 bd
       0.11279982 0.046204038 -0.045261532 -0.033447463
0001f0 2d 35 46 3c 28 f5 bb bd 77 9d 13 be 2b 1a 07 3e
       0.012097639 -0.09177619 -0.14415537 0.13193576
000200 27 d9 ef 3d a8 e1 a1 be a6 58 07 3e fc 92 d8 3d
       0.117113404 -0.31617475 0.1321741 0.1057491
000210 5b 5c f9 bd 47 83 5e 3d 6f eb de bd b8 a0 78 3e
       -0.121758185 0.054324415 -0.10884749 0.2428006
000220 51 10 9b 3d 71 fa 51 3d 2b 05 68 3d 83 ba 0e bd
       0.075714715 0.05126423 0.056645554 -0.03484584
000230 9d c4 a6 bd 9b fc 9b bc 82 ac f7 3c 5b f0 9a bd
       -0.0814297 -0.01904135 0.030233625 -0.075653754
000240 eb 2e 37 bd 5a e3 d1 bd 45 51 86 3d 03 56 26 be
       -0.04472248 -0.10248442 0.0655847 -0.16243748
000250 f3 c3 50 3d 15 a8 9e bc ae 50 2e bd 7d 43 a9 bd
       0.05096812 -0.019367257 -0.04255741 -0.082648255
000260 23 21 af 3d ea b6 69 bd 56 c7 29 bd e6 d2 81 bd
       0.08551242 -0.057059206 -0.041449867 -0.06339054
000270 8f f0 59 be 28 8d 85 be 93 c6 61 3d 20 70 6f 3d
       -0.21283172 -0.26084256 0.055121016 0.05845654
000280 ad 7e 86 bc 8c 20 75 3e 2c eb 40 3e 18 8c f8 3d
       -0.016417826 0.23938197 0.18839711 0.12136096
000290 3e 46 1f 3e a5 f2 61 be 93 ee 65 3e ff d5 23 3d
       0.15554139 -0.22065218 0.2245429 0.039999004
0002a0 2a 26 83 3e 3c a6 5a be 33 8d ce 3d 77 12 be bd
       0.25615054 -0.21352476 0.10085525 -0.09280866
0002b0 8b 50 48 bd f9 4f 5c bd 58 8a cc 3d 92 cb 30 3e
       -0.048904937 -0.053787205 0.099873245 0.17265156
0002c0 bd 4c ed bd 91 41 25 3e 39 27 a4 bd 9f bb e2 3c
       -0.11586902 0.16138293 -0.08015294 0.027677355
0002d0 af 99 33 3e 4c 7d 58 bd 02 d5 0b be 16 40 8e bd
       0.17539094 -0.052853867 -0.13655475 -0.06945817
0002e0 9b 37 94 bc c0 9b 9b 3b 77 43 0e be 8d 11 78 bd
       -0.018092921 0.0047487915 -0.13892923 -0.060563613
0002f0 49 68 16 bd 3d 45 d8 bd 36 2e 1f 3e c2 5c ea 3d
       -0.036720548 -0.10560081 0.15544972 0.114434734
000300 6c 80 20 bd a4 47 b3 3b d1 2b 2d be 82 02 bb bd
       -0.039184973 0.0054711867 -0.16911246 -0.09131338
000310 57 8d 80 3d f0 e3 1f ba 7c 43 cd 3d c6 5f 93 bc
       0.062769584 -0.0006099334 0.10022637 -0.017990004
000320 f6 21 c9 bc 0e 68 99 be 77 c9 3a 3e 70 a4 0d be
       -0.024552327 -0.299622 0.18240915 -0.13832259
000330 9e 4b 47 3e 22 e3 4e 3d 4d 3c b9 bc d8 97 05 bd
       0.1946244 0.05050958 -0.022611761 -0.032615513
000340 85 bc 80 3d 22 bc 85 bd dd 35 65 bd 2b 6a 01 3d
       0.06285957 -0.06530024 -0.05595957 0.03159539
000350 23 49 cc 3c 18 ef 5d 3c e9 9e 9a 3c 2f ee a2 bd
       0.024937218 0.013545774 0.018874602 -0.07955586
000360 9d ec 98 3e c7 4e db bd 14 7b fc bd 4d 1a 0c be
       0.29868022 -0.10708385 -0.12328163 -0.13681908
000370 46 f1 ca bc 4b 72 de bd 82 cb 85 bd cb 8b 1e 3d
       -0.024773251 -0.108616434 -0.06532957 0.038707536
000380 ad 23 21 be 49 63 e1 3c a0 27 34 3e 7d 9b 0d bd
       -0.15736265 0.027513163 0.1759324 -0.034572113
000390 f0 36 4f 3e 8a 37 9b 3d 8f 03 60 3d 14 d7 90 bd
       0.202358 0.075789526 0.054690894 -0.07072273
0003a0 db cd f5 bd d6 94 d0 3d ea ab 00 bd fc 1e 44 3d
       -0.120021544 0.10184638 -0.03141395 0.04788111
0003b0 50 08 d2 bd ee 67 02 be af a3 6f be 01 c6 2b bd
       -0.10255492 -0.12734959 -0.23402284 -0.041936878
0003c0 86 e7 14 3e 01 5b 82 bd 0c c9 c1 3e 97 ff 82 3e
       0.14541444 -0.06365014 0.378487 0.25585625
0003d0 92 eb 1f bd 0a 85 bf 3d 20 b5 9b 3d d8 ad a3 be
       -0.039043017 0.09351547 0.07602906 -0.3196857
0003e0 45 66 d3 3d 4d cf d4 bc 45 d6 08 be 79 f1 b2 3d
       0.10322241 -0.025977755 -0.13362987 0.087374635
0003f0 07 2a 00 bc 50 f6 0e 3c c9 5d 3c 3e 15 8c 12 be
       -0.00782252 0.008725718 0.18395151 -0.1431125

network_body._body_endoder.seq_layers.2.bias f4 [64]
000000 cd bf 5b bd 3d 65 cf bc 09 45 ec 3c 5b 2a 2f bd
       -0.053649712 -0.025316829 0.028841512 -0.042765003
000010 ba e1 27 bd 84 ed ee 3c e4 fe f4 bc 55 e9 6b 3b
       -0.040986754 0.02916599 -0.029906698 0.003599723
000020 89 af 0e 3c 14 9f cd bc ac ee f7 3c fc 91 db 3c
       0.008708843 -0.025100268 0.030265175 0.02680301
000030 7e 5f 48 bd 5a 90 6b bd 4c bf 4a 3d 0b d4 65 3c
       -0.048919193 -0.05751071 0.04949884 0.014027606
000040 4a d0 1f 3b 20 4b 1e bc c6 9b 69 bd 4d fd 82 bd
       0.0024385625 -0.009661466 -0.057033323 -0.063959695
000050 77 e4 08 bd 15 49 23 3d f8 ef cd 3c 27 c5 db 39
       -0.033421006 0.03986462 0.02513884 0.00041917825
000060 22 7f 3c bb 2b 4b ed bc ec dc 97 bc 9b bd dc bc
       -0.00287623 -0.028966507 -0.018537961 -0.02694588
000070 8e 56 16 bd 5b ce 44 bd 44 b7 a4 3b 3b 03 91 3c
       -0.03670364 -0.04804836 0.00502673 0.017701736
000080 66 01 0f 3d 1c ad 2a bd 04 85 73 bd d3 ad b8 3c
       0.034913443 -0.041668996 -0.059453025 0.022543823
000090 3d 44 f5 3c 0d fd 9c 3c 18 65 e9 3c 9c 55 37 bd
       0.029939765 0.019163633 0.028490588 -0.044759378
0000a0 05 1d 2b 3d 80 e2 06 3d 9a 46 94 3c 2e f9 c6 bb
       0.041775722 0.03293085 0.018100072 -0.006072185
0000b0 29 b5 33 3d a3 07 aa 3c 59 46 41 bd 5e 5f d6 bb
       0.04387394 0.020755595 -0.04718623 -0.0065421304
0000c0 4d ae 16 bd 0c fe 96 3b 44 1b 9b bc fe 63 d9 3c
       -0.03678732 0.0046079215 -0.0189339 0.026536938
0000d0 6c 9e 14 bd ce d3 53 3d 09 68 3b 3d 08 96 4d 3d
       -0.036283895 0.051715665 0.045753513 0.05019191
0000e0 c8 f3 b0 3b 39 5e b3 3c 66 1c 26 bd 87 6f 69 3b
       0.0054001547 0.021895515 -0.040554427 0.0035619454
0000f0 36 f6 25 bb 79 d0 1e bd 37 27 2b bd df 08 37 3d
       -0.0025323755 -0.038773034 -0.041785445 0.044686195

action_model._continuous_distribution.log_sigma f4 [1, 2]
000000 04 a4 21 be 9c 7a 15 be
       -0.15785223 -0.14597553

action_model._continuous_distribution.mu.weight f4 [2, 64]
000000 2e 7f 5e 3d f8 ef 0b 3d 02 c1 b2 bd 66 3c d8 3d
       0.054320507 0.0341644 -0.087282196 0.10558395
000010 da 48 83 3d 75 0d 78 bd e3 8b 86 3d da 04 5b bd
       0.0641038 -0.06055971 0.0656965 -0.053471424
000020 d2 d1 48 bd b2 26 34 3d c3 51 4c bd f0 5b 79 bd
       -0.049028225 0.043982215 -0.04988266 -0.060878694
000030 1b ea a0 3d 0f e5 74 3d e7 1f b2 bd ed e2 18 bd
       0.07857152 0.05978876 -0.08697491 -0.03732579
000040 99 74 8e bc 91 34 91 3b 8c 4c be 3d 3f 0c 60 3d
       -0.017389582 0.004431315 0.09291944 0.05469918
000050 ed 7b d3 3c 98 d4 7d bd 93 be 8c bd 5c c3 91 3c
       0.025815928 -0.061970323 -0.06872287 0.01779335
000060 23 7f 35 3b 2a 27 90 3d 1f b3 a0 3d 6e 97 67 3d
       0.0027694188 0.0703872 0.07846665 0.0565409
000070 fe 89 4e 3d d3 67 ae 3d 54 26 fd 3c 7c b8 7b bd
       0.05042457 0.08515897 0.030902065 -0.061455235
000080 8e 31 b9 bd 43 59 07 3e bc 8d 84 3d bf 7c 17 bd
       -0.09042655 0.13217644 0.06472346 -0.0369842
000090 96 fe 86 bd f4 13 07 bd e1 64 73 bc d7 14 4e 3d
       -0.06591527 -0.032978013 -0.014855594 0.050312843
0000a0 ab cb b6 bd 27 de 50 bd f0 70 31 bd 7c 38 22 3d
       -0.08925565 -0.05099311 -0.043320596 0.03960465
0000b0 56 25 95 bd 99 19 fa bc b8 2f 8f 3d 1f 73 0e bd
       -0.07282512 -0.030529784 0.069915235 -0.034777757
0000c0 49 49 ed 3c fe bc d6 3b 03 a1 d3 3c a1 27 8a bd
       0.02896561 0.0065532913 0.025833612 -0.0674584
0000d0 c9 3c db 3d 74 21 ef bd f1 d0 c3 bd 4d f1 ab bd
       0.10704953 -0.116763026 -0.09561337 -0.08395634
0000e0 0c 7b 7f bc 9e 1f 2a bd 01 4e a4 3d db 13 f0 38
       -0.0155933015 -0.04153406 0.080226906 0.0001144779
0000f0 9c 9a a2 3c 5c b8 67 3d 48 7e a7 3d 3f 5a c2 bd
       0.019849114 0.056572303 0.08178383 -0.09489869
000100 62 1b e3 3a eb d1 5b 3d f0 b2 0f 3d dd 74 3b 3d
       0.0017326886 0.05366699 0.035082757 0.045765746
000110 c2 c8 cf 3b 75 14 11 bd 1f 4b 13 3d 34 e0 57 3c
       0.006341071 -0.0354199 0.035960313 0.013176013
000120 77 d0 ce b7 61 2d cb 3a bc bf ef 3b f7 18 fb 3b
       -2.4654188e-05 0.0015501195 0.0073165577 0.007662888
000130 04 98 0c 3c 23 ee b3 3b e3 df a8 bc d1 3c a0 bb
       0.008581165 0.0054910346 -0.02061457 -0.0048900624
000140 de 74 77 3b 12 d0 1f 3c ec 33 d4 bb f6 d3 4a 3c
       0.0037758867 0.009754198 -0.006475916 0.012379637
000150 66 20 64 3d b9 c6 e0 bc f4 85 9b ba ea e2 81 3c
       0.05569496 -0.027438508 -0.0011865483 0.015855271
000160 1c 77 c0 3a d2 9c 3b bc 44 7d ab bc c5 7e c1 bb
       0.0014683935 -0.011450963 -0.020933755 -0.0059050047
000170 c5 e5 85 3c 2b c9 16 3c 05 48 a7 bc a6 29 4c ba
       0.016344914 0.009203236 -0.020420084 -0.00077881885
000180 61 ac 9a bc ec 47 1a 3d 22 b8 6f 3a 7f 0c 32 bc
       -0.018881025 0.037666246 0.00091445644 -0.010867237
000190 15 1b d8 bc 63 64 87 3c b8 17 00 3b f9 0a f6 bb
       -0.026380101 0.01652736 0.0019545387 -0.0075086323
0001a0 37 ac 54 ba 6d 8e a7 bc 88 7d d9 bc 0d ec 90 bb
       -0.000811282 -0.020453656 -0.026549116 -0.0044226707
0001b0 34 13 41 bc fc aa 30 3c 05 9a d3 3b 34 44 1b bc
       -0.011784364 0.010782953 0.0064575695 -0.00947671
0001c0 c8 9d 8b 3c 05 6f 5c 3c 1c d1 2e bc f2 c0 7f 3c
       0.01704301 0.0134542035 -0.010669973 0.015609967
0001d0 18 25 be bb 4d ff 20 bb fe 63 60 bc 61 b3 bb bc
       -0.0058027618 -0.0024566234 -0.013695715 -0.022912683
0001e0 53 1f f8 bb b7 ce b0 bb 47 b3 ce bb 3b d9 7b 3c
       -0.0075720935 -0.005395736 -0.0063079926 0.015371616
0001f0 5f 3e 82 3c 5a 10 97 bc c0 7c 5c 3d 84 68 13 bd
       0.015898881 -0.018440414 0.05382991 -0.035988346

action_model._continuous_distribution.mu.bias f4 [2]
000000 94 04 69 bd 91 c5 33 bc
       -0.05688913 -0.0109723965

action_model._discrete_distribution.branches.0.weight f4 [2, 64]
000000 71 cf 14 bc 9e a6 a2 b9 92 7b 28 bc fc ad 17 bb
       -0.009082661 -0.00031023187 -0.010283368 -0.0023144474
000010 d2 e1 2e 3d 74 ff b5 bc 9c b3 fa bc 03 7a 8e bc
       0.042695828 -0.022216536 -0.030603223 -0.017392164
000020 18 2c 20 bd 72 1a ed bc 1a 36 96 3a 72 d0 94 bb
       -0.03910455 -0.028943274 0.0011460215 -0.00454145
000030 8f d4 6e bc 43 01 01 bd 88 d2 96 bc 21 99 2a 3b
       -0.014577045 -0.031495344 -0.018410936 0.0026031213
000040 c6 d3 b0 3b 01 0a e3 3c dc ea 34 3c 58 2d 3f bc
       0.005396339 0.027714731 0.011042323 -0.011668526
000050 3c e6 bb bc d6 94 11 bc 11 4f 9c bc 28 fb d8 3c
       -0.022936933 -0.008885583 -0.01908067 0.026486948
000060 43 e4 54 bc aa 02 35 bc 5f a2 df 3b 15 d8 b6 3b
       -0.012993875 -0.011047998 0.006824776 0.005579958
000070 70 99 17 3d fb 60 ba 3c 02 32 17 bd 79 46 74 bd
       0.037011564 0.022751322 -0.036912926 -0.05963752
000080 26 af 14 3c b1 99 0a 3c fa 20 45 3b a3 89 36 bd
       0.009074962 0.008459494 0.003007947 -0.044564854
000090 e6 ff 4a 3b 85 0f 3c 3d ec 5b 2f 3c 2e ba d3 bb
       0.0030975281 0.045913238 0.010703068 -0.0064614033
0000a0 da 44 ef bc df e0 28 bd ad b5 2d 3c ec 8c 1e 3d
       -0.029207636 -0.04123008 0.010602397 0.038708612
0000b0 9e 91 5c bb 2d bf 89 3c 91 65 5a bc 5e 48 fe bc
       -0.003365613 0.016814793 -0.013329879 -0.031040367
0000c0 97 af 91 3c 14 57 f7 3c 90 77 11 3c 26 a1 0a bd
       0.017783923 0.03019289 0.008878604 -0.03384509
0000d0 28 d4 40 bb 4a 22 32 3c f4 96 c5 bb 18 96 83 bc
       -0.002942333 0.010872433 -0.006029958 -0.016062781
0000e0 74 87 75 bb 82 4f 13 bc ef ad 09 3d 25 a1 d5 bb
       -0.003746477 -0.008991124 0.03361314 -0.006519454
0000f0 67 af f4 bc 47 ba f5 3c 3d 8c 57 3c c2 de 95 3b
       -0.029868795 0.02999605 0.013155994 0.004573674
000100 61 90 38 3d 24 7a 3e bc c4 ee 39 3c 93 ba 82 bb
       0.045059565 -0.0116258 0.01134843 -0.0039895265
000110 c1 5a ee bc 67 5b 8e 3c ee fa 24 3c 6c 60 12 3d
       -0.02909601 0.017377568 0.010069592 0.035736486
000120 1f 22 60 3d 6a 15 07 3d 67 90 74 3c 2e 5e 57 3c
       0.05472004 0.032979406 0.014927006 0.013145013
000130 1c 17 ca 3c 95 f7 55 3c ae 7b c4 3c ae 48 25 3c
       0.024669223 0.013059516 0.023984756 0.010088129
000140 2e 07 c6 bc a7 ea 32 bd 61 d6 00 bd bd 3e 89 3c
       -0.024173345 -0.043680813 -0.031454448 0.016753549
000150 60 22 09 3d 1e 1e ce 3c be e5 35 3c 84 60 77 bc
       0.03348005 0.025160845 0.011102138 -0.015098695
000160 f0 ec 80 bc a4 c8 79 3c b2 e2 75 bc bf ed 01 bd
       -0.01573798 0.01524559 -0.015007662 -0.031720873
000170 32 94 b8 bc da ad 28 bc f5 37 b9 37 69 97 be 3c
       -0.022531603 -0.010295356 2.2079776e-05 0.023265557
000180 66 ed cc 3c 85 59 f3 bc 56 49 59 3c bd ad 4b 3d
       0.025015544 -0.029705772 0.013262114 0.049726237
000190 87 1a af bc 13 c2 07 bc f6 55 d2 3a 6d 29 98 3c
       -0.021374954 -0.008286017 0.0016047347 0.01857444
0001a0 4b 74 1d 3d f1 0e 43 3d e5 9d c5 3b 6b 66 ed bc
       0.038440984 0.04762167 0.0060307854 -0.0289795
0001b0 40 93 ba 3b 8e 71 d0 3c 4b 4b 5e bc c5 ee 40 3c
       0.005693823 0.025444772 -0.013567756 0.011775677
0001c0 a4 98 33 b9 b1 00 ef bc 83 b7 01 3a a5 8a c6 3c
       -0.00017127633 -0.029175134 0.0004948305 0.024236033
0001d0 0a b7 d7 3a f4 69 ed 3b 76 d4 12 3d 54 38 b4 ba
       0.0016457748 0.0072452966 0.03584715 -0.0013749697
0001e0 cd 88 14 bb 37 52 b3 3c c4 08 ba bc b5 9d 9e bc
       -0.0022664547 0.021889789 -0.022709258 -0.01936231
0001f0 7b ce b5 3c 58 59 1c bc 68 53 fc 3b 66 a5 89 3c
       0.022193184 -0.009542786 0.0077003725 0.016802501

action_model._discrete_distribution.branches.0.bias f4 [2]
000000 7a ba 2b 3c 79 ba 2b bc
       0.010481471 -0.01048147
