Assets/ML-Models/AirCollectorPlus3.onnx (onnx, 48856 bytes, 9 tensors)

network_body._body_endoder.seq_layers.0.weight f4 [64, 93]
0	0x3d831d9b	0.06402131
1	0x3e7ff817	0.24996983
2	0x3bf1cb26	0.0073789535
3	0xbe15678d	-0.14590283
4	0x3e83ed47	0.25766966
5	0x3d2572d1	0.0403927
6	0xbe6e1774	-0.23251134
7	0xbd9ce9b0	-0.0766176
8	0xbe0e3cdb	-0.13890402
9	0x3e24fd33	0.16112213
10	0xbd9196d1	-0.07108844
11	0x3d5df932	0.05419273
12	0x3e328336	0.17432866
13	0x3e456f15	0.19280656
14	0xbdd12c06	-0.10213475
15	0x3dbece1e	0.093166575
16	0x3bd87c0b	0.006606584
17	0x3e28f1a7	0.16498433
18	0x3de07b1d	0.10960982
19	0xbd80128a	-0.06253536
20	0xbd0e3d99	-0.034726713
21	0x3e24b147	0.16083251
22	0xbdc3c17f	-0.09558391
23	0xbd8a9531	-0.06766737
24	0x3dee1c23	0.116264604
25	0xbe230f60	-0.15923834
26	0xbdfeefc2	-0.12448074
27	0xbc859ec7	-0.016311062
28	0x3e03f36d	0.12885828
29	0x3e7a30d3	0.24432687
30	0xbe2cb890	-0.1686728
31	0x3cba23f1	0.022722216
32	0x3d8d1c84	0.068902045
33	0x3bcb603d	0.006206541
34	0xbd3f5f6a	-0.046721853
35	0x3dd53394	0.10410228
36	0xbbb976ce	-0.0056599146
37	0x3e55e88b	0.2088949
38	0xbd267df8	-0.040647477
39	0x3d7ad4b5	0.06123801
40	0x3d1caf8a	0.038253345
41	0x3d8abcdd	0.06774304
42	0xbda39020	-0.07986474
43	0xbad46dda	-0.0016207055
44	0xbc8d2ad9	-0.017232345
45	0xbe5a40e2	-0.21313813
46	0xbce0bc86	-0.027433645
47	0xbe00074e	-0.12502787
48	0x3eaaaa7a	0.33333188
49	0x3d4742d4	0.048647717
50	0xbc5b3e4b	-0.013381551
51	0x3e3c0b27	0.1836363
52	0xbd9c4c69	-0.076317616
53	0x3eac7556	0.3368327
54	0x3d41499b	0.047189336
55	0xbdd224d4	-0.10260931
56	0x3c59ae3e	0.0132861715
57	0x3e9812ab	0.29701743
58	0x3db155d2	0.08658947
59	0x3e05bb13	0.13059644
60	0x3e26bf81	0.1628399
61	0x3e885baa	0.26632434
62	0xbd42a6c0	-0.047522306
63	0xbd966ddd	-0.073451735
64	0x3e95cd31	0.2925811
65	0x3e0ae1b7	0.13562666
66	0x3e1cc780	0.15310478
67	0xbc4e78ec	-0.012602072
68	0xbdc331d9	-0.09530992
69	0xbb377a58	-0.0027996507
70	0x3ea90169	0.33008888
71	0xbcc5f144	-0.024162896
72	0x3eaed6e4	0.34148324
73	0x3ead3778	0.33831382
74	0x3e085b74	0.13316137
75	0xbde3f22e	-0.111301765
76	0xbcf22301	-0.029557707
77	0xbb2a58ce	-0.0025992873
78	0x3e98d6f6	0.29851502
79	0x3d732813	0.05936439
80	0x3b763dbf	0.0037573425
81	0x3ea0e2e5	0.31423107
82	0x3d4571cc	0.04820423
83	0xbddc1603	-0.10746386
84	0xbe13a255	-0.14417394
85	0xbb371990	-0.002793882
86	0x3cf34ad7	0.029698772
87	0x3d3bad2a	0.04581944
88	0x3e1aef08	0.15130246
89	0x3dafbfcd	0.08581505
90	0x3d3c38cb	0.0459526
91	0xbe84b80f	-0.25921676
92	0x3e330585	0.17482574
93	0x3dcb4483	0.09925177
94	0x3d0805c6	0.03320863
95	0x3b807e3d	0.003921299
96	0xbe07fd71	-0.13280274
97	0x3df3255d	0.11872361
98	0xbc9e4401	-0.019319536
99	0x3dc158c0	0.09440756
100	0xbd88b499	-0.06675071
101	0x3e412262	0.18860772
102	0x3d0ed3ba	0.034869887
103	0x3c8546f6	0.016269188
104	0xbde8ca87	-0.11366754
105	0x3dc4865a	0.09595938
106	0xbed2aeaa	-0.41148883
107	0xbd45b625	-0.04826941
108	0x3dc8cd30	0.098047614
109	0x3e5e2db2	0.21697119
110	0x3b92f1fd	0.0044844137
111	0xbcff25d5	-0.03114597
112	0xbe3a6e49	-0.18206133
113	0x3e0c70fe	0.13714978
114	0xbd11698e	-0.035501055
115	0xbdee576d	-0.11637769
116	0xbe186101	-0.14880754
117	0x3d233bc0	0.039851904
118	0xbd62531a	-0.055255033
119	0xbca559d5	-0.020184437
120	0xbe28ae27	-0.16472684
121	0xbe8f953c	-0.28043544
122	0xbdb9187a	-0.09037872
123	0x3bf85560	0.007578537
124	0xbdcf8833	-0.101334
125	0x3d6a002c	0.05712907
126	0x3d817e79	0.06322951
127	0x3e613e06	0.21996316
128	0x3d6fc6fc	0.058539376
129	0xbe7158a6	-0.23568973
130	0x3d7019f0	0.058618486
131	0x3e0ada54	0.13559848
132	0x3d31c67b	0.043402176
133	0x3dd982d8	0.106206596
134	0x3e8ef2ca	0.27919608
135	0x3be1377e	0.0068730703
136	0x3da7b717	0.081892185
137	0xbe50c5ce	-0.20387957
138	0x3d1c8c7d	0.038219918
139	0xbcda46bf	-0.026645062
140	0xbe88f5c6	-0.2675001
141	0x3d5a1fc4	0.05325295
142	0x3e0f0f4a	0.13970676
143	0x3c80b9e1	0.015713634
144	0xbe9d7391	-0.30752233
145	0x3dae2f80	0.08505154
146	0xbde15392	-0.11002268
147	0x3ccc7f29	0.024962978
148	0xbd52cd1e	-0.051465146
149	0xbd01d06e	-0.031692915
150	0x3c8d0f30	0.017219156
151	0x3e472f14	0.19451553
152	0x3d717fea	0.05895988
153	0xbd1a45c5	-0.037664194
154	0xbdb6013c	-0.08886954
155	0xbc76432e	-0.015030665
156	0x3d9aa7a1	0.07551504
157	0xbdcc2a08	-0.09968954
158	0xbe76ea3a	-0.24112788
159	0x3c81e365	0.0158555
160	0x3cd58ba9	0.026067572
161	0xbd3a0369	-0.04541341
162	0x3dbff6fe	0.09373282
163	0xbe099a1f	-0.13437699
164	0x3d9b80f6	0.07592957
165	0xbe767f0f	-0.24071907
166	0xbea5b78e	-0.32366604
167	0xbe310b8a	-0.17289558
168	0xbd7f4aca	-0.062327184
169	0xbd12cf25	-0.03584208
170	0xbd3759b8	-0.044763297
171	0x3d4ced49	0.05003098
172	0x3d1ead8e	0.038739733
173	0x3d2e29aa	0.042520203
174	0x3bdbfc23	0.0067134066
175	0x3ce379ca	0.027768034
176	0xbe8e888d	-0.27838555
177	0xbe69730e	-0.22797796
178	0x3eb817b8	0.35955596
179	0x3e637d0c	0.2221567
180	0x3ca1730e	0.019708183
181	0xbd89925f	-0.06717371
182	0x3e2edba9	0.17075981
183	0x3bd8019e	0.0065919897
184	0x3d0be4b4	0.034153655
185	0xbd12ee2b	-0.035871666
186	0x3d17447e	0.036930554
187	0xbdee006a	-0.11621173
188	0xbd1539c4	-0.036432043
189	0x3e872d86	0.2640192
190	0xbe219d6c	-0.15782708
191	0xbdeae00a	-0.11468513
192	0xbd9c3287	-0.07626825
193	0xbdcbc3a0	-0.09949422
194	0x3d7ad4c8	0.06123808
195	0xbde55e14	-0.111995846
196	0x3e414ea0	0.1887765
197	0x3dac7f3a	0.08422704
198	0x3e50e12f	0.203984
199	0xbd95f95d	-0.07322953
200	0x3c9a9f74	0.018874861
201	0xbd59bbdf	-0.053157683
202	0x3c8e95c9	0.017405408
203	0xbd8b7a77	-0.06810468
204	0xbd75447e	-0.059879772
205	0xbdbccf7c	-0.09219262
206	0xbd9ed8fa	-0.07756229
207	0x3e0f1c46	0.13975629
208	0x3d069762	0.032859214
209	0xbe185140	-0.14874744
210	0x3e2fd2a3	0.17170195
211	0xbe6905b2	-0.22756079
212	0x3e3c88b0	0.18411517
213	0xbceda799	-0.02901058
214	0xbd9c8ec0	-0.07644415
215	0xbdae99bb	-0.085254155
216	0xbdad3a50	-0.08458388
217	0xbd02d218	-0.031938642
218	0xbd91269b	-0.070874415
219	0xbe0aede8	-0.13567317
220	0xbcda9ecf	-0.026687054
221	0xbe152b23	-0.14567237
222	0xbe0f2807	-0.13980113
223	0xbd6b9d90	-0.05752331
224	0x3989f320	0.00026311819
225	0xbe047a6f	-0.1293733
226	0x3e0f8c91	0.14018466
227	0xbd89c52d	-0.067270614
228	0xbe215ec9	-0.15758814
229	0xbdfab15a	-0.122408584
230	0x3e04940f	0.12947105
231	0xbe1acb6c	-0.15116662
232	0xbded5f06	-0.1159039
233	0x3d251291	0.04030091
234	0x3d23460e	0.03986173
235	0x3db3585f	0.0875709
236	0xbcf55187	-0.029946102
237	0xbdcf0d92	-0.1011001
238	0xbd19f80a	-0.037590064
239	0x3dff6cfa	0.124719575
240	0x3de27dc9	0.11059148
241	0xbc97fc2c	-0.018552862
242	0x3d24890f	0.04016977
243	0xbd412d4c	-0.04716234
244	0xbda05000	-0.07827759
245	0x3c3afa67	0.01141224
246	0x3dd40605	0.10352711
247	0x3dad4af3	0.08461561
248	0xbe1e11df	-0.15436505
249	0x3d7dc768	0.061957747
250	0x3dca59d1	0.09880412
251	0xbe27671e	-0.1634793
252	0x3d813a7b	0.063099824
253	0xbe4e50d4	-0.20148021
254	0xbcb9bbd9	-0.02267258
255	0xbe1e0051	-0.15429808

network_body._body_endoder.seq_layers.0.bias f4 [64]
0	0x3d01e38e	0.031711154
1	0xbc9705b2	-0.018435333
2	0xbd2ad531	-0.04170722
3	0xba6bfcce	-0.00090022094
4	0x3caa1c07	0.020765318
5	0x3cc06040	0.023483396
6	0x3d4a1f49	0.049346242
7	0xbb8a9636	-0.0042293323
8	0x3c76c457	0.0150614595
9	0xbd5d9ba1	-0.054103497
10	0xbdb7c1af	-0.08972489
11	0x3d1be3ef	0.03805917
12	0xbcd06857	-0.025440378
13	0xbdb036ad	-0.086041786
14	0x3b04caa8	0.0020262394
15	0xbd8d6d90	-0.06905663
16	0x3cc6d9c9	0.02427377
17	0x3d6fc852	0.05854065
18	0x3d0db158	0.034592956
19	0xbbf376aa	-0.0074299173
20	0x3b6a694b	0.0035768326
21	0x3dbbde8d	0.091733076
22	0x3d81f720	0.063459635
23	0x3c507247	0.012722558
24	0x3c36a01f	0.011146574
25	0xbba0347c	-0.004889069
26	0x3d4bccaa	0.04975573
27	0x3d0b5eff	0.034026142
28	0xbd14320c	-0.03618054
29	0x3cdd877c	0.027042143
30	0xbd15c106	-0.036561035
31	0xbd8614e8	-0.06546956
32	0xbd0485eb	-0.032354277
33	0x3d376a89	0.044779334
34	0x38ee5468	0.00011364446
35	0x3cf115cd	0.02942934
36	0x3aca09d8	0.0015414311
37	0xba99417a	-0.0011692487
38	0x3c35fa85	0.011107092
39	0x3ae828ca	0.0017712351
40	0x3be332e0	0.006933555
41	0x3d42aad4	0.047526196
42	0xbc1131e9	-0.008861997
43	0xbccbec24	-0.024892874
44	0x3b8ef24d	0.0043623806
45	0xbd0b6822	-0.034034856
46	0x3d2177dd	0.03942095
47	0xbca9233d	-0.020646686
48	0xbd88a418	-0.066719234
49	0x3c562d4b	0.013072322
50	0xbbb767ba	-0.005597082
51	0xbbf342f8	-0.007423755
52	0x3d0daac2	0.034586675
53	0xbc79e069	-0.015251257
54	0xbbfebef0	-0.0077742264
55	0x3d7c926f	0.061663087
56	0x3d99920a	0.07498558
57	0xbd562a51	-0.05228645
58	0x3d901bee	0.07036577
59	0xbd9032b0	-0.07040918
60	0x3d1e410a	0.038636245
61	0x3d138427	0.036014702
62	0xbc7dcf7b	-0.015491362
63	0xbd3a84d5	-0.045536835

network_body._body_endoder.seq_layers.2.weight f4 [64, 64]
0	0xbc39c84c	-0.011339258
1	0x3dfa4106	0.122194335
2	0xbcb9e076	-0.02269004
3	0x3deba9bb	0.11506983
4	0xba50023f	-0.0007934905
5	0xbcbfb822	-0.023403231
6	0xbe64af47	-0.22332488
7	0xbd3faceb	-0.046795767
8	0xbdd596c7	-0.10429149
9	0x3e5229b6	0.20523724
10	0xbccb7bf3	-0.024839377
11	0x3d8de806	0.069290206
12	0x3d9e14d7	0.07718819
13	0x3be4d647	0.0069835517
14	0xbd33fbbc	-0.043941244
15	0x3e9185d1	0.28422406
16	0x3d51db8d	0.05123477
17	0xbe0f906c	-0.14019936
18	0x3ced44eb	0.028963527
19	0x3dfef7b2	0.12449588
20	0x3ccbd556	0.024882
21	0x3e17f659	0.14840068
22	0x3e23ae7d	0.15984531
23	0x3df2f16c	0.11862454
24	0xbe09dcc7	-0.13463126
25	0xbe8f7a31	-0.28022912
26	0x3e056e1e	0.13030288
27	0xbdf91b4f	-0.12163412
28	0xba708f32	-0.0009176611
29	0xbdcc784f	-0.099838845
30	0x3dace9b5	0.084430136
31	0x3e289bdc	0.16465706
32	0xbe9fbe6c	-0.31199968
33	0x3be3270d	0.0069321455
34	0xbdb68ef8	-0.08913988
35	0x3d7daf07	0.061934497
36	0x3e56b5c2	0.20967773
37	0x3e60afd3	0.21942072
38	0xbe7d1a8f	-0.24717163
39	0x3daa6200	0.08319473
40	0xbd87ad20	-0.06624818
41	0xbdb62c4c	-0.08895168
42	0xbddf241d	-0.1089556
43	0xbd8644b5	-0.065560736
44	0x3d643f58	0.05572447
45	0xbc9bc050	-0.0190126
46	0xbdcf3e08	-0.101192534
47	0x3d63fda8	0.055661827
48	0xbdf61c9d	-0.12017176
49	0x3e0fb9aa	0.14035669
50	0x3d318c03	0.043346416
51	0xbdf0838c	-0.117438406
52	0x3d94308d	0.07235823
53	0xbd4b2d49	-0.049603734
54	0x3d646bcd	0.05576687
55	0xbdd38840	-0.10328722
56	0x3d9b584c	0.07585201
57	0x3b2debe4	0.0026538307
58	0xbcb9ae98	-0.02266626
59	0xbd5ceecd	-0.053938676
60	0xbcd9d25e	-0.026589569
61	0xbe02a001	-0.12756349
62	0xbba013a2	-0.004885153
63	0xbe20b5e1	-0.15694381
64	0xbe076012	-0.13220242
65	0x3d6866af	0.05673855
66	0x3e0a3024	0.13494927
67	0xbe08a141	-0.13342763
68	0xbdfa3de3	-0.12218835
69	0x3e8f7098	0.2801559
70	0xbe9f8ad8	-0.31160617
71	0xbd34ceac	-0.04414241
72	0xbd975236	-0.07388727
73	0x3e1a577d	0.15072437
74	0x3dfa0b60	0.12209201
75	0xbe1758f7	-0.14780031
76	0x3e66b49d	0.22529836
77	0xbde77fd2	-0.11303677
78	0x3e30cc77	0.17265497
79	0xbdaf6d74	-0.085657984
80	0x3e401ec6	0.18761739
81	0xbd92b8de	-0.07164167
82	0xbdecb4e4	-0.1155794
83	0xbe377057	-0.17913948
84	0xbe21d83b	-0.15805142
85	0x3db7e3ee	0.08979021
86	0xbe2a8668	-0.16652834
87	0x3ce64463	0.028108781
88	0xbe925783	-0.2858239
89	0xbe72f24a	-0.23725238
90	0xbe3bf971	-0.18356873
91	0xbce0b11f	-0.027428208
92	0x3e44f982	0.19235805
93	0xbc9463b5	-0.01811395
94	0x3e4d3f13	0.20043592
95	0x3d233611	0.039846484
96	0x3e83c315	0.25734773
97	0xbd58c2cc	-0.052920148
98	0xbd1708df	-0.036873695
99	0x3d9adf9a	0.0756218
100	0x3e6127a9	0.21987785
101	0x3d5268bd	0.051369417
102	0x3e996b7e	0.29964823
103	0x3e23da33	0.16001205
104	0x3d27ed40	0.040997744
105	0x3c66a91e	0.014078407
106	0x3dc43c8a	0.095818594
107	0x3e150bcb	0.1455528
108	0x3ea05be9	0.31320122
109	0x3df3f274	0.11911479
110	0xbdca760b	-0.09885796
111	0xbd900b47	-0.07033401
112	0xbb3721ee	-0.0027943808
113	0xbcc51d95	-0.024061957
114	0x3dee3233	0.116306685
115	0xbdfd9c68	-0.12383348
116	0xbe2e7fca	-0.17040935
117	0xbd8c7a4d	-0.068592645
118	0x3e95742a	0.2919019
119	0x3d49aea7	0.049238827
120	0xbdc38c59	-0.095482536
121	0x3e38426d	0.1799409
122	0xbe0232b3	-0.12714653
123	0x3e1b38cd	0.15158387
124	0xbe122ef3	-0.14275722
125	0xbdc6b6dd	-0.09702847
126	0xbceab4c4	-0.028650649
127	0x3e26b850	0.16281247
128	0x3ed30fad	0.41222897
129	0xbdbb2482	-0.09137823
130	0xbe94ab6e	-0.2903704
131	0x3d660a76	0.05616232
132	0xbc2ab9c4	-0.010420267
133	0x3e1fa350	0.15589643
134	0x3e1c7028	0.15277159
135	0xbcb56169	-0.022141175
136	0xbddc21da	-0.10748644
137	0x3de81269	0.113316365
138	0x3e402774	0.1876505
139	0x3e12cc81	0.14335825
140	0x3daad4f8	0.08341402
141	0xbd942a0d	-0.07234583
142	0x3dae4c5f	0.085106604
143	0x3df60c6e	0.120140895
144	0x3cfd832a	0.030946333
145	0xbc16a535	-0.009194662
146	0x3c1d097a	0.009584779
147	0xbddf29ab	-0.108966194
148	0x3dbb6da9	0.091517754
149	0xbc04be15	-0.00810196
150	0x3e2e97d2	0.17050102
151	0xbe8f9f2d	-0.2805113
152	0xbd475c08	-0.048671752
153	0xbe7ad583	-0.24495511
154	0xbde71229	-0.11282761
155	0x3e0cd2dd	0.13752313
156	0x3c59f057	0.01330193
157	0x3e6061ff	0.21912383
158	0xbe35a111	-0.17737223
159	0xbda2a360	-0.079413176
160	0xbe750f9a	-0.23931733
161	0xbd512583	-0.051061165
162	0xbe0cd1b5	-0.13751872
163	0x3d0ee1cf	0.034883317
164	0xbea5aff0	-0.32360792
165	0xbcf21283	-0.029549843
166	0xbdb8dcaa	-0.09026463
167	0x3dcda3bb	0.10040995
168	0x3e2d40ee	0.169193
169	0x3df97e18	0.121822536
170	0xbe9a5521	-0.30143073
171	0x3d2fab98	0.042888254
172	0x3d71b9fb	0.059015255
173	0xbc958156	-0.018250149
174	0x3cebd26e	0.028786864
175	0x3e9a09db	0.30085644
176	0xbe43ab96	-0.19108424
177	0x3dac3fa1	0.08410574
178	0xbdb26645	-0.087109126
179	0x3d917ce0	0.07103896
180	0xbdb64060	-0.08898997
181	0xbdb94f17	-0.09048288
182	0x3de33384	0.1109381
183	0xbcab6b26	-0.020925116
184	0xbce24445	-0.027620444
185	0x3dc6df30	0.097105384
186	0x3e10ab5b	0.14127867
187	0x3d5f238a	0.054477252
188	0xbe0540e6	-0.13013038
189	0x3cd3a840	0.025837064
190	0xbd91e292	-0.07123293
191	0xbebd6bc4	-0.3699628
192	0x3cdd223a	0.02699386
193	0xbd72ee53	-0.059309315
194	0xbe6fa494	-0.23402625
195	0xbe2f9ba8	-0.17149222
196	0xbbd9a569	-0.006642033
197	0xbd95fe96	-0.07323949
198	0x3e0db63b	0.13839047
199	0xbea6f35f	-0.32607552
200	0xbdd230e7	-0.10263234
201	0xbd86c121	-0.06579805
202	0xbd7e9faf	-0.062164005
203	0x3e799803	0.24374394
204	0xbda8d118	-0.082430065
205	0xbe167471	-0.14692856
206	0xbe836380	-0.2566185
207	0x3d3423ca	0.043979444
208	0xbe7b275c	-0.24526733
209	0xbcc63a88	-0.024197832
210	0x3dd93c75	0.106072344
211	0x3c94f6a3	0.018184012
212	0xbe2e9c9b	-0.17051928
213	0xbde03f8f	-0.10949623
214	0x3deddba0	0.11614156
215	0x3d2a3063	0.04155005
216	0x3e67fa79	0.22654141
217	0x3da4adbc	0.0804095
218	0x3dc61a24	0.09672955
219	0x3eb15c88	0.34640908
220	0x3e8427c3	0.25811586
221	0xbd998775	-0.074965395
222	0xbe5c183b	-0.21493618
223	0xbe30e51b	-0.17274897
224	0x3da02c6d	0.078209735
225	0xbc2fb922	-0.010725291
226	0x3e7f9eaa	0.2496287
227	0x3e2e6c44	0.17033488
228	0xbbb9a680	-0.0056656003
229	0xbc1f43ba	-0.009720737
230	0x3db844e4	0.08997515
231	0xbba75808	-0.0051069297
232	0xbe6a49a1	-0.2287965
233	0x3e930ef3	0.28722343
234	0xbe34d659	-0.17659892
235	0xbd0cc5cc	-0.03436832
236	0x3d89a7ab	0.06721433
237	0xbe825544	-0.25455678
238	0xbddcd26d	-0.10782323
239	0xbdff2903	-0.12458994
240	0x3a32fc4f	0.0006827758
241	0x3da4069c	0.08009073
242	0xbdd8cd6b	-0.10586055
243	0xbde59a6e	-0.11211096
244	0xbe110f11	-0.14165904
245	0xbc94e666	-0.018176269
246	0xbde9fc01	-0.11425019
247	0x3e499b07	0.19688044
248	0x3e30d4a4	0.17268616
249	0xbe0eaac1	-0.13932325
250	0x3cc85eb0	0.024459213
251	0xbe2d8d36	-0.16948399
252	0x3e9ca842	0.3059712
253	0xbd118ff3	-0.03553767
254	0xb987da3c	-0.00025911804
255	0x3cbe13db	0.023202827

network_body._body_endoder.seq_layers.2.bias f4 [64]
0	0x3aa9cea9	0.0012955266
1	0xbd83384d	-0.06407223
2	0x3d4f6aa9	0.05063883
3	0x3dd3d612	0.10343565
4	0xbd0edee7	-0.034880545
5	0x3d5dc438	0.054142207
6	0x39be1999	0.00036258696
7	0xbd9e742f	-0.07737004
8	0xbd5e0e81	-0.05421305
9	0x3da5ec97	0.081017666
10	0xbd444116	-0.047913633
11	0xbd3a86b0	-0.045538604
12	0xbd35f1c0	-0.044420004
13	0xbd143e36	-0.03619214
14	0xbce613bd	-0.028085584
15	0x3d98c307	0.074590735
16	0xbdacf070	-0.08444297
17	0x3d1e5533	0.03865547
18	0xbd602c20	-0.05472958
19	0x3c1ed126	0.00969342
20	0xbcdaccc9	-0.026708977
21	0x3d7d99fb	0.061914425
22	0xbcbf101f	-0.023323117
23	0xbd36ceed	-0.044630934
24	0x3d874bc1	0.06606246
25	0xbd1bc765	-0.038031954
26	0xbd6d68b1	-0.05796117
27	0x3cdc1a5e	0.026868042
28	0x3d11748e	0.035511546
29	0x3d181116	0.03712567
30	0x3cd1c206	0.025605213
31	0xbd1911a2	-0.03737033
32	0x3d9555ad	0.07291732
33	0xbd607b8a	-0.054805316
34	0x3c810c58	0.015752956
35	0xbbaec5d0	-0.0053336397
36	0x3d603b15	0.054743845
37	0xbd047968	-0.032342345
38	0x3d991617	0.074749164
39	0xbd454f9c	-0.048171625
40	0xbc270f53	-0.010196525
41	0xbd940419	-0.07227344
42	0x3d342496	0.043980204
43	0x3d8761ca	0.06610449
44	0xbd7491b7	-0.059709277
45	0x3d888a56	0.066670105
46	0x3cfe73a0	0.031060994
47	0xbd2cbef3	-0.04217429
48	0xbd6905ad	-0.05689018
49	0xbd819b9a	-0.06328507
50	0x3d72ac1e	0.059246175
51	0x3d960dd4	0.07326856
52	0xbce86cf1	-0.02837226
53	0x3d2d4583	0.04230262
54	0x3cab9793	0.0209463
55	0x3d832499	0.06403465
56	0x3d0283f7	0.031864133
57	0x3d3ae066	0.04562416
58	0xbd135a40	-0.03597474
59	0x3d53be8b	0.051695388
60	0xbd4b5b8c	-0.049647853
61	0xbd7af80d	-0.061271716
62	0x3d5dcb10	0.054148734
63	0xbd499838	-0.049217433

action_model._continuous_distribution.log_sigma f4 [1, 2]
0	0xbf2f2950	-0.6842241
1	0xbf78b6e2	-0.9715406

action_model._continuous_distribution.mu.weight f4 [2, 64]
0	0x3b8c5746	0.0042828647
1	0x3e0fbc8d	0.1403677
2	0xbd610148	-0.054932863
3	0xbd20669b	-0.039160352
4	0x3e0f3553	0.13985185
5	0xbd35d6c9	-0.04439429
6	0x3e2bdde5	0.16783865
7	0x3e00a296	0.12562022
8	0x3df2374a	0.11826952
9	0xbd07e0c6	-0.033173345
10	0x3de2f3b2	0.110816374
11	0x3d8ef31d	0.06979964
12	0x3de57590	0.11204064
13	0x3d62ffc0	0.055419683
14	0x3e35c009	0.17749037
15	0xbdc6ae4f	-0.097012155
16	0x3d8c8ee1	0.068631895
17	0x3c3e9e3e	0.011634408
18	0x3d869370	0.0657109
19	0x3cdff8b8	0.027340278
20	0x3e08f6de	0.13375422
21	0xbd6a26c8	-0.05716589
22	0x3dd8bb22	0.10582568
23	0x3df34191	0.1187774
24	0xbd19bd62	-0.037534125
25	0x3dce920e	0.100864515
26	0x3dc69b1d	0.09697554
27	0xbd0146cf	-0.03156167
28	0xbd0e0896	-0.034676157
29	0x3cb073d9	0.021539615
30	0xbd515aa9	-0.05111185
31	0x3de00874	0.10939112
32	0xbcdb98c9	-0.026806252
33	0x3e04e2d7	0.12977158
34	0x3cab9258	0.020943806
35	0x3b8d3d4e	0.0043102866
36	0xbcef3dd1	-0.029204281
37	0x3dc63b71	0.09679306
38	0xbde5dc90	-0.112237096
39	0x3de6da5c	0.112721175
40	0x3dc0c828	0.09413177
41	0x3de09ed5	0.10967795
42	0xbd9169de	-0.07100271
43	0xbdb796fa	-0.08964343
44	0x3dc46fb2	0.09591617
45	0xbdb83995	-0.08995358
46	0xbca9545d	-0.02067011
47	0x3dfe8bc2	0.124290004
48	0x3ddd3878	0.10801786
49	0x3e16d667	0.14730226
50	0xbd82cca6	-0.0638669
51	0xbe013130	-0.1261642
52	0xbcbeb157	-0.023277922
53	0xbda82c06	-0.08211522
54	0xbcfcd0c7	-0.030861272
55	0xbdd8b325	-0.10581044
56	0xbce86097	-0.02836637
57	0xbd4f0e39	-0.050550673
58	0x3df12611	0.11774839
59	0xbd9fca9a	-0.07802315
60	0x3df7ebe2	0.12105538
61	0x3dd15061	0.10220409
62	0xbd947fec	-0.07250962
63	0x3dfe3fb6	0.12414496
64	0xbbd7907e	-0.006578504
65	0x3d2c3991	0.042047087
66	0xbccad015	-0.024757424
67	0xbc9d2301	-0.01918173
68	0x3c6a2431	0.014290855
69	0xbd474ef9	-0.0486593
70	0xbd403201	-0.046922687
71	0xbc726911	-0.014795558
72	0xbd88a2ba	-0.06671663
73	0xbdc51bcb	-0.09624442
74	0x3d8683ba	0.065680936
75	0xbb1f3e80	-0.0024298728
76	0xbd0893e4	-0.033344164
77	0xbd33e5fe	-0.04392051
78	0x3cf02737	0.029315574
79	0xbd04d043	-0.032425176
80	0xbc710fbc	-0.014713224
81	0x3e43cc70	0.19120955
82	0x3bcea98c	0.0063068327
83	0xbdfd9853	-0.12382569
84	0xbc724bc3	-0.014788571
85	0x3c85eb11	0.01634744
86	0xbad4e3ce	-0.0016242207
87	0xbc72cf04	-0.014819864
88	0x3e3fda23	0.18735556
89	0xbcaed58c	-0.021342061
90	0x3bcfd084	0.0063419957
91	0xbd1b867b	-0.037970047
92	0xbdba2ea9	-0.09090931
93	0xbe34c3bf	-0.17652796
94	0x3cde820a	0.027161617
95	0xbccc0cd0	-0.024908453
96	0x3e6a0aa7	0.22855626
97	0x3ce0bd44	0.027433999
98	0x3ddef48c	0.10886487
99	0x3e2d636c	0.16932458
100	0xbe0e65c2	-0.13906005
101	0xbcf6309f	-0.030052481
102	0x3b967cf5	0.0045925328
103	0xbcc29964	-0.023754783
104	0xbcbef4bb	-0.023310056
105	0xbc60d5ab	-0.013722817
106	0xba292e89	-0.00064537727
107	0x3d565ae7	0.052332785
108	0x3c8dad4f	0.017294554
109	0x3bc095dc	0.0058772396
110	0xbd202a30	-0.039102733
111	0x3d04e80b	0.032447856
112	0xbbc61602	-0.006045104
113	0xbc45deda	-0.012077058
114	0x3e0591f2	0.13043955
115	0xbc48af94	-0.012248892
116	0x3e1ca1af	0.15296052
117	0xbd981b0a	-0.07427032
118	0xbac4741a	-0.0014988214
119	0xbd877472	-0.06614007
120	0x3e4cb979	0.19992627
121	0xba0b253f	-0.00053079793
122	0xbc911fb9	-0.017715322
123	0x3d223418	0.03960046
124	0xbc9c6156	-0.019089382
125	0x3c78ccd9	0.015185558
126	0x3d188dae	0.03724449
127	0xbb92d780	-0.004481256

action_model._continuous_distribution.mu.bias f4 [2]
0	0xbdd13d22	-0.10216738
1	0x37fe26c1	3.0297206e-05

action_model._discrete_distribution.branches.0.weight f4 [2, 64]
0	0x3d50bb80	0.050960064
1	0x3d979ea8	0.07403308
2	0xbe09d6a9	-0.13460793
3	0xbe4e9732	-0.20174864
4	0x3dd9d957	0.106371574
5	0xbe0619e4	-0.13095814
6	0x3d3d8eb0	0.046278656
7	0x3e004b6e	0.12528774
8	0x3dc6995d	0.096972205
9	0xbe5cc923	-0.21561103
10	0x3dd7fc63	0.10546186
11	0x3dbb4445	0.09143881
12	0x3ddf54a3	0.10904815
13	0x3dfadcff	0.12249183
14	0x3dc6d313	0.09708228
15	0xbdf9b69e	-0.121930346
16	0x3dcf93db	0.10135623
17	0xbda1d5f0	-0.079021335
18	0x3da3b3d8	0.07993287
19	0xbe1544d6	-0.1457704
20	0x3dcd9f2b	0.100401245
21	0xbe195ead	-0.14977522
22	0x3dec92c5	0.115514316
23	0x3db8d209	0.09024436
24	0xbd9bcb18	-0.076070964
25	0x3daf5c78	0.08562559
26	0x3dad96b0	0.08476007
27	0xbdbed752	-0.09318413
28	0xbe028797	-0.12747036
29	0xbdbe8451	-0.09302581
30	0xbdd9775b	-0.106184684
31	0x3de52bbb	0.111899815
32	0xbc5ec5dc	-0.013596978
33	0x3de3ae61	0.111172445
34	0x3d6a3578	0.057179898
35	0xbd3e7022	-0.046493657
36	0xbdd02b5c	-0.1016452
37	0x3dd558a3	0.10417297
38	0xbddb672a	-0.10713036
39	0x3dc6336c	0.09677777
40	0x3dbdafe9	0.09262068
41	0x3de5035b	0.11182281
42	0xbdc8e6f1	-0.098096736
43	0xbdd80a6c	-0.10548863
44	0x3e0202d4	0.12696391
45	0xbdc92130	-0.09820783
46	0xbe27ef27	-0.16399823
47	0x3db6c484	0.08924201
48	0x3df59b50	0.11992514
49	0x3dd39dd4	0.10332838
50	0xbdb19946	-0.08671813
51	0xbdc061ff	-0.09393691
52	0x3cf789c4	0.030217059
53	0xbd89e2b1	-0.06732691
54	0xbdc2e357	-0.09516018
55	0xbda50585	-0.080576934
56	0xbd33a0dc	-0.04385458
57	0xbddeba03	-0.10875323
58	0x3db551d9	0.08853502
59	0xbde94f92	-0.1139213
60	0x3dfae2b9	0.12250275
61	0x3dfd2e8c	0.12362394
62	0xbdf4aae4	-0.11946657
63	0x3dd87977	0.105700426
64	0xbd1fa9c9	-0.03898028
65	0xbda4b57f	-0.0804243
66	0x3e1c2f1f	0.1525235
67	0x3e4d65f9	0.2005843
68	0xbd9199f6	-0.07109444
69	0x3dff3828	0.12461883
70	0xbd8751a5	-0.06607369
71	0xbe0d80cd	-0.13818665
72	0xbdd21da6	-0.10259561
73	0x3e63b946	0.22238645
74	0xbdd7288c	-0.105057806
75	0xbdb9260f	-0.09040462
76	0xbdf8252e	-0.121164665
77	0xbdffb6c9	-0.124860354
78	0xbdf2415b	-0.11828872
79	0x3dd9bc82	0.10631658
80	0xbdc5f0ba	-0.096650556
81	0x3dc987a5	0.09840325
82	0xbdd709cd	-0.10499916
83	0x3e308e80	0.1724186
84	0xbdb61257	-0.08890217
85	0x3de0eaf1	0.109823115
86	0xbddd8ec5	-0.10818247
87	0xbdfb919d	-0.12283633
88	0x3d93d2fb	0.07217976
89	0xbda14231	-0.07873953
90	0xbdd53f0d	-0.104124166
91	0x3db8c3a1	0.09021688
92	0x3de993f9	0.11405177
93	0x3d927e4d	0.07152996
94	0x3de9939e	0.11405109
95	0xbdb9dc70	-0.09075248
96	0x3cf4ceaa	0.029883701
97	0xbdae31e3	-0.08505609
98	0xbd2f10f0	-0.042740762
99	0x3d55b998	0.05217895
100	0x3db53d61	0.08849598
101	0xbdf4bc06	-0.11949925
102	0x3db1b4e5	0.08677081
103	0xbdbba9e6	-0.09163265
104	0xbd87bebf	-0.06628179
105	0xbddafab7	-0.10692351
106	0x3df2773f	0.11839151
107	0x3ddb9cba	0.107232526
108	0xbde7d4fa	-0.11319919
109	0x3dcd5957	0.10026806
110	0x3e49052e	0.19630882
111	0xbd9d091d	-0.07667754
112	0xbdeff0e4	-0.11715868
113	0xbde0d0fb	-0.1097736
114	0x3db8af41	0.09017802
115	0x3dc13bc3	0.09435227
116	0xbc0442fa	-0.008072609
117	0x3d5a07c6	0.05323007
118	0x3dbd5c7d	0.09246156
119	0x3d9b1596	0.075724766
120	0x3c89f73c	0.016841523
121	0x3ddaee76	0.10690014
122	0xbdc3024d	-0.09521923
123	0x3de3f6ae	0.11131035
124	0xbdd17024	-0.10226467
125	0xbdeb9b46	-0.115042254
126	0x3dc4d293	0.09610476
127	0xbdd85f58	-0.105650604

action_model._discrete_distribution.branches.0.bias f4 [2]
0	0xbdeefc51	-0.11669219
1	0x3deefe9e	0.11669658
