Assets/ML-Models/AirCollectorRay2.onnx (onnx, 48856 bytes, 9 tensors)

network_body._body_endoder.seq_layers.0.weight f4 [64, 93]
000000 f1 8c 37 3e d9 62 53 bd 6d ac ad bd 15 00 7f 3d
       0.17924859 -0.05160794 -0.08480153 0.062255938
000010 39 30 86 3e 26 72 1d 3d c1 0a ab 3e c7 e1 40 bd
       0.26208666 0.03843894 0.33406642 -0.047090318
000020 11 62 40 3d ed 6b 8a bd f9 5a ca bd 5e f0 26 be
       0.046968523 -0.067588665 -0.09880633 -0.1630263
000030 b4 ab 09 bc 2a 99 34 be 6a 9b 65 bc e7 8c ea bd
       -0.008402754 -0.17636552 -0.014014104 -0.11452656
000040 df ef 01 3e d6 de bb bc eb 9c 5b 3d f8 9d 92 bd
       0.1268916 -0.022933405 0.053616446 -0.071590364
000050 4e d0 b8 3c 62 0c b1 3c 4e f5 79 3d 42 95 27 3e
       0.022560265 0.02161235 0.061024956 0.16365531
000060 a3 63 8d 3d b1 69 2e bc df 81 ed 3d 26 13 e3 bc
       0.0690377 -0.010645316 0.115970366 -0.027719092
000070 b5 33 1b 3e 70 16 45 3e 75 47 65 3c 60 50 83 3d
       0.15156443 0.1924684 0.013994087 0.06411815
000080 e8 ae 62 bd 30 ed 12 3e 5a 9e e7 3c bb 6a a7 bd
       -0.055342585 0.14348292 0.02827375 -0.08174654
000090 e1 43 03 be bd e9 fe bc 55 4a 63 3d 22 32 0f 3d
       -0.12818862 -0.031117314 0.05549081 0.03495992
0000a0 d7 79 fa 3b 80 36 6d 3e f3 79 ce 3d 51 f8 9e 3d
       0.007643919 0.23165321 0.10081854 0.07762206
0000b0 0b e1 01 3d dc 5f 5b 3e 57 7e 2e 3d e4 8a e4 3d
       0.03170876 0.21423286 0.042600956 0.11159304
0000c0 bf c1 8e 3d 78 03 10 3d be 66 cf bd 5b bf 0c be
       0.06970548 0.035159558 -0.101270184 -0.13744871
0000d0 59 8e 66 bd df 72 2e bd 29 80 1b bd 22 d1 43 3d
       -0.056288097 -0.04259002 -0.03796402 0.047806866
0000e0 3c 70 21 3d 9a 58 61 3e ce 20 71 3c 11 b7 cf 3d
       0.039413676 0.22006455 0.014717294 0.10142339
0000f0 b4 92 7d 3e ec ef d8 3d ff e9 0b 3e 0b 02 e1 3d
       0.24762994 0.105926365 0.13663481 0.10986718
000100 be 40 d9 bc a9 cd 78 3e d2 75 94 bc 45 47 a9 3c
       -0.02652013 0.24297203 -0.018122587 0.020663867
000110 61 72 23 be 77 7b 4e 3d 12 5a 1b 3d 78 cb 71 3e
       -0.15961601 0.050410714 0.037927695 0.23612773
000120 b9 c9 36 3e ec 47 73 3b 9b e7 78 3e 95 a3 49 3e
       0.17850389 0.0037121726 0.243071 0.19691308
000130 aa c4 c3 3d 33 bf b7 3c 58 0f 34 3e 26 9e c6 3d
       0.09558995 0.022430038 0.17583978 0.09698133
000140 f7 99 b3 3d 09 33 f5 3d 6a 48 21 3e bc 1c 10 be
       0.08769601 0.11972625 0.1575028 -0.14073461
000150 ae f5 db bd fc e7 29 3e 39 b2 45 3e 24 5d 9c 3e
       -0.10740219 0.16592401 0.19306268 0.3053981
000160 2d 42 87 bd 59 79 cf 3c a2 71 87 bc c0 b9 ad 3d
       -0.06604419 0.025326418 -0.016533677 0.084826946
000170 27 fe 35 be 0e 4e 0c 3e d3 bc 91 3d c5 b3 95 bc
       -0.17772733 0.1370165 0.071160935 -0.018274197
000180 19 b5 a4 bd e8 87 9d 3d 67 c8 cd bc ee 72 f0 3d
       -0.08042354 0.07691938 -0.025119973 0.11740671
000190 b8 8b e2 bd f6 4f 42 3e f9 72 31 be 84 38 73 bd
       -0.110618055 0.18975815 -0.17329015 -0.05938007
0001a0 55 5e 16 bd 5f 1a 75 3d 55 0f 10 bd 08 10 43 be
       -0.036711056 0.059839603 -0.03517087 -0.19049084
0001b0 6a 8b 8f bd a7 7f a1 3c 91 a4 ee 3c f0 f3 f3 3d
       -0.07009013 0.01971419 0.029131206 0.11911762
0001c0 b9 74 35 be c2 9f b8 3d f2 20 68 3d 96 d8 43 3d
       -0.17720307 0.090148464 0.056672044 0.047813974
0001d0 75 95 53 be 58 dc 8e bd 8d 9f e5 3d 9b e8 91 bd
       -0.20662482 -0.06975621 0.112120725 -0.07124444
0001e0 58 95 06 3e 68 4e b9 3d a6 3d 99 3c b3 2e 9f bd
       0.13142908 0.09048158 0.018706154 -0.07772579
0001f0 7d ea c0 bd aa 12 d8 3c 6a 33 38 be 81 72 d3 3d
       -0.09419725 0.026376087 -0.17988363 0.10324574
000200 c4 e8 2f 3d 9b ea 51 3e b7 31 9e 3d b5 82 fd bd
       0.042946592 0.20499651 0.07724326 -0.12378446
000210 e4 22 1f 3d a5 ff 78 be e7 a0 ca be 94 3a da 3c
       0.038851634 -0.2431627 -0.39575884 0.02663926
000220 2a e3 1e 3c df 02 c9 bc 5b df 33 3d c5 91 48 bd
       0.009697715 -0.024537502 0.04391418 -0.04896714
000230 85 75 90 3d 8d 16 47 be 59 0f 9f 3d 70 e0 24 3e
       0.07053665 -0.19442196 0.07766599 0.16101241
000240 95 05 c2 3d ca 1d 4b be e5 f1 25 3e a9 62 ac 3d
       0.09473721 -0.19835582 0.16205557 0.084172554
000250 60 b4 e5 3c 0f de 62 bd 52 bd 0c 3e fa 3d a7 3c
       0.028040111 -0.055387553 0.13744095 0.020415295
000260 dc 3f b1 3d 56 ed 71 3c 78 a6 9b bd 04 14 eb bc
       0.08654758 0.014766058 -0.07600111 -0.028696068
000270 51 42 11 be a2 86 41 be af 51 9c 3d 36 88 8c 3e
       -0.14185454 -0.18899015 0.076327674 0.2744767
000280 22 71 04 3e 20 a3 f4 bd 8b 05 8f 3d e5 07 9f 3d
       0.12933782 -0.11945176 0.06983479 0.07765178
000290 6d e7 c2 3d 36 9a d0 3c 41 15 70 3d 0f c2 4e bc
       0.09516797 0.025464159 0.05861402 -0.012619509
0002a0 70 94 0b bd b2 59 21 be 12 87 52 3d 14 64 bb 3d
       -0.034077108 -0.15756872 0.051398344 0.09149948
0002b0 9c c7 96 3d 69 b7 3b 3e 0b 2a 48 3e a2 f4 4d bc
       0.07362291 0.18331684 0.19547288 -0.012570532
0002c0 39 05 5a bd 24 ab 68 be 60 0c da 3c a7 7e 52 3d
       -0.053227637 -0.22721535 0.026617229 0.051390316
0002d0 bf 38 33 3e f3 c2 1d 3e a3 27 cb 3d f3 7e 54 3e
       0.17502116 0.15406398 0.099196695 0.20751552
0002e0 db 6a 02 3e 21 59 20 be 37 c7 68 3d 26 0a ca 3b
       0.12736075 -0.15659 0.05683061 0.0061657606
0002f0 33 bb 15 3e 92 e6 61 bd 27 70 43 3e fa 63 76 be
       0.14622192 -0.05515153 0.19085751 -0.24061576
000300 98 39 31 bd bd 84 fc 3c 7b 31 03 3e 2b 49 bc bd
       -0.043267816 0.030825013 0.12811844 -0.09193643
000310 e1 4d d8 3d a3 cd 73 be 85 4c 6b 3e 7e 70 37 3e
       0.10561729 -0.23808913 0.22978409 0.17914006
000320 f9 0c 82 3d 5d 02 10 3e e7 c3 d3 3d 54 28 0d 3e
       0.063501306 0.14063402 0.103401 0.13784915
000330 d7 22 53 be 74 33 80 3d b5 64 da 3d d3 b6 8e bc
       -0.20618759 0.06259814 0.106637396 -0.017421162
000340 14 bc 9d 3e df 3a 33 be 6a e5 32 3e 70 42 20 3e
       0.30807555 -0.17502926 0.17470327 0.15650344
000350 38 82 41 3e e2 0f 66 3c 38 9f 84 3e e0 9d 41 3d
       0.18897331 0.014041873 0.25902724 0.047269702
000360 9c da 1e 3e 59 29 19 bd e5 dc 93 bc 1a 52 e7 bd
       0.1551308 -0.037392948 -0.018049667 -0.112949565
000370 a9 f3 10 bd f6 08 98 3d d9 e8 b2 bd 0f e4 13 be
       -0.035388622 0.07423584 -0.087358184 -0.14442466
000380 24 5e 3f 3e 3f b2 19 3d c3 88 c4 3e b2 e2 43 3e
       0.18688256 0.037523504 0.3838559 0.19129446
000390 65 29 a4 bd 89 b8 1c be c3 19 19 3e 2f 00 0c 3e
       -0.08015708 -0.1530477 0.14951234 0.13671945
0003a0 6b e7 27 be da 14 31 bd 92 0e 51 3e 92 d9 48 3e
       -0.16396873 -0.043232776 0.20415714 0.19614246
0003b0 43 2d 3c 3e 1a 2d 02 3d bd 16 65 3d b1 d9 a0 bd
       0.18376641 0.031781293 0.055929888 -0.07854021
0003c0 ca 7a 1a 3e 58 f1 34 3d 2e 3a 7d 3e 68 04 59 3e
       0.15085903 0.044175476 0.24729225 0.21193087
0003d0 84 cd 00 be af f5 3d be 36 d7 7e 3b 3f 1c 2a 3e
       -0.12578398 -0.18550752 0.00388856 0.16612338
0003e0 22 3e 0f 3c 18 61 fb 3d 71 dc 1b 3e e2 af 55 3e
       0.008742841 0.122743785 0.1522081 0.20867875
0003f0 2e 3a c3 3d b2 8d ab 3e 00 88 0b be ca 5b 47 3e
       0.09532581 0.33506542 -0.13626099 0.19468608

network_body._body_endoder.seq_layers.0.bias f4 [64]
000000 f6 f5 f7 3c 77 33 d4 3c 14 24 64 3d e6 18 1e bb
       0.03026865 0.025903447 0.05569847 -0.0024123727
000010 02 ea c8 3c 8b 40 51 3c 5c ae 28 bd 8b 4a 11 3d
       0.024525646 0.012771736 -0.041181907 0.03547148
000020 b0 19 56 3b 79 45 8c 3d 02 f1 27 3d c0 43 8e 3c
       0.003266912 0.06849188 0.041001327 0.01736629
000030 74 03 58 3d 4c 53 5a bc d8 bc 36 3c 6a c8 95 3b
       0.05273767 -0.013325524 0.011153422 0.0045710104
000040 9e 6e 8e bd 33 36 85 bd 54 03 84 bc 14 94 e2 3c
       -0.06954692 -0.06504478 -0.016114868 0.0276585
000050 00 e5 e1 3c 8c 88 9e bd 23 8d a7 bd fb 3a 4a 3d
       0.027575016 -0.07740888 -0.081812166 0.049372654
000060 62 ab c9 3b 75 af 0d 3d f8 c6 f2 bb e2 9a 16 3c
       0.0061544636 0.034591157 -0.007408973 0.0091922
000070 db 94 84 3d c2 41 e7 3c 10 c1 df bb 11 7d c2 3c
       0.064737044 0.028229598 -0.0068284348 0.023741277
000080 f9 d4 65 bb 39 7d 35 bc 05 84 f9 3b a6 be 3d 3c
       -0.0035069569 -0.011077219 0.007614615 0.011581099
000090 80 51 9a bb 68 4e bb 3b e6 a3 c7 bc 09 37 64 bd
       -0.0047094226 0.005716134 -0.024370145 -0.055716548
0000a0 45 90 23 3d 94 a1 98 3b c1 38 31 bd 72 bb 33 3c
       0.039932508 0.0046579335 -0.043267015 0.010969983
0000b0 6c 0a 26 3d 50 21 1c 3d 51 d5 4e 3d cd 2a 2b bd
       0.040537283 0.038117707 0.050496403 -0.041788865
0000c0 97 75 58 3d 40 e0 ba 3c 33 d4 19 39 33 9e 99 bd
       0.052846517 0.022812009 0.00014670267 -0.07500877
0000d0 4b 76 a0 3c 27 9e c5 bc e9 19 ee bc e1 19 7b 3c
       0.019587656 -0.024123264 -0.02906509 0.015325994
0000e0 34 cf 86 3c 9b ae 58 3c 79 0d f5 3c ef 44 9b bc
       0.016456224 0.013225223 0.02991365 -0.018953769
0000f0 95 6d 1e 3c 03 f7 27 bc 18 3d 8a 3d 82 df a4 bc
       0.009669681 -0.010251763 0.06749934 -0.020126108

network_body._body_endoder.seq_layers.2.weight f4 [64, 64]
000000 0c 3c 1b be 0d 5c 5e bd b3 40 a8 3c 3d dc 5a be
       -0.15159625 -0.054287005 0.020538663 -0.21373077
000010 5f c6 81 be cc dd 8d 3e 16 06 f8 bd 48 2b 35 be
       -0.25346658 0.2770828 -0.12110536 -0.17692292
000020 e8 af 2f 3c dc c2 93 be 61 3d 32 bd 16 17 fd bd
       0.010723092 -0.28859603 -0.043515567 -0.12357919
000030 6d eb 13 bd 2e be 94 bd 4c a2 54 be be 46 84 3d
       -0.03611319 -0.072628364 -0.20765036 0.064588055
000040 a8 72 1b be e0 95 eb bd 72 87 6d 3e 1d b8 7f be
       -0.15180457 -0.11503196 0.231962 -0.24972577
000050 c8 14 7c bc 28 7d d5 3d 62 f9 80 3d 1c 22 9d be
       -0.015385814 0.10424262 0.06297566 -0.30690086
000060 68 7b 3b 3d 65 fd 90 bd 31 37 f9 bd 7e 4b 6c 3d
       0.045771986 -0.07079581 -0.1216873 0.057689182
000070 c3 62 c2 3b 56 44 89 ba 52 6b 9b bc 22 1c c7 bc
       0.0059321835 -0.0010472636 -0.018972073 -0.024305407
000080 c5 b9 8e bb cc c0 bc 3d 23 8f a2 3d eb da 16 be
       -0.0043556415 0.092164606 0.079374574 -0.14731948
000090 2e cd 74 bd 46 b7 58 3d 21 35 63 3d 9e 3e 79 3d
       -0.059765987 0.05290916 0.05547059 0.060850732
0000a0 f3 25 08 be 22 f3 03 3e 0f f1 62 3e ca 9b 72 be
       -0.13295726 0.12885717 0.22162269 -0.23692241
0000b0 1b 7f b4 bc a2 b9 b8 3c 1d 44 10 be 98 4c 4e 3e
       -0.022033265 0.022549454 -0.14088483 0.20146406
0000c0 e9 f4 63 3d 02 d7 23 bd ad c7 27 3d 10 38 97 3d
       0.055653486 -0.03999997 0.04096191 0.0738374
0000d0 27 a5 3e bd 9f b0 48 bd 90 e4 8d bd 24 87 87 3d
       -0.04654422 -0.048996564 -0.069283605 0.06617573
0000e0 15 65 26 be b6 84 a1 bc 4e 4f 01 be 7f 13 82 bd
       -0.16249497 -0.019716602 -0.12627909 -0.06351375
0000f0 7a 8d dd bd c0 a2 fe bd 39 8d 7b bd f1 a3 58 3c
       -0.10818 -0.12433386 -0.061413977 0.01322268
000100 48 61 45 bd 4e 02 37 3e f9 60 8a 3e 80 6d 44 be
       -0.048188478 0.17871973 0.2702711 -0.19182396
000110 04 c6 20 3d 87 ed 1c 3a 4d 94 77 bd 2b a6 b9 3d
       0.039251342 0.0005986322 -0.060444165 0.09064897
000120 2c 52 65 3e 0e 12 00 be 57 fd 13 3c 99 f8 c8 bc
       0.22394627 -0.12506887 0.009032569 -0.024532603
000130 78 19 ed bd 8a ec 1a be 36 3f 01 3e 2d fa 46 be
       -0.115771234 -0.15129295 0.1262177 -0.19431372
000140 b0 b6 f8 3c 8e 55 ba 3d 17 04 03 bd c7 54 85 3d
       0.03036055 0.090983495 -0.031986322 0.065103106
000150 c0 f3 34 be 4b 7f c6 bd f7 36 4a 3e 20 12 90 3e
       -0.17671108 -0.09692248 0.1974753 0.28138828
000160 4d b7 e8 3e 3d 7e 01 be 8d 8d 8d 3e 10 70 77 3e
       0.45452347 -0.12645812 0.27647057 0.24163842
000170 2e d4 62 be c5 3a 77 be c1 a7 4e 3e 50 31 9f bb
       -0.22151253 -0.24143513 0.2018118 -0.0048581734
000180 6d d2 fe bd df 45 9d be b1 0d 10 3e 65 13 7f bd
       -0.12442479 -0.3071737 0.14067723 -0.062274355
000190 c5 f7 8a be 4a cb 9e 3d 87 a1 78 3d 9a a6 01 3e
       -0.27142158 0.07753618 0.06070092 0.1266121
0001a0 d7 ae bc 3d a7 74 97 3d 28 32 0a 3e ce 62 e5 3d
       0.092130356 0.073952965 0.13495696 0.11200486
0001b0 0f fd 90 3c a8 ea 15 3e c3 c7 2b be 11 9b f4 3d
       0.017698793 0.14640296 -0.16775422 0.11943639
0001c0 57 13 57 3d f9 87 d1 3d 68 5b 8d bd 2a 2b f5 bc
       0.05250868 0.10231013 -0.069022 -0.029927809
0001d0 d7 f4 89 3d ee b4 15 bd d9 34 1c 3e f1 a7 01 3e
       0.067361526 -0.0365495 0.15254535 0.12661721
0001e0 cb b4 83 bd 28 7c b6 bd 5c fa 1f bd 86 12 02 3e
       -0.06430968 -0.089104 -0.03905712 0.12702379
0001f0 0f 3e 15 be ae d9 bd bd 57 e7 31 3e 77 e7 41 3d
       -0.14574455 -0.09270035 0.17373405 0.047339883
000200 fc 55 b1 3c 52 9c 35 be 15 26 05 be 8e df 12 3e
       0.021647446 -0.17735413 -0.13002808 0.14343092
000210 67 f1 f8 bd 9a 92 45 bd e1 91 7a 3e 3e 9a 5c 3d
       -0.12155419 -0.048235513 0.24469711 0.053858034
000220 1c c1 9c 3e fb c6 86 be fd 6f 9c be d0 eb ee 3d
       0.3061608 -0.26323685 -0.3055419 0.116660714
000230 41 bb ad be 4c 10 5e 3e 3a 2d a2 3d df 0b b0 3d
       -0.33931926 0.21685904 0.079187825 0.08596014
000240 67 2f b2 3d c9 65 26 3e eb cf 99 3d 6e 00 23 3e
       0.087004475 0.16249765 0.0751036 0.15918133
000250 96 34 8c be 0a 7f 4c 3e 24 69 85 3b 14 45 ae bd
       -0.2738387 0.19970337 0.0040713716 -0.08509269
000260 b3 59 0a bb 1a 43 d9 bd 92 7a 63 3e ba ec be 3d
       -0.0021110594 -0.10608502 0.22214726 0.09322496
000270 25 bc f5 bd e6 68 c8 3d 6a e4 f5 bc 89 7f 04 be
       -0.11998776 0.09785633 -0.030016143 -0.12939276
000280 d3 8c 40 3e db 5a 54 3d d5 90 e4 39 be 8e 84 be
       0.1880372 0.05184446 0.00043595457 -0.25890154
000290 ed ff 0a bd c9 c3 61 bc a2 af b2 3e 69 53 82 bd
       -0.033935476 -0.013779589 0.34899622 -0.063635655
0002a0 15 01 34 bc d3 1b 9d 3b 1b 7a 7e be 88 75 37 3d
       -0.010986586 0.0047945767 -0.24851267 0.04478982
0002b0 96 a9 61 bd f4 ee 5b bc 1f 87 3b be e8 dd ad bb
       -0.05509337 -0.01342367 -0.18313263 -0.0053059943
0002c0 fe a1 2b be 2b c3 f8 3a f3 f1 52 be bf da 88 bb
       -0.16761014 0.0018979063 -0.20600109 -0.004176467
0002d0 d2 f2 40 be d0 20 5e bc 28 ee f7 bd b9 93 f7 3d
       -0.18842629 -0.013557628 -0.121059716 0.12088723
0002e0 3e de 63 be 54 5f 74 3d e1 ca 0d 3d 6b 33 0a 3e
       -0.22252747 0.059661224 0.03461731 0.13496177
0002f0 1c 2f 55 bd 5c ab 0e be 51 83 36 3d cd 14 9e 3d
       -0.05204688 -0.13932556 0.044558827 0.07718811
000300 90 0a 88 3e ab 9a bb 3d e6 d6 72 bd 14 6b 30 be
       0.2657056 0.0916036 -0.059286974 -0.17228347
000310 72 9f e8 3d bf da 71 bd 45 37 19 bd b4 af 46 be
       0.11358537 -0.059046503 -0.037406225 -0.19402963
000320 ec da 09 bb c3 d4 4a 3e 0b f1 12 3e 61 4b fb 3d
       -0.0021035029 0.19807725 0.14349763 0.12270237
000330 3d 09 5e 3e 35 c5 a5 be 12 f0 a5 3e 41 69 99 3a
       0.21683212 -0.3237702 0.32409722 0.0011704342
000340 47 e4 5d be 82 32 07 be 82 bd cc bd 79 24 fc bc
       -0.21669112 -0.13202861 -0.09997083 -0.03077911
000350 6b 05 72 3d e3 85 d6 bd a4 32 93 3d 73 e7 20 3d
       0.0590872 -0.104747556 0.07187393 0.039283227
000360 76 95 b2 bc 8b fc c3 3c 06 3f c1 3d 28 8b 3a 3d
       -0.021799784 0.023924133 0.09435849 0.045542866
000370 e7 14 af 3d 4a 13 2b 3e 06 3c ef bd 70 e2 ae bd
       0.08548909 0.16706577 -0.116813704 -0.08539283
000380 42 a3 a2 bd e9 7e 66 bd e2 6b ea bd 65 a3 8b bb
       -0.07941295 -0.056273375 -0.11446358 -0.0042614215
000390 01 ca 17 bc 25 c7 10 3e c8 3c aa be 4c 48 42 be
       -0.00926447 0.14138468 -0.33249497 -0.18972892
0003a0 38 f1 78 3e 55 f3 72 3e f2 25 a7 bc 90 41 12 3d
       0.24310768 0.23725636 -0.020403836 0.035707057
0003b0 66 cc 87 3e b4 1c 61 3d b0 98 24 3e 71 ef 6c 3d
       0.2652313 0.054959014 0.1607387 0.057845537
0003c0 d0 5b e8 3d 6e 91 36 3e dd 15 da bd a4 ec 79 bd
       0.11345637 0.17828915 -0.10648701 -0.061016694
0003d0 a5 d8 53 be 4f f7 77 bd a8 72 a0 be 38 60 6a 3d
       -0.20688112 -0.060538586 -0.31337476 0.057220668
0003e0 39 64 86 3d 8e 42 2a bc a6 cf 00 bc 5a 15 5e bd
       0.06562085 -0.010391844 -0.007862007 -0.05421958
0003f0 55 19 82 3d a8 fa e3 3c 07 88 71 3e 88 fa 64 be
       0.06352488 0.027829483 0.23587047 -0.22361195

network_body._body_endoder.seq_layers.2.bias f4 [64]
000000 49 20 9a bc a1 0d 02 3a 8f 3d 2b bc 25 27 9b 3d
       -0.018814223 0.00049611373 -0.010451688 0.075758256
000010 a6 15 f6 bc 34 c0 d7 bb 25 20 9c 3c 3f 26 0b bd
       -0.03003962 -0.0065841917 0.019058296 -0.03397202
000020 09 37 57 3d 68 69 21 bd 57 b1 75 bc 54 2c 26 bd
       0.05254272 -0.039407164 -0.014995894 -0.04056962
000030 59 16 57 3d 74 ac e3 3c a7 cc 2c 3d 01 f5 2d bd
       0.052511547 0.027792193 0.04218736 -0.042469982
000040 81 27 34 3d bc 9d 4a 3c a4 d5 37 3d ca 75 0c 3c
       0.043982986 0.012366708 0.044881478 0.008573005
000050 28 e2 7a 3c 0b bf 9c 3d cc 3b b6 ba c8 5a c3 ba
       0.015312709 0.07653626 -0.0013903319 -0.0014904374
000060 93 2b 44 bc ab 7c c5 3c 1f 1f f7 bc 5c e5 2f 3d
       -0.0119732795 0.024107298 -0.030166207 0.042943344
000070 76 38 06 3d 7d 42 74 3d df ad 33 bd 64 f8 7c 3d
       0.03276869 0.05963372 -0.04386699 0.06176032
000080 dc 86 12 bc 5d 4d 5e bd f8 c7 ef 3c 97 07 b7 3c
       -0.008943286 -0.054272998 0.029270157 0.022342486
000090 b5 9d 70 3d 1f d1 ea bb 56 c7 54 3d 5b 08 98 3d
       0.05874415 -0.0071660425 0.051947914 0.07423469
0000a0 84 6d 72 3d ed ad 19 3d 32 e7 8e 3b c9 c9 20 3d
       0.059186473 0.037519384 0.0043610567 0.039254937
0000b0 f0 86 ae 3c 45 b8 1c 3c 09 65 4f 3d 11 aa bc bc
       0.021304578 0.009565418 0.050633464 -0.023030313
0000c0 2b cb 76 3b 1f 5f 03 3d e9 4c 27 3d d6 9a 8f 3d
       0.0037657719 0.032073136 0.04084483 0.070119545
0000d0 b7 72 7d 3d b6 21 43 bd 83 c0 53 3d a2 bb 87 bd
       0.06187698 -0.04763957 0.051697265 -0.06627585
0000e0 82 9f bf 3d bd 52 06 bd 77 94 46 3d a5 3c 1f bd
       0.093565956 -0.03279375 0.04848143 -0.038876195
0000f0 a8 9c ae bc 39 20 28 3d c9 ba d2 bc fa d1 8e 3d
       -0.021314934 0.041046355 -0.025723832 0.069736436

action_model._continuous_distribution.log_sigma f4 [1, 2]
000000 ba a4 e5 be c7 85 24 bf
       -0.4485224 -0.6426663

action_model._continuous_distribution.mu.weight f4 [2, 64]
000000 f7 9e a3 bd 4d 29 cd 3c 54 36 40 be 4b 9a f6 3d
       -0.079893045 0.025044108 -0.18770725 0.12041148
000010 f3 d4 b9 bd 08 7e 4c bd bd 37 cd 3c fd 04 e1 bd
       -0.0907382 -0.04992488 0.025050992 -0.109872796
000020 0f 74 0e 3d a4 4a 7a bd 20 1d 25 be 46 2d 0c be
       0.03477865 -0.06110634 -0.16124392 -0.13689145
000030 f4 d9 de 3c da b2 7f 3c 14 83 98 3d eb 9a 2b bd
       0.027203538 0.015606606 0.07446876 -0.04189579
000040 4b 24 8d 3d 63 bc c0 bd da 67 c2 3d 68 f9 ef bd
       0.06891688 -0.09410932 0.09492464 -0.11717492
000050 10 29 19 3d 9d ee 2e 3d fc b5 48 3c 5b 8e c7 bc
       0.037392676 0.042708028 0.01225042 -0.024359873
000060 7d 4b cd bd 90 09 58 bd e5 5f 14 be 22 94 9e 3d
       -0.10024164 -0.052743495 -0.14489706 0.07743098
000070 0b bb 36 3d 8f 24 bb 3d 98 cb e9 bd 56 c3 b6 3d
       0.04461197 0.091378324 -0.114157856 0.08923976
000080 e1 63 c6 bd 37 1f d8 bd 67 1e 67 3d 8e c6 c3 bd
       -0.09687019 -0.10552829 0.05642548 -0.09559356
000090 2d a0 c1 3c b3 27 36 3b 85 a1 9c 3d 26 ce b2 3d
       0.023635948 0.0027794659 0.07647995 0.08730726
0000a0 97 55 a6 3d d1 45 84 3d f0 92 96 3c 7d 74 a1 3d
       0.08121794 0.06458629 0.018380612 0.078835465
0000b0 2c 82 07 3c f4 9d 30 3c 78 c0 52 3d a1 a0 cc bd
       0.0082707815 0.010779846 0.051453084 -0.09991575
0000c0 18 68 18 bd 0b 82 92 3d 16 b4 61 3d bc 9d b9 3d
       -0.037208647 0.0715371 0.055103384 0.090632886
0000d0 d3 b1 b7 3d 8e ad cd bd 31 07 96 3d 6a 75 0d be
       0.08969464 -0.100428686 0.073255904 -0.13814321
0000e0 e0 43 16 3e 21 d2 87 bd 6f 78 94 3d c3 3c 3c be
       0.1467433 -0.06631876 0.072495334 -0.18382554
0000f0 32 f8 18 be 49 a6 e9 39 22 1c 0c bd 48 33 3b 3c
       -0.14938429 0.00044565115 -0.034206517 0.011425801
000100 9a 17 ab bc 12 fc 61 bc 84 71 5e bc 40 f0 77 3d
       -0.020885278 -0.013793008 -0.013576869 0.060531855
000110 f9 a5 af bd 38 c8 95 3c e4 c9 c0 3d 4a 24 27 bd
       -0.08576579 0.018283948 0.094135076 -0.040806092
000120 dd c1 cb ba 42 25 47 bd ed 9c 99 3c 0b 84 0b 3e
       -0.0015545447 -0.048619516 0.018751586 0.13624589
000130 76 eb ba bc 59 2b 75 bc 01 c9 00 be 20 13 e0 bd
       -0.022817355 -0.014963948 -0.12576677 -0.10941148
000140 7b 39 86 bd 24 42 d5 bd 7b 61 93 bd 4e 7e 09 3e
       -0.06553932 -0.10413006 -0.07196327 0.13427088
000150 d8 06 dc bd 1b 88 3d 3d 91 f4 36 bd 64 9b 2d be
       -0.10743493 0.04627238 -0.04466683 -0.16953808
000160 7e 0f d4 3d 0b cc 22 3e c5 6c 30 3d f3 38 5d bd
       0.103545174 0.15898149 0.04307248 -0.05400939
000170 01 09 c7 3d 17 8f ff 3d a7 1b 1c bd 1a 5e 64 3d
       0.09718514 0.12478464 -0.03811231 0.055753805
000180 e9 1d 8e bd 0a 35 b9 bc 10 33 dc bc 4f 32 c3 3d
       -0.06939299 -0.022608299 -0.026879817 0.0953108
000190 15 a5 2f 3d f8 31 aa 3c 4a 96 d0 bc 51 19 53 3c
       0.042882044 0.02077578 -0.025462288 0.012884454
0001a0 e9 76 43 3d eb 0f 2c bc 00 ae 4a bd 50 41 96 bd
       0.047720823 -0.010501842 -0.049482346 -0.07336676
0001b0 91 4c a7 3d fd df 07 bd 4e e7 5d 3d ed 2e bb 3d
       0.08168901 -0.033172596 0.054175667 0.0913981
0001c0 34 eb 18 3e a8 7a a8 bd f7 36 c6 bc 38 d9 17 bd
       0.14933473 -0.0822652 -0.024196131 -0.03707239
0001d0 a9 d3 bd bb 0a 7a 6f bd e6 b5 b2 3d da 43 ad bc
       -0.005793054 -0.058465995 0.087261006 -0.021150518
0001e0 27 94 e6 3a b3 dd ab 3d 92 ee 35 bd 92 c7 52 3d
       0.001759176 0.08391895 -0.04441697 0.051459856
0001f0 64 ca e0 3d d3 9c 26 bc e4 f8 10 be 99 63 61 3d
       0.10976103 -0.010169226 -0.14157444 0.055026624

action_model._continuous_distribution.mu.bias f4 [2]
000000 29 ff bd 3d 9d 59 cc 3c
       0.092771836 0.024945075

action_model._discrete_distribution.branches.0.weight f4 [2, 64]
000000 a6 4a 30 3c 2c 4a 23 3e 6d 49 23 3e 39 d5 15 bd
       0.010759985 0.15946263 0.15945978 -0.036580298
000010 64 dd 0d 3c 63 7a cd bd 23 27 b5 3d 75 69 32 3d
       0.008658741 -0.10033109 0.08845355 0.043557603
000020 7d 79 4b be 21 94 d4 3b 8b b0 e5 3d 7f 90 38 3e
       -0.19870563 0.006487385 0.112153135 0.18023871
000030 a3 01 1b be 15 52 6b bd da 6d 86 3c 2d 6f 04 3c
       -0.15137343 -0.057451326 0.016409803 0.008083147
000040 4a ad 52 3d 1c cc a1 3d 0e c6 d5 3c 8d be a4 3e
       0.051434793 0.07900259 0.026095416 0.3217663
000050 d3 d5 d6 3c a5 de 37 be e1 fb 1e 3e 85 25 4c bd
       0.026225006 -0.17956026 0.15525772 -0.04984047
000060 74 57 6f 3e 04 db fb 3d 9c d0 7b 3e 02 40 d7 3c
       0.23373204 0.12297633 0.24591297 0.026275638
000070 cf 01 1d 3e 92 ce 09 3d 0b 13 34 3d ed 20 5b bc
       0.15332721 0.033644266 0.043963473 -0.013374549
000080 c3 f7 c4 3d da 5e 8d 3c 62 3d a7 3c 06 3a b7 be
       0.09617569 0.017257143 0.020415012 -0.35786456
000090 e8 76 54 be 8f d2 52 3e 5f 46 a8 3d a2 97 5b 3c
       -0.20748484 0.20588134 0.08216547 0.013402851
0000a0 bb 20 0b 3e d0 15 5b 3c 16 0d 36 3e b6 fa 88 bd
       0.13586704 0.0133719 0.1777843 -0.06688444
0000b0 40 da 52 3e bb 54 8a bd 5c c3 72 3c ed c5 a1 3e
       0.20591068 -0.06754442 0.014817085 0.31596318
0000c0 1d 58 4d 3e 43 e7 80 bd 03 59 ee 3d ad 46 56 bd
       0.20053144 -0.0629411 0.116380714 -0.052313495
0000d0 f4 8d 12 3d 69 8b 88 3c ad bc bd 3c 85 c4 6b 3d
       0.03577991 0.016668038 0.023161257 0.057560463
0000e0 e2 6d e0 bc a5 b9 80 3e 67 25 b1 3d b7 62 9f 3d
       -0.027396146 0.25141636 0.08649712 0.077825
0000f0 45 e6 24 3e 54 0b 52 bd c5 ef 81 bc 1b 20 9b be
       0.16103466 -0.051280335 -0.015861401 -0.30297932
000100 50 e2 fa bc 36 ea 13 be f9 de 08 be 9c 98 7b bb
       -0.030625492 -0.14444813 -0.13366307 -0.0038390523
000110 47 7d d1 ba df 2f df 3d 1e c0 98 bd 13 c2 91 bc
       -0.001598277 0.108978026 -0.074585184 -0.017792737
000120 c6 81 48 3e b8 c6 28 bd ef 62 cf bd c7 1b 3b be
       0.19580755 -0.041205138 -0.10126292 -0.18272315
000130 dd dc 05 3e 51 2c 9e 3d c9 4b 0a bc 48 d5 67 bb
       0.13072534 0.077232964 -0.00844092 -0.0035374928
000140 9c 6e 09 bd 31 ef cf bd ec 4e 30 bc ba f6 ae be
       -0.03355275 -0.10153044 -0.010761004 -0.34172612
000150 ba 4e 15 bd 5d 62 33 3e 0b 86 18 be de bf cd 3c
       -0.036452033 0.17517991 -0.14894883 0.025115903
000160 ab 6b 4e be 92 ae f3 bd 7b 9c 88 be 24 07 a7 bc
       -0.2015826 -0.11898531 -0.26681885 -0.020389147
000170 3c 7c 19 be 2c 6d 05 bd 3a f0 2d bd d3 f6 4e 3c
       -0.14988798 -0.032574818 -0.042465426 0.01263209
000180 d1 35 c3 bd 54 ef dd bc d5 b6 c6 bc fa bf b7 3e
       -0.09531749 -0.02709166 -0.024257103 0.35888654
000190 df 3f 41 3e dd e6 33 be b7 14 bb bd 65 5a ae 3c
       0.18872021 -0.17568536 -0.091348104 0.021283338
0001a0 c5 51 f3 bd 48 b7 7e bb c4 65 4d be ea 78 75 3d
       -0.11880831 -0.0038866568 -0.20058352 0.059929766
0001b0 95 0c 53 be 66 58 b6 3d 0b 5d 12 bd 08 58 b8 be
       -0.20610268 0.089035794 -0.035733264 -0.36004663
0001c0 5d ea 3f be 58 7f 05 3d e3 24 c2 bd 5f dd 72 3d
       -0.18741746 0.032592148 -0.09479692 0.059293147
0001d0 4e 3c 0f bd 1d 95 a6 bc d4 cf 43 bd 79 0f 23 bd
       -0.03496962 -0.020334775 -0.047805622 -0.039809678
0001e0 b5 8c 55 3c d6 6f 75 be c3 99 dc bd ca 6b 92 bd
       0.013034035 -0.23968443 -0.10771515 -0.071494654
0001f0 f6 bb 25 be 64 ba 04 3d cb d3 b2 3b 7a 4d 9f 3e
       -0.16184983 0.03240432 0.0054573766 0.31113797

action_model._discrete_distribution.branches.0.bias f4 [2]
000000 6b 52 d7 bc 8b 52 d7 3c
       -0.026284417 0.026284477
