Assets/ML-Models/AirCollectorRA01.onnx (onnx, 48856 bytes, 9 tensors)

network_body._body_endoder.seq_layers.0.weight f4 [64, 93]
000000 aa 1b d4 bd 94 17 05 be 70 1e aa bc ea 40 2d be
       -0.10356839 -0.12997276 -0.020766467 -0.16919294
000010 0c 69 37 3e b9 b8 f2 3d 53 97 0a bd 93 c6 05 bd
       0.17911166 0.11851639 -0.03383572 -0.03266008
000020 fb b3 b4 3c ac d3 0a be 47 ec 0b 3c a9 a4 00 3e
       0.022058478 -0.13557309 0.00854022 0.12562813
000030 1a d9 3a 3d 40 2f 63 3e eb cb 31 bd 75 13 85 3d
       0.0456172 0.22185993 -0.043407362 0.06497852
000040 6e e8 9e be ca f1 df 3d 38 d4 2a be ca ec 84 3e
       -0.31036705 0.109347895 -0.16682518 0.25961906
000050 46 20 78 3e e8 43 10 3d 8e 18 01 be 04 01 18 be
       0.24231061 0.03522101 -0.12607023 -0.14844137
000060 77 94 c4 bb 96 d3 2e be 29 f3 8a 3c b1 fa 5a 3d
       -0.0059991437 -0.17072901 0.01696165 0.053461734
000070 df 17 e0 3d 69 c1 7e 3e 4a 83 f3 3a 26 8c b6 bd
       0.10942053 0.24878468 0.0018578556 -0.0891345
000080 b1 8c 76 be 0b 5b 4d be 4e 35 53 3e d2 73 8e bd
       -0.24077107 -0.20054261 0.20625803 -0.06955685
000090 f9 97 f3 3b 4d 96 05 bc 1b 97 b7 bc 23 80 90 3d
       0.007433888 -0.00815351 -0.02241092 0.0705569
0000a0 2e d0 db be 88 dc 88 be 90 7b 3c bd d2 de 6b 3d
       -0.42932266 -0.26730752 -0.046016276 0.057585545
0000b0 b0 2d e2 3d ea 7c 15 3e c1 5d 1c 3e fd 1d 0a 3e
       0.110438704 0.14598432 0.1527014 0.13488002
0000c0 c8 20 91 bd e0 f1 c0 3d ae 5d 55 3e 82 7d 92 bc
       -0.07086331 0.09421134 0.20836517 -0.017882112
0000d0 13 4e 74 3e 9b 4b 07 3e 65 ad 1d bd cd f3 ba bd
       0.23857908 0.13212435 -0.03849544 -0.091285326
0000e0 b2 1c e5 3d 3c 13 e8 bc 8e 99 4b 3d d0 0d 86 bd
       0.11187114 -0.028329484 0.049706988 -0.06545603
0000f0 d7 cd 28 3d 35 3d 41 bd 06 8a 8b 3b 03 de 19 3e
       0.04121193 -0.047177512 0.004258397 0.15026097
000100 62 a9 02 3e d2 20 56 bd 6a 1a 90 bb 96 c7 93 3c
       0.12759927 -0.052277394 -0.00439768 0.018039506
000110 52 be 45 3d bd b5 40 3e d1 b5 1f 3b 19 5d 15 be
       0.048277207 0.18819328 0.0024369846 -0.14586295
000120 fc 20 73 3e 90 c1 22 3e fb b5 be 3d 1d 17 7d 3e
       0.23743051 0.1589415 0.09312054 0.24715848
000130 2d ea db 3b fb ae 90 3d 47 a5 c0 3d 86 17 4d bd
       0.0067112655 0.07064625 0.09406524 -0.05007126
000140 87 2c a5 3d 6a 0b 5b 3d 46 4d 14 be d3 d2 12 3e
       0.080651335 0.053477682 -0.14482602 0.14338236
000150 26 9c 08 be f6 44 a8 3d af 8d d7 3d 1a 62 53 3e
       -0.13340816 0.08216278 0.10525071 0.20642892
000160 8d f4 ba 3d c5 bd 21 3e 31 82 17 3e 19 f3 69 3d
       0.091286756 0.15795048 0.14795758 0.0571166
000170 1a 75 95 3e 2c 8d 64 be 9c 13 a5 bd 01 2b 84 3d
       0.29190904 -0.22319478 -0.08060381 0.06453515
000180 d1 4d 24 3d 07 ac 22 bc 4a ee 71 bc 61 b0 7a 3e
       0.040113274 -0.00992871 -0.014766285 0.24481346
000190 06 24 1d 3d 4a a1 a1 3c b9 54 44 bd b5 0b 4f bd
       0.038364433 0.019730229 -0.04793236 -0.050548274
0001a0 f9 9b ec 3c 2d 92 a5 bc 74 36 1b bd a7 81 58 3e
       0.028882967 -0.020211304 -0.037893727 0.21143208
0001b0 42 67 69 3e 61 d6 05 3e a6 47 72 be 2f b5 0c bd
       0.22793296 0.1307006 -0.23660144 -0.034352478
0001c0 a7 67 3e 3e 2f 19 a6 3d 85 36 2d bd d4 9c 03 3e
       0.18594228 0.08110272 -0.042288322 0.12852794
0001d0 0e 78 28 3e a6 c5 55 3e 4c 7e 62 3d e3 19 c0 bd
       0.16452047 0.20876178 0.055296227 -0.093799375
0001e0 fa 65 f5 3c 6a dc b0 be 22 50 32 be ee c7 dd 3d
       0.029955853 -0.34543163 -0.1741338 0.10829149
0001f0 8c c5 8a 3d ac e3 11 3e f5 e9 4e 3e 7b 1f 88 bd
       0.0677596 0.14247006 0.20206435 -0.066466294
000200 60 42 92 bd 83 8c 50 bd 12 c4 83 bd 00 e9 23 3d
       -0.07141566 -0.050915252 -0.06433882 0.040017128
000210 a1 2d 98 3b d9 14 af 3e ad aa 72 3e 3b 55 bc 3c
       0.0046441113 0.34195593 0.2369792 0.02298986
000220 a2 00 0d 3e a6 63 3a be f9 78 53 3d 2b 88 3b 3e
       0.13769773 -0.18202075 0.05162904 0.18313663
000230 e7 bc 0a bc 82 cd 80 be 1b 39 50 3b 86 b1 ba bc
       -0.008467889 -0.2515679 0.0031772319 -0.022789728
000240 8e 52 44 bc c0 9c f0 bc 34 ec 5a 3c 0f f7 aa 3c
       -0.011982573 -0.02937162 0.013361979 0.02086976
000250 26 12 46 bd b5 0d fc bd 48 29 e2 bd 99 3d 9f bd
       -0.04835715 -0.12307302 -0.1104303 -0.07775421
000260 d3 6e c7 bd dc 92 28 bb 9c ab e9 bd 30 db 40 be
       -0.09737935 -0.00257223 -0.11409685 -0.18833613
000270 69 3f b1 3d 84 8a 7c bd f6 7a 1e be 48 26 b1 3d
       0.08654673 -0.061655536 -0.15476593 0.0864988
000280 23 11 07 3c aa 7b 6e 3d e5 bf 34 bc f7 25 10 be
       0.008243832 0.058223404 -0.011032079 -0.14076982
000290 26 42 59 bd 1b 8f 37 bc a8 72 14 bd da 18 0a 3e
       -0.0530416 -0.011203553 -0.036242157 0.13486043
0002a0 b5 ce f7 bc 48 99 34 3d 31 8d cf 3c 1f b2 c0 3b
       -0.030249933 0.044091493 0.02533588 0.0058806087
0002b0 2a 55 ec 3d 9d db a4 3c 12 8e 93 bd c0 f7 fa 3c
       0.11539681 0.020124251 -0.07204832 0.030635715
0002c0 5f 64 ae 3d 9b 2a 9c 3e de c1 16 bd a3 02 e5 bd
       0.08515238 0.30501255 -0.03680598 -0.111821435
0002d0 8a dd 9f bc 37 d0 6a be 42 43 5b 3d 74 b8 cd bc
       -0.019514818 -0.2293099 0.05353094 -0.025112368
0002e0 1e 9b 2e ba 2b 12 17 be 32 a9 84 3e e2 52 1f bc
       -0.00066606875 -0.14753024 0.25910336 -0.009724351
0002f0 f2 76 e8 3c 3e 26 c2 bb c9 47 5f 3e 0a 06 01 be
       0.02837703 -0.005924969 0.21804728 -0.1259996
000300 96 92 73 be aa cd 1b 3d 8f b0 67 3e 17 3a a2 bd
       -0.23786387 0.038037933 0.22625946 -0.07921236
000310 07 9f 9b be b9 a8 df 3c c2 4f 1c 3e 45 97 50 bd
       -0.30394766 0.027302133 0.152648 -0.050925512
000320 79 e7 a1 3b 12 c3 08 3e 86 e9 13 3e d2 f3 07 3d
       0.004940924 0.13355663 0.14444551 0.03319151
000330 54 b4 a1 bd 84 ba a6 3d 94 27 35 be 02 09 45 bd
       -0.07895723 0.08141044 -0.17690879 -0.048104294
000340 68 b5 1d be 8c ad 9b 3d 57 96 1e bd a0 3c 7c 3d
       -0.15401232 0.07601461 -0.038717594 0.061581254
000350 3c 9d 6a bd e9 12 5f 3d 9e bf a5 bd 9c 14 74 3d
       -0.057278857 0.054461394 -0.08093189 0.059589967
000360 e6 26 80 bc 15 04 11 3d d9 85 10 3e 55 d8 83 3c
       -0.015643548 0.035404284 0.14113559 0.016094366
000370 0d 20 a0 bd 2c 2e 5e be f4 cc 70 bd c7 af f9 bc
       -0.07818613 -0.216973 -0.05878921 -0.030479325
000380 08 4e 12 bd c9 5e 63 3e d2 5f 94 3e 47 20 c5 3e
       -0.035718948 0.22204126 0.28979355 0.38501188
000390 80 3d 07 be 1f 6c 17 3e d2 07 fb bd 92 d0 09 bd
       -0.13207054 0.14787339 -0.12257351 -0.033646174
0003a0 13 8e 76 3c 67 ff 02 3d e9 49 1b be a2 22 b0 3e
       0.015048522 0.031981852 -0.15164913 0.34401423
0003b0 8c 34 54 3d 9c e4 7c 3d ff c7 1b 3d 0a 0a 73 3e
       0.051807925 0.061741456 0.038032528 0.23734298
0003c0 fe 2b f0 3d 33 8c c7 3c 50 02 a4 bc 01 ea 53 3d
       0.11727141 0.024358844 -0.020020634 0.051736835
0003d0 04 50 22 3d c6 5e 01 bd 8e e9 a9 bd e3 19 b3 3d
       0.03962709 -0.031584524 -0.082965 0.08745172
0003e0 72 44 c9 ba 34 e3 10 bd 9a b7 17 bb 00 fe 5f bc
       -0.0015355481 -0.035372928 -0.0023150207 -0.013671398
0003f0 bf 96 34 3d 0b cb cc b9 bf e4 b9 bb 2b ae 4b 3d
       0.044089075 -0.0003906119 -0.0056730206 0.049726646

network_body._body_endoder.seq_layers.0.bias f4 [64]
000000 0d b6 36 3d 3b 81 b1 bb a5 92 be 3c fb 0e 45 3c
       0.04460721 -0.005417017 0.023263285 0.012027497
000010 30 c2 1a 3d 0c 97 0f 3d 42 dd 32 3d e1 e8 96 3c
       0.037782848 0.03505616 0.04366804 0.018421592
000020 0f 13 c8 3c 25 d7 dd bc b2 bd 47 3c 0c 4c bc bb
       0.02442315 -0.027080128 0.012191223 -0.00574637
000030 d4 6a 93 bb 3a 45 b7 3c 78 2d c1 bc 8f d1 06 3c
       -0.004498819 0.022371877 -0.023581252 0.008228674
000040 59 1c 27 bd fc 1b 98 bc fb df 0e 3d 03 78 d4 3c
       -0.04079852 -0.018568031 0.034881573 0.025936132
000050 84 d2 b7 3c 75 ad 18 3d 2e d4 5b bc f0 70 d3 3c
       0.022439249 0.037274797 -0.013417287 0.025810689
000060 84 3c 28 3b a8 8c 13 3c 46 59 0a 3d 6f 59 87 3d
       0.0025670836 0.009005703 0.033776544 0.06608855
000070 9c 0e db 3c 60 79 8b bb 45 b9 20 bb ef 68 7a 3d
       0.026740365 -0.0042564124 -0.0024524492 0.06113523
000080 51 5b 65 3d c8 30 f6 3c 11 b0 f6 bb b0 ed b4 bc
       0.05599529 0.030052558 -0.007528313 -0.022085994
000090 1e 5e 8c bb b0 e9 61 3b d0 e4 02 3d 23 93 1a 3d
       -0.0042836806 0.0034471564 0.031956494 0.037737977
0000a0 4b ca 2d 3d a2 33 e8 3c 01 47 09 3d 89 fd d2 bb
       0.04242925 0.028344933 0.03351498 -0.006438915
0000b0 6b 83 3d 3d c2 9d 8a bc 2c 40 5e 3c 33 e1 c5 bb
       0.046267908 -0.016920928 0.013565104 -0.0060388087
0000c0 eb b4 be 3c e0 d0 a7 3c 0a 56 f2 3c 40 b7 5b bd
       0.023279628 0.020485342 0.029582042 -0.053641558
0000d0 a2 12 e8 3b 04 9c 3c 3c f2 24 13 3d 78 87 48 bd
       0.0070822993 0.011511806 0.035923906 -0.048957318
0000e0 11 54 73 3d cd d3 b0 3c 88 e0 8f bc de 0d 6b 3c
       0.059406344 0.02158537 -0.01756312 0.014346568
0000f0 f5 90 bb 3c 2b ab c4 3c d4 7a 76 bc 2d bf 7a 3c
       0.02289627 0.0240074 -0.015043933 0.015304369

network_body._body_endoder.seq_layers.2.weight f4 [64, 64]
000000 bf b2 e2 3b aa 2f 71 3e 74 a3 4d bd 74 b3 a7 bd
       0.006918281 0.23553339 -0.05020471 -0.08188525
000010 d7 c7 1d 3e 7c f1 6a 3e 8a 0a 56 3b d0 94 61 be
       0.15408264 0.22943681 0.003266009 -0.22029424
000020 f1 90 ef 3d df 29 21 be ba f9 a0 3d 6c d7 2e bc
       0.11697567 -0.15738629 0.078601316 -0.010671478
000030 ca ec 84 bd 01 6d 75 3d 7f 3a 89 3b ca 05 a6 3e
       -0.064904764 0.059918407 0.0041878815 0.32426292
000040 36 e5 f0 3d 4a cd 1b 3d 26 bd 24 3e 9f 92 23 bd
       0.117624685 0.038037576 0.1608778 -0.03993475
000050 1e 1c 10 be 17 53 bb 3c 3d 5f be bd 66 8e d2 bd
       -0.14073226 0.022866769 -0.09295509 -0.102810666
000060 96 2a 85 3d e6 78 09 3d bd 7d aa bc 68 f0 d2 be
       0.06502263 0.033562563 -0.02081191 -0.4119904
000070 ab 8f 1c be 90 a9 81 3e a2 70 c2 3d d4 93 0e be
       -0.1528918 0.25324678 0.09494139 -0.1392358
000080 eb 1d 0b be 73 1a 8a 3e 5a ef c6 3d f3 20 3c 3d
       -0.13585632 0.26973304 0.097136214 0.04592986
000090 22 86 55 be 30 42 b1 be 18 44 7b 3e 2b a5 0d be
       -0.20851949 -0.3462081 0.24537694 -0.13832538
0000a0 8c 13 43 bd e0 08 11 3d 92 39 34 be 46 fd ae 3e
       -0.047626063 0.035408854 -0.17600086 0.34177607
0000b0 8d 31 19 3c 48 9f 7d 3e ab 2d 1e 3e e3 13 55 3e
       0.009350193 0.24767792 0.15447108 0.20808367
0000c0 0d 34 85 3e 48 33 0d be 37 31 63 be 44 e6 4c bc
       0.26016274 -0.13789093 -0.22186743 -0.0125060715
0000d0 8a 10 2c bd 6d 54 42 3c 07 f8 e8 bd 2d 66 52 3e
       -0.04200796 0.011860949 -0.113754325 0.2054679
0000e0 00 26 16 bd 8b ec 6c bc 9c 67 78 be 88 93 29 3e
       -0.036657333 -0.014460693 -0.24258274 0.16560185
0000f0 63 25 03 be 54 b8 41 3b 9f c6 da bd 73 0f 7c 3d
       -0.1280723 0.002955933 -0.10682415 0.06153817
000100 f5 2c 08 be 76 27 80 3e be f1 dd 3d ca d5 5c 3d
       -0.132984 0.25030106 0.10837124 0.053914823
000110 80 b7 d4 bd c4 40 a8 bc 9e e5 69 be 3f b3 f8 3a
       -0.10386562 -0.020538695 -0.22841498 0.0018974318
000120 78 82 fc b9 df b3 d2 bd 9e b1 19 3e c6 e5 4d be
       -0.00048162392 -0.10288214 0.15009162 -0.20107183
000130 c8 63 e6 3b 6f 73 88 3e e9 b4 42 bd e6 b1 8a 3e
       0.007030938 0.2665057 -0.04753581 0.2708885
000140 99 f7 59 3d e8 5c f7 3d 32 53 31 be 72 31 a6 3d
       0.053214643 0.12078267 -0.17316893 0.081149
000150 f9 66 e5 3c 9d a1 4d 3c 07 75 7b bd be 05 25 3c
       0.028003203 0.012550739 -0.061390903 0.01007217
000160 fd 3a fa bd a7 53 d3 3d 8a 2b ee bc 84 96 4e 3e
       -0.12218282 0.1031869 -0.029073495 0.20174605
000170 92 f0 2d be eb f0 66 3e 8b 7e 31 be bc e1 d1 bd
       -0.16986302 0.2255284 -0.17333429 -0.102481335
000180 d8 aa 5e 3d 25 08 36 3d 14 1a e6 3d c1 cf a0 3e
       0.054362148 0.04444136 0.11235443 0.31408504
000190 01 50 71 bd 24 94 37 3e a0 fa a7 3c 19 39 26 be
       -0.05891419 0.17927605 0.02050525 -0.16232719
0001a0 f6 bf 48 bd 96 ae 20 bd 38 44 4d 3c 0e f7 23 bd
       -0.049011193 -0.039228998 0.012528472 -0.04003053
0001b0 b4 93 62 bc 68 da 1a 3e 03 f5 ac bd 18 3f 13 3e
       -0.0138291605 0.15122378 -0.0844517 0.14379537
0001c0 4e 31 d1 bc 8a a9 cb be de b1 1a be 28 ac 58 3e
       -0.025536206 -0.39777786 -0.15106913 0.21159422
0001d0 41 02 a5 be f2 5a f2 bd 5f 66 13 bd c1 a7 98 3c
       -0.32228282 -0.11833753 -0.0359863 0.018634679
0001e0 98 34 df bd 64 86 19 bc ef 96 28 3e 83 87 4a 3d
       -0.10898703 -0.00937042 0.16463827 0.04944564
0001f0 22 86 5f be 62 4c ed 3d d4 da 96 bd 51 13 2b 3e
       -0.21828511 0.115868345 -0.07365957 0.16706587
000200 fa 85 65 3e 9f 49 54 3d b7 a2 b9 3d 64 69 0d 3d
       0.22414389 0.051828023 0.090642385 0.034524336
000210 f1 e9 17 3e b6 3f ff 3d 91 95 a6 3d 70 f9 bc 3d
       0.14835335 0.12463324 0.08133996 0.09227264
000220 28 19 5f 3d 40 35 a5 3c 21 1f 58 3e 3d 17 28 be
       0.05446735 0.020166993 0.21105625 -0.16415115
000230 82 8c ac bd d8 6e 23 be cc 03 9a 3d c1 b1 74 3c
       -0.08425237 -0.15960252 0.075202554 0.014934958
000240 2f b0 9d bb e3 41 88 be 85 f1 80 3d 73 3d 97 3d
       -0.0048122625 -0.26612768 0.06296066 0.073847674
000250 73 b3 3f 3e 18 4d ac bc 19 8b 3d 3e 14 18 e9 3b
       0.18720798 -0.021032855 0.18510093 0.007113466
000260 49 3b 1e 3d 8e da cb 3b 2c 48 b4 3d a5 bc 7d 3d
       0.038630757 0.006221122 0.08802828 0.061947484
000270 7f 5e 69 3d 3c 9f 28 3e a2 8f a1 3d 28 0d 47 3e
       0.056974884 0.16466993 0.07888724 0.19438612
000280 86 e3 35 bd 54 4a 00 be 86 cf 94 3d 53 58 c7 bc
       -0.044406436 -0.12528354 0.072661445 -0.024334108
000290 97 42 21 3d 2a 3c 48 3d a7 dc 3c bd 31 61 10 3e
       0.039370146 0.048885502 -0.046108868 0.14099576
0002a0 97 95 0e bd 60 26 78 3e bc 57 f0 bd 72 c7 13 be
       -0.03481063 0.24233389 -0.11735484 -0.14431551
0002b0 cf fc 79 3c 40 5e bb bb 1e 8d b0 bc e3 82 e3 bd
       0.015258028 -0.0057180226 -0.021551665 -0.11108949
0002c0 3d f7 b1 bc 8e 71 12 3d 50 fe 47 bd 3d 8f 53 3d
       -0.021724338 0.035752825 -0.048826516 0.051650275
0002d0 93 74 9a 3d b3 32 90 3b 39 3d eb 3d f3 65 3d bd
       0.07541766 0.004400575 0.11486287 -0.046239804
0002e0 a7 a0 86 3d 28 14 3b 3e 83 01 41 bc 8a a0 2a be
       0.06573611 0.18269408 -0.011780146 -0.16662803
0002f0 ac 5b 00 3e 0e 69 2d 3d 9b dd 37 be bc 39 b5 3c
       0.1253497 0.042336516 -0.1795563 0.022122256
000300 f9 c9 41 be 6d 73 ec 3c 95 c1 1e 3e f7 33 58 bb
       -0.18924703 0.028863633 0.15503533 -0.0032989958
000310 b5 ac c3 bd 89 f3 99 3d 85 aa 17 be b5 fa 09 bf
       -0.095544256 0.07517154 -0.14811142 -0.53898174
000320 81 8f fb 3c 60 06 e8 bc 11 70 1f 3e 87 ee 04 3d
       0.030708076 -0.028323352 0.15570094 0.03245404
000330 74 a4 d7 3d 52 10 c9 3d e4 54 35 3e 34 1d 71 3e
       0.10529414 0.09817566 0.17708164 0.23546296
000340 79 cb b2 be 64 21 16 3e 01 28 b8 3b 92 ae a3 be
       -0.34920862 0.14661175 0.005620003 -0.31969124
000350 bb c8 d9 bd a5 5e 90 3e c2 7b fa 3d 0f 95 27 3d
       -0.106339894 0.28197208 0.12230636 0.040913638
000360 6d 14 1e be e2 a5 59 be b5 71 4a be be 7e aa bb
       -0.1543748 -0.21254686 -0.19769938 -0.005203097
000370 19 1c 92 be c7 fb a0 3d 3b df 04 be 1e bd d7 3e
       -0.28537062 0.07860523 -0.1297578 0.42136472
000380 8d 55 43 be b8 04 b8 3d 81 46 c7 3d 70 cb fd 3b
       -0.19075604 0.08985275 0.097302444 0.007745199
000390 82 a1 8a 3d a5 d7 b7 bd 67 30 0e 3e 3d ca b6 be
       0.067690864 -0.08976678 0.13885652 -0.3570117
0003a0 86 d3 8d bb 08 e7 2b be f6 8d 4a be 2d ee 3e 3e
       -0.004328194 -0.1678735 -0.19780716 0.18645544
0003b0 8f 0e eb 3c 05 ea 7c 3e 31 c3 99 be 1a f2 aa 3e
       0.028693466 0.24698646 -0.30031732 0.33387834
0003c0 75 01 ff bb 00 d0 71 be 2b 50 21 be 2a c4 fb 3d
       -0.007782156 -0.23614502 -0.15753238 0.12293275
0003d0 10 86 82 bd 47 99 46 be c2 8d d8 bd d2 a1 9e bd
       -0.06373227 -0.19394408 -0.10573913 -0.077457085
0003e0 1c ff e0 3b 3e 55 93 bd 05 8a 6b bb cc f4 b4 3e
       0.006866349 -0.07193993 -0.003594042 0.35343015
0003f0 48 e6 e0 bc ee b1 67 be 11 76 08 be eb e2 2e 3e
       -0.027453557 -0.22626469 -0.13326289 0.1707875

network_body._body_endoder.seq_layers.2.bias f4 [64]
000000 f7 94 e9 3b 06 c1 aa 3b f5 f8 1d 3d 43 b1 fc bb
       0.0071283537 0.0052109985 0.038567502 -0.007711561
000010 6b de 64 3d 7f 0a 23 3d 7a ae 12 3d 1c a2 40 3d
       0.055876177 0.03980493 0.035810925 0.0470296
000020 10 13 5f 3d c8 e7 4f 3d 26 d5 cd 3c 18 cd 0b 3d
       0.05446154 0.050758153 0.025126051 0.03413114
000030 23 34 a7 bb 93 4a a5 bc 1f 7a 22 3d 77 ec 40 3d
       -0.0051026507 -0.020177161 0.039667245 0.04710051
000040 c7 eb 8c 3c 89 9a 0c 3d 49 ae 64 3d 11 8c 90 3a
       0.017202271 0.034327064 0.055830274 0.0011028071
000050 30 99 b0 3c 5b a8 0d 3d 92 3f 28 3d c2 14 ea 3c
       0.02155742 0.034584384 0.04107625 0.028574351
000060 08 8d f8 bb 1a 6c 36 3d 74 9e c1 3c c3 81 0d 3d
       -0.0075851716 0.044536687 0.023635127 0.03454758
000070 9e 67 39 3d ab a6 05 3d 8b ac 1f bd 79 4e e6 3c
       0.045264833 0.03262965 -0.03898291 0.02811359
000080 a3 a1 af 3c 28 7d 69 bc 43 8d 36 3d 7b 8e 28 3d
       0.02143938 -0.014251031 0.04456831 0.041151505
000090 81 e4 1a 3d db 4a 47 3d cb c7 b6 bc 72 94 83 3c
       0.037815575 0.048655372 -0.022312066 0.016061995
0000a0 3d 62 23 bc 92 44 5b bd 09 83 27 3d d2 d8 22 3c
       -0.009972152 -0.05353219 0.04089645 0.009939389
0000b0 7d 82 04 3d aa 08 ab bc cc 90 a4 3c 02 7e ae 3d
       0.032351006 -0.020878155 0.020088576 0.08520128
0000c0 62 d8 82 3c b0 86 2c 3b 61 90 65 3d 14 c2 ac 3c
       0.01597232 0.0026325397 0.056045894 0.021088637
0000d0 c4 65 52 3d 63 32 03 3d a3 99 68 3d 02 9e 19 3c
       0.051366583 0.032030474 0.056787144 0.009376051
0000e0 5c e3 85 bc f6 96 33 3d 43 66 02 3d e4 f0 59 39
       -0.016343765 0.04384514 0.031835806 0.00020784471
0000f0 23 34 80 3d ad 35 46 ba 14 f3 da 3c 12 54 4a 3d
       0.06259944 -0.0007561099 0.026727237 0.049396582

action_model._continuous_distribution.log_sigma f4 [1, 2]
000000 c5 c5 da be 5d 18 07 bf
       -0.4272901 -0.5277155

action_model._continuous_distribution.mu.weight f4 [2, 64]
000000 77 c5 a3 3d 5b b0 0b 3c 34 6b 6d 3d c1 fe 48 3c
       0.07996648 0.008525933 0.057963565 0.012267769
000010 5f 16 4a 3d f6 3a 78 3c 96 c8 f8 3d b0 a6 d3 3d
       0.04933774 0.015150776 0.12147634 0.103345275
000020 ef 04 f1 3d d2 98 f1 bb ff 8f 14 3c 82 36 99 3d
       0.11768519 -0.007372954 0.0090675345 0.074811
000030 75 de 9b bb a9 b4 a1 bd 40 d1 c6 3d b5 b8 cc bb
       -0.0047567436 -0.07895786 0.0970788 -0.0062476047
000040 27 b1 c0 bd cd 2e b6 bd 0b ef c9 3d 7d 24 29 3b
       -0.09408789 -0.08895645 0.09860047 0.0025809102
000050 21 30 70 3d a1 0e 61 bc 9d fc e7 3d 3e 78 85 bc
       0.05863965 -0.013736398 0.11327479 -0.016292688
000060 66 20 b5 3c 7c 77 c0 bd 48 57 c7 3b 50 8f fd 3d
       0.022110175 -0.0939779 0.006083403 0.1238085
000070 ec 34 a3 3b 44 09 a8 3d f9 68 99 bd 70 29 20 3c
       0.004980674 0.08204892 -0.07490725 0.0097755045
000080 73 35 15 3c f3 cd 93 bc 04 bc b0 3d 88 e9 e5 bc
       0.009106982 -0.01804254 0.08629611 -0.028065458
000090 0f d2 ed 3d b4 61 b3 bd 53 c9 b7 bd 05 db db bd
       0.11612331 -0.0875887 -0.089739464 -0.10735134
0000a0 be 1d 83 bc f7 43 48 bd a0 83 dd 3c 50 1d e5 3c
       -0.016005393 -0.04889294 0.027040303 0.027968079
0000b0 9d 66 8d bd 21 81 c7 bd 8f d8 96 3d 3a 8a e3 3c
       -0.069043376 -0.09741426 0.07365524 0.027775872
0000c0 06 e2 7f 3c 29 ea 50 3d 77 65 02 bd 40 d7 9f bd
       0.015617853 0.051004563 -0.031835046 -0.078047276
0000d0 67 84 b7 3d 0a 7c fd 3d 4d ac 6d bc c6 74 3f bd
       0.089608006 0.12377174 -0.014506412 -0.046742223
0000e0 5e 77 9d bd dc 47 a4 3d 89 be b9 3d 2d 77 68 bd
       -0.07688783 0.080215186 0.09069545 -0.05675428
0000f0 11 c1 fe bb 30 bb 14 be 81 f9 00 bd 73 e0 5c bc
       -0.00777448 -0.14524531 -0.031487945 -0.013481247
000100 b3 07 15 be b7 32 be bd ca 7d bb 3d 5f e8 25 be
       -0.14553718 -0.09287017 0.09154852 -0.16201924
000110 dc b8 c9 3c 18 bd 7d 3d 9d 30 37 bd cc ef 80 3c
       0.02462428 0.061947912 -0.044724096 0.015739344
000120 a8 fc c1 bd 66 18 e9 3d 2c e5 1b 3d 2b 2e 66 3a
       -0.094720185 0.11381607 0.038060352 0.0008780683
000130 58 57 83 bd cb b5 89 bc cc 6d 27 bd ea 6d cd 3d
       -0.06413144 -0.016810318 -0.040876195 0.1003073
000140 29 fe 09 3e 12 6b 35 3e 31 6d 98 3d ed be 4c bd
       0.1347586 0.17716625 0.074427016 -0.04998677
000150 60 eb 00 be 02 d9 ce 3d af 18 d8 bc 86 d4 1a bd
       -0.12589788 0.10099985 -0.026378958 -0.037800334
000160 61 eb 72 bb 4b a6 e3 3d 23 62 d3 bc 9e 25 ac bd
       -0.0037066566 0.11115702 -0.025803631 -0.084056124
000170 0e 22 db 3b b9 77 20 bd 57 a1 42 bd 90 5c e4 bc
       0.0066874092 -0.039176676 -0.047517147 -0.027876168
000180 90 3f 4a 3d bf e0 8a bd 30 47 8e bb 22 ef e1 3d
       0.049377024 -0.06781148 -0.0043419823 0.11031939
000190 a9 e4 cd bc c9 d6 04 3e d8 b0 ee 3c 08 8b 93 3d
       -0.025133448 0.12972559 0.02913706 0.072042525
0001a0 2f 5f 44 bd cb 32 2a bd 4f 75 a7 3d 25 5f 4b bb
       -0.047942337 -0.041552346 0.08176672 -0.0031032052
0001b0 71 29 05 3e c4 96 8f 3c 3d 1a 57 bc a7 80 1f bd
       0.1300409 0.017527945 -0.013128814 -0.03894105
0001c0 3d 0b 44 bc 08 46 1e be b6 66 09 3e 56 6a 25 3e
       -0.01196557 -0.15456402 0.13418087 0.16153845
0001d0 8a 5b 19 3d 9c 7f 89 bd 87 3e 97 3d 0a ee 5e 3d
       0.037440814 -0.06713793 0.07384973 0.05442623
0001e0 ef da 03 bd 5a df b4 bc ca 69 a0 bd 06 ea 4f 3a
       -0.032191213 -0.022079159 -0.07832678 0.00079312955
0001f0 80 04 97 3d fd 6d 4f 3c b9 6e 2e 3d aa fb a2 3d
       0.07373905 0.012660501 0.042586062 0.07958157

action_model._continuous_distribution.mu.bias f4 [2]
000000 67 4b 56 3d 4a 29 d9 3c
       0.052318003 0.026508946

action_model._discrete_distribution.branches.0.weight f4 [2, 64]
000000 98 fb f3 3a 76 81 c1 bd 06 29 90 bc 10 d8 57 bc
       0.001861441 -0.09448521 -0.017597686 -0.013174072
000010 70 f8 0b 3e 35 77 6f 3d ce c7 a7 bb e4 02 9a 3c
       0.1366899 0.058463294 -0.005120254 0.018800206
000020 f8 2b 6b bd 56 83 1a 3e 1c 20 3a be b0 92 19 3d
       -0.05741498 0.15089163 -0.18176311 0.037493408
000030 10 2d 19 be 07 62 33 3d be 6b 1b 3c 05 ba ef 3d
       -0.14958596 0.043794658 0.009486137 0.11705402
000040 39 44 8a 3c 4b cf 27 3d a9 c3 dc 3d e5 44 10 3e
       0.016878234 0.040969174 0.10779507 0.14088781
000050 f8 b5 a3 3a eb 6b 00 3e bb 4f 5d bd 59 bf 58 3e
       0.0012490144 0.12541167 -0.054031115 0.21166743
000060 5b d8 f7 3c ed 9f 0b 3e 69 0b 25 be bf f6 22 3b
       0.030254534 0.13635226 -0.16117634 0.002486631
000070 7d e8 07 be 4b 73 03 3d 6d fc 8f bd ec 0f fd 3d
       -0.13272281 0.032092374 -0.07030568 0.123565525
000080 cb 05 d7 3d a9 c0 88 bd b3 8d cf bc f6 ae 25 3e
       0.10499152 -0.06677372 -0.025336122 0.16180024
000090 c8 6d 24 bc 85 86 f7 3d 4d 72 f4 bc 31 a3 db bd
       -0.0100359395 0.120862044 -0.02983966 -0.10724486
0000a0 e9 f7 c3 3d c1 2d 98 bd 5a f8 95 3d aa 49 f1 bd
       0.095687695 -0.07430602 0.0732276 -0.117816284
0000b0 4d 18 66 bd be 41 10 bd ca b6 34 bd 0b 56 68 3e
       -0.05617552 -0.035218947 -0.044119634 0.22689073
0000c0 7a 84 0b 3e 1b ef 0a bd 10 19 72 be 6a 42 6d 3d
       0.13624755 -0.033919435 -0.23642373 0.057924666
0000d0 e5 7a a8 3d cf 3a 16 bc 6e 9d 73 3e fd 75 28 3e
       0.08226565 -0.0091692945 0.23790523 0.16451259
0000e0 92 c0 29 bd 45 bb d0 3d 0e 8c ae bc f5 5f 87 bc
       -0.041443415 0.10191969 -0.021307018 -0.016525248
0000f0 02 65 73 3e 50 f2 20 3d 5e d4 17 3e 93 17 2b 3e
       0.23769 0.039293587 0.14827105 0.16708212
000100 b7 fa 00 3d 70 bd 9c 3d d8 4b 86 3b 2e dd 96 3c
       0.0314891 0.0765332 0.0040983967 0.018416014
000110 e1 ee 26 be dd 68 64 bd 3b 99 c6 bc f9 a2 1a bc
       -0.16302063 -0.055764068 -0.024242988 -0.00943827
000120 64 1e 6e 3d af 5e 16 be 7d 97 24 3e c8 21 b3 bc
       0.05813445 -0.14684556 0.16073413 -0.021866694
000130 c2 0f 02 3e a9 43 27 bd c1 c0 70 bc 83 d4 f4 bd
       0.12701324 -0.04083601 -0.014694394 -0.11954596
000140 87 b7 a3 bc 8d ee 26 bd 4d bf b7 bd 46 41 10 be
       -0.019984974 -0.040754844 -0.089720346 -0.140874
000150 12 87 17 3c 8a b1 06 be 02 11 3a 3d 4c 65 52 be
       0.009248512 -0.13153663 0.045426376 -0.20546454
000160 f4 31 de bc b0 11 2c be 58 00 0c 3e 71 ee 77 bc
       -0.027123429 -0.16803622 0.13672006 -0.015132532
000170 cb 59 14 3e 14 7f 43 bd f8 6d 27 3d 9f f2 0f be
       0.14487378 -0.047728613 0.04087636 -0.14057396
000180 3d 11 db bd f9 c7 95 3d 1b bd d5 3c 55 7c 23 be
       -0.10696647 0.073135324 0.02609115 -0.15965398
000190 48 2c 50 3b 16 38 12 be ee 4b 19 3d 94 49 cf 3d
       0.0031764675 -0.14279208 0.037425928 0.10121456
0001a0 92 32 15 be cc b5 bb 3d 7a d8 a4 bd 4f 92 11 3e
       -0.14570072 0.091655344 -0.08049102 0.14215969
0001b0 ad c9 74 3d 92 ef 98 3b b9 07 f9 3c 23 fb 59 be
       0.059762646 0.004667231 0.03039919 -0.21287207
0001c0 0e aa 15 be e0 fb 27 3d 57 b6 68 3e 4a 73 98 bd
       -0.14615652 0.04101169 0.22725807 -0.07443865
0001d0 6e 0d aa bd 45 b5 60 b9 3f d0 4a be 31 6b 27 be
       -0.08303343 -0.00021429833 -0.19806002 -0.16349484
0001e0 41 4e 8e 3c cf 08 d7 bd 66 c8 01 3c b1 6b dc 3c
       0.017371299 -0.10499727 0.007921314 0.02690682
0001f0 bd 44 6c be 36 1e 89 bc 87 8d 13 be 72 fa 3e be
       -0.23073097 -0.016738039 -0.14409457 -0.18650225

action_model._discrete_distribution.branches.0.bias f4 [2]
000000 21 1d 81 3c 2b 1d 81 bc
       0.01576096 -0.015760979
