Assets/ML-Models/AirCollector-3499969.onnx (onnx, 48856 bytes, 9 tensors)

network_body._body_endoder.seq_layers.0.weight f4 [64, 93]
0	0xbd329097	-0.043594923
1	0x3e827435	0.25479284
2	0xbdadb114	-0.084810406
3	0x3e17358a	0.14766517
4	0xbdbdc689	-0.09266383
5	0x3c9c41cd	0.019074345
6	0x3e068f15	0.13140519
7	0xbe1ccf9f	-0.15313576
8	0xbc277f2a	-0.010223189
9	0x3f054f09	0.52073723
10	0x3cce5c38	0.025190458
11	0x3cc5d6ac	0.024150215
12	0x3d672f25	0.056441445
13	0x3e69bc65	0.22825773
14	0x3dd66bb3	0.10469761
15	0xbde66dfb	-0.11251446
16	0x3d8811cc	0.066440195
17	0x3e1da9d9	0.15396823
18	0x3e068a74	0.13138753
19	0x3be70ea8	0.0070513077
20	0x3c623b36	0.013808062
21	0xbd8befd3	-0.06832852
22	0x3db6e09d	0.0892956
23	0xbb2d44a2	-0.0026438613
24	0x3e4ecdbe	0.20195672
25	0x3e1593b6	0.14607129
26	0xbd31450a	-0.04327873
27	0x3c98d0db	0.018654278
28	0x3daa8d3b	0.08327719
29	0xbd54afc7	-0.051925447
30	0xbcd2560b	-0.025675794
31	0xbd4bb8d2	-0.049736805
32	0x3e8a6f0b	0.27037844
33	0x3e49b013	0.19696073
34	0x3deaa7d5	0.11457793
35	0x3d95f7e8	0.07322675
36	0x3ebd4e74	0.36973917
37	0x3eab1f7c	0.33422458
38	0xbdc13e6c	-0.09435734
39	0xbe007faf	-0.12548707
40	0x3e9452d8	0.28969455
41	0xbd02af8a	-0.03190569
42	0xbe26893d	-0.1626329
43	0xbe08f314	-0.13373977
44	0xbc91ee52	-0.017813835
45	0x3e56f01f	0.20990036
46	0xbe8338ba	-0.25629216
47	0xbd318dd3	-0.043348145
48	0xbc66149a	-0.014042998
49	0xbcba22d6	-0.02272169
50	0xbd1b3881	-0.037895683
51	0x3d4eca6b	0.05048601
52	0xbe8ed441	-0.27896312
53	0x3eb9274e	0.361628
54	0x3e8b542e	0.27212662
55	0x3c36bd9a	0.011153603
56	0xbca727cf	-0.020404724
57	0xbc8dd933	-0.017315483
58	0xbde31d54	-0.11089578
59	0x3d83d19b	0.064364634
60	0xbd5b04e0	-0.053471446
61	0x3e817353	0.25283298
62	0xbdb47356	-0.08811061
63	0x3e83c0ae	0.2573294
64	0x3e03417a	0.12817946
65	0x3e0adb19	0.13560142
66	0xbddd65b5	-0.10810415
67	0xbe077299	-0.1322731
68	0xbe5560b8	-0.20837677
69	0x3e73b017	0.23797642
70	0x3d1700bc	0.036865935
71	0xbd909a99	-0.07060737
72	0x3d75a9e9	0.059976492
73	0xbe3278c5	-0.17428882
74	0x3da69715	0.08134285
75	0x3dc5dcc8	0.09661251
76	0xbe74814c	-0.23877448
77	0x3d742ac2	0.05961109
78	0x3e5d2c71	0.21598984
79	0xbcbe048e	-0.023195531
80	0xbc7d1923	-0.015447888
81	0xbdf857dc	-0.12126133
82	0x3c9ec805	0.019382486
83	0xbba6111c	-0.0050679576
84	0xbe5bc7ad	-0.21462889
85	0x3c800761	0.015628519
86	0x3e2e6a1e	0.17032668
87	0xbaae1763	-0.0013282116
88	0x3e6dc916	0.2322124
89	0xba10cec5	-0.0005523975
90	0x3e0beb55	0.13663991
91	0x3e0627ea	0.13101164
92	0xbd8efe52	-0.069821015
93	0xbd8661f4	-0.06561652
94	0xbd68654d	-0.056737233
95	0x3d03cd2c	0.03217809
96	0xbd553e8e	-0.05206161
97	0xbe026801	-0.12734987
98	0x3e3e8c4d	0.18608208
99	0xbd42ea1b	-0.04758654
100	0x3d236ae7	0.039896872
101	0x3e4adcfc	0.19810861
102	0x3ccacdc2	0.024756316
103	0x3d9b5a03	0.07585528
104	0x3d94ad30	0.072595954
105	0xbcacc2f3	-0.021089053
106	0x3e0b6308	0.13611996
107	0xbe29dd66	-0.16588363
108	0xbe3bbcb0	-0.18333697
109	0xbd4fb4f0	-0.050709665
110	0x3dc07a7d	0.09398363
111	0xbd4adf36	-0.049529277
112	0xbda2ef63	-0.07955816
113	0x3d88a673	0.06672373
114	0x3e0638a4	0.13107544
115	0x3d37f0b6	0.044907294
116	0xbe945bd2	-0.28976303
117	0x3d543af9	0.051814053
118	0xbe504bee	-0.20341465
119	0xbd0b5fc2	-0.03402687
120	0x3c73ddae	0.0148843955
121	0x3e1d7fb3	0.15380745
122	0x3e6f2418	0.23353612
123	0xbd20c2d5	-0.039248306
124	0xbda46e51	-0.08028854
125	0xbd8a5229	-0.06753952
126	0x3e7a4358	0.24439752
127	0x3dadb687	0.0848208
128	0xbdab8e66	-0.0837677
129	0x3d661094	0.056168154
130	0x3ef55e23	0.47923383
131	0xbd91fe3d	-0.0712857
132	0xbd936613	-0.071972035
133	0xbe9f5d7d	-0.31126013
134	0x3e32d9d3	0.17465906
135	0xbd24afc2	-0.04020668
136	0x3e1db99a	0.15402833
137	0x3c9713dd	0.018442089
138	0xbdaf63e4	-0.085639745
139	0x3d8a895f	0.06764483
140	0xbda0d9bb	-0.07854029
141	0x3dfaf84a	0.12254389
142	0xbd3212c9	-0.043474946
143	0x3c249597	0.010045431
144	0xbda945a4	-0.08265236
145	0xbc867160	-0.016411483
146	0x3dc9efa7	0.09860163
147	0x3df5e0cb	0.120057665
148	0x3c9b5e49	0.018965857
149	0xbd21937e	-0.0394473
150	0x3de69aba	0.112599805
151	0x3d14e2f4	0.036349252
152	0xbca21d2e	-0.019789305
153	0xbd1ce6b3	-0.03830595
154	0x3cbed78d	0.023296142
155	0x3e10db4e	0.14146158
156	0x3dd0b909	0.10191543
157	0xbe600d5d	-0.21880098
158	0x3eab1a39	0.33418444
159	0x3d9716a2	0.07377364
160	0xbe20f2e8	-0.15717661
161	0x3d80c196	0.062869236
162	0xbdbd37a8	-0.09239131
163	0x3c88590d	0.016644025
164	0xbd49cba6	-0.04926648
165	0xbdf05833	-0.11735573
166	0xbd68d8e6	-0.056847475
167	0xbdb5c20b	-0.088749014
168	0x3dbdae78	0.09261793
169	0x3d07d102	0.03315831
170	0xbd19c870	-0.037544668
171	0x3d3729b0	0.04471749
172	0x3dacf8ec	0.084459156
173	0xbe890db1	-0.26768258
174	0x3e308a96	0.17240366
175	0x3cc15de2	0.023604337
176	0x3d4461b8	0.047944754
177	0xbe745d3c	-0.23863691
178	0x3e183996	0.14865717
179	0xbe0d13b4	-0.13777047
180	0xbe26d288	-0.16291249
181	0xbe9edd87	-0.31028387
182	0x3e244c2f	0.16044687
183	0xbebed0cd	-0.37268677
184	0xbe3817df	-0.17977856
185	0xbe6c6894	-0.23086768
186	0xbdb4bbd0	-0.08824885
187	0x3e0866ab	0.13320415
188	0xbc027a4a	-0.007963726
189	0xbe39619b	-0.1810364
190	0x3e75d8c0	0.24008465
191	0x3dfea025	0.12432889
192	0x3e10ef79	0.14153852
193	0xbdc1ed73	-0.09469118
194	0xbddcd1bc	-0.10782191
195	0x3e68bc21	0.22728015
196	0xbdd300f2	-0.10302915
197	0x3d3e14ed	0.046406675
198	0x3e378aa9	0.17923988
199	0xbda5af99	-0.08090133
200	0x3dde9636	0.10868494
201	0xbd8543b6	-0.065070555
202	0x3d220abd	0.039561022
203	0x3df12ed9	0.117765136
204	0x3d21dd59	0.039517734
205	0xbdcec054	-0.100952774
206	0x3e4c3049	0.19940294
207	0xbdaefe07	-0.085445456
208	0x3d9c3206	0.07626729
209	0x3eaf6f02	0.3426438
210	0xbd53223a	-0.051546313
211	0xbc9f4a94	-0.019444741
212	0xbe09e377	-0.13465677
213	0xbdb12c0e	-0.08650981
214	0xbdcd1d6f	-0.1001538
215	0x3c79fbb5	0.015257766
216	0x3d01cbe6	0.031688593
217	0xbcb2b3bb	-0.021814218
218	0xbdcc67df	-0.09980749
219	0x3e0d69b7	0.13809858
220	0x3dbbf83c	0.09178206
221	0xbd8ba28b	-0.06818112
222	0x3e924a2c	0.28572214
223	0x3e52f67b	0.20601837
224	0x3d3769ea	0.044778742
225	0xbe92e15b	-0.28687558
226	0x3eed2cd1	0.46323255
227	0xbdbbdca6	-0.09172945
228	0xbbd2073d	-0.0064095543
229	0x3d40b557	0.04704794
230	0xbe4364bb	-0.19081394
231	0x3df640b7	0.12024062
232	0xbde70379	-0.11279959
233	0x3e0dd095	0.13849099
234	0x3ccc5036	0.024940591
235	0xbdaf6e95	-0.08566014
236	0xbe584117	-0.2111858
237	0x3df13654	0.117779404
238	0xbd9642ea	-0.073369816
239	0x3e69450f	0.2278025
240	0x3b3dba45	0.0028950137
241	0xbd70fb23	-0.058833253
242	0x3d12d760	0.03584993
243	0xbe62789e	-0.22116324
244	0x3da0713f	0.078341
245	0x3d816526	0.06318121
246	0xbe627332	-0.22114256
247	0x3e2c3c02	0.16819766
248	0x3de23e43	0.11047032
249	0xbc04c045	-0.008102481
250	0x3daca1aa	0.084292725
251	0xbe8f75c9	-0.2801955
252	0x3b83c7d6	0.004021625
253	0xbdaf9554	-0.08573404
254	0xbeb71590	-0.35758638
255	0x3e17d5d1	0.14827658

network_body._body_endoder.seq_layers.0.bias f4 [64]
0	0xbb5f6e7c	-0.0034092953
1	0xbc1c936b	-0.009556632
2	0xbb4db7fb	-0.0031390178
3	0x3d13b476	0.036060773
4	0xbcbe38c8	-0.023220435
5	0xbb959c24	-0.0045657326
6	0x3c3c6e58	0.011500917
7	0x3b3a540e	0.0028431448
8	0x3af17cc9	0.001842403
9	0xbe3a1e45	-0.1817561
10	0x3d1e26c7	0.0386112
11	0xbccb45cd	-0.024813557
12	0xbce022c5	-0.02736033
13	0xb8538b32	-5.0435956e-05
14	0x3d1852ab	0.037188213
15	0xbd272236	-0.04080411
16	0x3d0b8a1a	0.03406725
17	0xbb1c0507	-0.0023806707
18	0xbb41adb4	-0.0029552998
19	0x3d1a15ba	0.037618376
20	0xba046d23	-0.0005051663
21	0xbccdd7a3	-0.025127238
22	0x3ca6a169	0.020340638
23	0x3ba7eb8b	0.0051245145
24	0x3b8dc5cd	0.004326558
25	0xbc9ee11d	-0.019394452
26	0xbd0ab652	-0.03386528
27	0x3ca61502	0.02027369
28	0xbc7141b3	-0.014725137
29	0x3ce8b07c	0.028404467
30	0x3ba663db	0.0050778217
31	0xbca13cde	-0.019682344
32	0x3c5e52b4	0.013569523
33	0xbc3637f4	-0.011121739
34	0xbd1c2b89	-0.038127456
35	0xbc879092	-0.016548429
36	0x394d5c66	0.00019584745
37	0x3cadc426	0.021211695
38	0x3c867203	0.016411787
39	0xb9c15440	-0.000368746
40	0xbd10be8b	-0.035337966
41	0xbbf814b6	-0.0075708283
42	0x3d1af0f5	0.03782745
43	0x3c2f6957	0.010706267
44	0x3d17ab85	0.03702881
45	0x3cc712c5	0.024300942
46	0x3be78013	0.007064828
47	0x3b92fd94	0.0044857953
48	0xbd1c88b6	-0.038216315
49	0xbc973415	-0.018457452
50	0xbb801c43	-0.003909619
51	0x3c71829d	0.014740613
52	0xbcb189d7	-0.021672172
53	0x3c293552	0.010327654
54	0xbd394944	-0.045235887
55	0x3c32140a	0.0108690355
56	0x3caa220f	0.020768194
57	0xbc0ff3d9	-0.008786165
58	0x3cd9b6ec	0.026576482
59	0xbc113c15	-0.008864422
60	0x3c0a8b27	0.008456028
61	0xbc470443	-0.012147012
62	0xba34171b	-0.0006869898
63	0x3b9e3dad	0.0048291297

network_body._body_endoder.seq_layers.2.weight f4 [64, 64]
0	0xbe6aa16e	-0.22913143
1	0x3eb4df82	0.35326773
2	0xbda94ba4	-0.082663804
3	0xbc877aab	-0.016537985
4	0x3e148ee5	0.14507635
5	0x3e3e4cb4	0.18583947
6	0xbeaa26e1	-0.33232787
7	0x3d79d526	0.06099429
8	0x3dc07d1e	0.09398864
9	0xbcf5fbeb	-0.03002735
10	0x3dedf1d9	0.116183944
11	0xbd381aba	-0.044947363
12	0xbe95ae4f	-0.2923455
13	0x3e5cde62	0.21569207
14	0xbd9731d5	-0.073825516
15	0x3cb0e7ab	0.021594843
16	0xbcae16d3	-0.021251118
17	0xbe70ab9b	-0.23502962
18	0x3e1bc711	0.15212657
19	0x3c923946	0.017849576
20	0xbe5510ed	-0.20807238
21	0xbe03a464	-0.12855679
22	0xbe25cb0d	-0.16190739
23	0xbd63948b	-0.055561583
24	0xbc74de33	-0.014945555
25	0xbbe4fc5a	-0.0069880905
26	0xbcb0805f	-0.021545587
27	0xbe84dd28	-0.2594998
28	0xbd9a351c	-0.07529661
29	0x3d963963	0.073351644
30	0xbcb8cfc9	-0.022560017
31	0x3e25c850	0.16189694
32	0xbd0dc262	-0.034609206
33	0xbe971e3f	-0.29515263
34	0x3c70f0cd	0.014705849
35	0x3de362c7	0.11102825
36	0x3dace92f	0.08442914
37	0x3e21fe35	0.15819629
38	0x3ce03f54	0.027373947
39	0xbda867dd	-0.08222935
40	0xbe50db1a	-0.2039608
41	0xbd60648f	-0.0547834
42	0xbdb74803	-0.08949282
43	0xbc9cd5ce	-0.019144919
44	0x3c8dbc8c	0.01730182
45	0xbe924f87	-0.285763
46	0x3e4fb89f	0.20285271
47	0x3e16d5d0	0.1473
48	0x3d200b67	0.039073374
49	0x3d0c534e	0.034259133
50	0x3abd40cb	0.0014438865
51	0xbea2fb25	-0.31832233
52	0xbde2b1a9	-0.11069042
53	0x3ccf565b	0.025309732
54	0xbe3a6eb4	-0.18206292
55	0xbe8f655c	-0.2800702
56	0x3cedda52	0.029034767
57	0xbdbd7a60	-0.09251857
58	0x3e820952	0.25397736
59	0xbc38764d	-0.011258674
60	0xbd0afb19	-0.03393087
61	0xbea67b7e	-0.32516092
62	0x3d80fe91	0.06298555
63	0x3e7aa9bf	0.24478815
64	0x3bb0cc08	0.005395416
65	0x3e0eeb76	0.13957009
66	0x3e1eeb4a	0.15519443
67	0x3c6846b0	0.014177009
68	0x3c7ce376	0.01543509
69	0xbde0b8a9	-0.10972721
70	0xbd7dcf38	-0.061965197
71	0x3df3b7c8	0.11900288
72	0xbe5c94e3	-0.21541171
73	0x3e6da345	0.23206814
74	0x3e1d769b	0.15377276
75	0xbdb55cb6	-0.08855574
76	0xbd7d7d9a	-0.06188736
77	0xbda3c4bf	-0.07996511
78	0x3d68ebb9	0.056865428
79	0xbe9636c6	-0.29338664
80	0x3e56ef12	0.20989636
81	0x3e244c69	0.16044773
82	0x3db70f76	0.08938496
83	0x3cdeb1c3	0.027184373
84	0x3c6ac1b1	0.014328406
85	0x3e592cfe	0.2120857
86	0x3db22232	0.086979285
87	0x3d1ef792	0.03881032
88	0x3e3c7241	0.1840296
89	0xbbd00b37	-0.006348993
90	0xbe399caf	-0.18126176
91	0x3ba0bafa	0.004905102
92	0xbea829dd	-0.3284444
93	0xbe166fba	-0.14691058
94	0xbde9a7a1	-0.11408926
95	0xbc9596cd	-0.018260384
96	0xbeea8864	-0.45807183
97	0x3ddaa954	0.10676828
98	0xbd61daa0	-0.055140138
99	0x3bc9c239	0.0061571863
100	0xbe872062	-0.26391894
101	0xbdec1e47	-0.115292124
102	0xbd5e9689	-0.05434278
103	0xbde72fc5	-0.11288408
104	0x3dabfff8	0.083984315
105	0xbd936b68	-0.071982205
106	0xbca9f1da	-0.020745207
107	0xbdda72f2	-0.10666455
108	0x3dd379c9	0.10325963
109	0xbd4f8ff6	-0.0506744
110	0x3d7e8a88	0.062143832
111	0x3e92c5ba	0.28666478
112	0x3e36e0fa	0.17859259
113	0x3dbb6693	0.09150424
114	0x3cf11528	0.029429033
115	0xbdb90005	-0.09033207
116	0xbe40112e	-0.18756554
117	0xbaf27d22	-0.0018500427
118	0xbe17958e	-0.14803144
119	0x3e7ac69d	0.24489827
120	0x3e5bb310	0.21455026
121	0x3ce6b608	0.028162971
122	0xbe58462e	-0.21120521
123	0xbe055e79	-0.1302432
124	0x3e82335f	0.25429818
125	0x3d37906c	0.044815466
126	0xbe847e76	-0.25877732
127	0x3e3e251c	0.18568844
128	0x3d662ccb	0.05619506
129	0x3e87ee07	0.26548788
130	0x3e0b7cf7	0.13621889
131	0xbcf7786a	-0.030208785
132	0x3e370087	0.17871295
133	0xbdaf239b	-0.08551713
134	0x3e717a41	0.23581792
135	0x3d28f892	0.04125268
136	0xbddbc550	-0.10730994
137	0x3e495bcd	0.19663925
138	0x3d829f54	0.06378046
139	0xbe81f54d	-0.25382462
140	0x3d79cd44	0.060986772
141	0xbd48ed97	-0.04905471
142	0xbe5c332c	-0.21503896
143	0x3d422bb4	0.04740496
144	0xbd9f0f5e	-0.07766603
145	0xbe96a2ae	-0.2942099
146	0x3db751e9	0.0895117
147	0xbda9ee4c	-0.08297405
148	0x3d67b651	0.056570355
149	0x3e37b6e7	0.17940865
150	0x3d899679	0.067181535
151	0xbc50f097	-0.012752674
152	0xbd02caaa	-0.031931557
153	0xbe397fa1	-0.18115093
154	0xbdbd4423	-0.09241512
155	0x3e599149	0.21246828
156	0xbe827145	-0.25477043
157	0xbe5de853	-0.21670656
158	0x3dd33242	0.1031232
159	0xbd57f1e6	-0.052720927
160	0x3e930617	0.28715584
161	0x3d0ca3e1	0.034335975
162	0x3e979bde	0.29611105
163	0xba58dc20	-0.0008272547
164	0x3d4e5279	0.05037162
165	0xbe5f585b	-0.21811049
166	0xbbb90484	-0.0056462903
167	0xbb8fb111	-0.0043851216
168	0xbd2af5ee	-0.041738443
169	0x3d8b6fed	0.068084575
170	0xbe1d1970	-0.15341735
171	0xbdb0cda7	-0.08632975
172	0xbd46fd0d	-0.04858117
173	0x3d75f6c3	0.060049783
174	0xbe9c911a	-0.30579454
175	0xbe33681c	-0.17520183
176	0xbd3fc14c	-0.0468152
177	0xbdef1320	-0.1167357
178	0x3e176366	0.14784011
179	0xbe0171f7	-0.1264113
180	0x3c2bd772	0.010488378
181	0xbdb42ab5	-0.08797208
182	0x3e2442b3	0.16041069
183	0x3b8f9269	0.004381467
184	0x3e7e5426	0.24836788
185	0x3e3fa512	0.18715313
186	0x3d2bc782	0.041938312
187	0x3df63f05	0.12023739
188	0xbe6b2a51	-0.22965361
189	0xbd37b9be	-0.044854872
190	0x3e25f3f9	0.1620635
191	0xbdb73508	-0.08945662
192	0xbdf4412b	-0.11926492
193	0xbf05e46a	-0.5230166
194	0x3eba3d9a	0.36375123
195	0x3d311822	0.043235905
196	0xbd7e2606	-0.06204798
197	0x3ef44286	0.47707003
198	0xbbef71e0	-0.007307276
199	0xbe9aa866	-0.30206603
200	0x3f330b50	0.69939137
201	0x3c8ca639	0.017169105
202	0x3edd3949	0.43207768
203	0x3e63b6e8	0.22237742
204	0xbee21802	-0.44158942
205	0xbd88717b	-0.0666227
206	0xbcef5f15	-0.029220143
207	0x3d9f76e5	0.07786349
208	0xbe489b60	-0.19590521
209	0xbe31f8f1	-0.1738012
210	0xbd395e09	-0.045255695
211	0xbd14ee60	-0.036360145
212	0xbed44b3e	-0.41463655
213	0xbe85be11	-0.26121572
214	0xbeb87ec9	-0.3603423
215	0xbf283762	-0.6570951
216	0x3eba94c0	0.36441612
217	0xbdcb31c1	-0.09921599
218	0xbd244144	-0.040101305
219	0xbeed8a22	-0.4639445
220	0xbe3e0586	-0.18556795
221	0x3f1426bc	0.57871604
222	0x3da9f632	0.08298911
223	0xbea9cbc0	-0.3316326
224	0x3db466c3	0.08808663
225	0xbc8c6bfb	-0.017141333
226	0xbcc2694f	-0.023731856
227	0x3da9e0d9	0.082948394
228	0xbf0039c3	-0.5008814
229	0xbd74cf01	-0.059767727
230	0xbdc5600b	-0.09637459
231	0xbacec959	-0.0015776559
232	0x3e284b48	0.16434968
233	0xbf368e2d	-0.71310693
234	0xbef717dd	-0.48260394
235	0x3e14877a	0.14504805
236	0x3e83afff	0.25720212
237	0xbecddfae	-0.40209717
238	0xbe297078	-0.1654681
239	0xbd74f126	-0.05980029
240	0x3e46a654	0.19399387
241	0xbe0d3b98	-0.13792264
242	0xbe493f0e	-0.1965296
243	0xbb2cb413	-0.002635245
244	0xbe2fb2ba	-0.17158023
245	0xbe9298b0	-0.28632116
246	0xbea3d8d1	-0.32001355
247	0xbf1fa2cb	-0.6235778
248	0xbef7987e	-0.4835853
249	0x3d9a5d38	0.07537311
250	0x3eeb2fdf	0.4593496
251	0xbe2e9590	-0.17049241
252	0xbe2491db	-0.16071264
253	0x3dc70a94	0.097188145
254	0x3d4fd503	0.050740253
255	0xbc89d153	-0.016823446

network_body._body_endoder.seq_layers.2.bias f4 [64]
0	0xbdaab409	-0.0833512
1	0x3d0d0dec	0.034437105
2	0xbb2a2a6b	-0.0025965224
3	0xbb36d149	-0.002789574
4	0xbcce677a	-0.025195826
5	0x3d275990	0.040856898
6	0x3d100c19	0.035167787
7	0x3ca6a666	0.020343017
8	0x3bb91ae7	0.005648959
9	0x3d177ce0	0.036984324
10	0x3c9fe4ba	0.019518245
11	0x3c81d0a0	0.01584655
12	0xbda09caa	-0.07842381
13	0x3cfee619	0.031115578
14	0x3d932d52	0.071863785
15	0x3d3e45db	0.046453338
16	0xbcc29b04	-0.023755558
17	0xbcd6f081	-0.026237728
18	0xbbd587f7	-0.0065164524
19	0x3d401d58	0.046902984
20	0x3c732a9d	0.014841703
21	0xbd06d556	-0.032918297
22	0x3cc1005f	0.023559747
23	0x3c0f8fcb	0.00876231
24	0x3d61bd53	0.055112194
25	0xbde4608c	-0.11151227
26	0x3d923e29	0.07140762
27	0x3c4de9f7	0.012567989
28	0x3d71ff00	0.059081078
29	0xbc378845	-0.011201923
30	0x3ce8af01	0.02840376
31	0x3cce4dc8	0.025183573
32	0x3b63123f	0.0034648327
33	0x3d1fbbe9	0.038997564
34	0x3a5f50c4	0.000851881
35	0xbc9607d9	-0.018314289
36	0x3cc67e9b	0.024230292
37	0xbd05bb07	-0.032649066
38	0xbae47c57	-0.0017432076
39	0x3d823e1c	0.06359503
40	0xbc481e9f	-0.012214332
41	0xbd44ae58	-0.04801783
42	0x3d397503	0.045277607
43	0x3bd766be	0.006573527
44	0x3d0fa194	0.035066202
45	0x3c5e0857	0.013551793
46	0xbc137222	-0.008999379
47	0x3d493556	0.04912313
48	0x3d7815d2	0.060567684
49	0xbd2f428d	-0.042788077
50	0xbbabc536	-0.0052420152
51	0x3ce04ae8	0.027379468
52	0xbc449617	-0.011998675
53	0xbc853dad	-0.01626476
54	0x3d2e80c6	0.042603277
55	0xbdd5e5a9	-0.10444195
56	0xbc91a071	-0.0177767
57	0x3c795c1d	0.015219715
58	0xbba897e8	-0.0051450618
59	0x3da2e4d9	0.079538055
60	0x3d475d87	0.04867318
61	0xbc8c593c	-0.017132394
62	0xbd24b99a	-0.040216066
63	0x38d4997e	0.00010137538

action_model._continuous_distribution.log_sigma f4 [1, 2]
0	0xbfb9d79c	-1.4518924
1	0xbfc5beda	-1.5448868

action_model._continuous_distribution.mu.weight f4 [2, 64]
0	0x3de6c396	0.11267774
1	0xbd86702d	-0.065643646
2	0x3dd18c60	0.102318525
3	0x3ca9b2ea	0.020715196
4	0x3db20815	0.08692948
5	0xbc6b6126	-0.014366424
6	0xbbbc0c32	-0.0057387585
7	0xbc674016	-0.0141144
8	0xbbb30889	-0.005463664
9	0xbe024af2	-0.12723902
10	0x3b05127a	0.0020305202
11	0xbd3cafbb	-0.046066027
12	0x3d9b7a69	0.07591707
13	0xbda03e58	-0.07824391
14	0xbe2b4ab8	-0.16727722
15	0xbdde43a6	-0.10852747
16	0x3afe32f1	0.0019393844
17	0x3c3584ff	0.011079072
18	0xbc8d182f	-0.017223446
19	0x3d30da24	0.043176785
20	0x3d8c1f93	0.0684196
21	0x3d333323	0.04374994
22	0x3dca9ca4	0.09893158
23	0xbd8620dc	-0.06549236
24	0xbe06539d	-0.13117833
25	0x3dcb4ebf	0.09927129
26	0xbe0086a6	-0.12551364
27	0xbc9c26a3	-0.019061392
28	0xbde96cb4	-0.113976866
29	0x3d28d093	0.041214537
30	0x3d0427a2	0.03226436
31	0x3dc9927c	0.09842393
32	0x3d909e0e	0.070613965
33	0x3ce0b40a	0.0274296
34	0x3cbb0c29	0.022832947
35	0x3e0b816b	0.13623588
36	0x3caf1b26	0.02137525
37	0x3d5fff92	0.05468709
38	0x3d540007	0.05175784
39	0xbde6d869	-0.11271746
40	0x3c5a8ee0	0.013339728
41	0x3dc93ada	0.09825678
42	0xbdaa9a03	-0.08330157
43	0x3d3c9d41	0.046048407
44	0xbdd20bd5	-0.10256163
45	0xbd14ab48	-0.03629616
46	0x3dd28120	0.10278535
47	0xbdfe7add	-0.12425778
48	0xbdd8e92b	-0.10591348
49	0xbb4113f4	-0.0029461356
50	0x3e25dcbe	0.16197488
51	0xbd149ec2	-0.036284216
52	0x3e110376	0.14161476
53	0xbae83092	-0.001771467
54	0x3dcd77ea	0.100326374
55	0x3dd2e9af	0.10298478
56	0xbbcca69f	-0.0062454487
57	0x3b06ed31	0.0020588154
58	0x3e3c377f	0.18380545
59	0xbe2a6f9b	-0.16644137
60	0xbdb12fe6	-0.08651714
61	0x3e20a8a1	0.15689327
62	0x3dd04743	0.10169842
63	0x3bf7fa94	0.007567713
64	0x3cfa1a19	0.030530022
65	0xbd21f769	-0.03954259
66	0x3d682c84	0.05668308
67	0xbdefcd96	-0.11709134
68	0xbd35af04	-0.04435636
69	0xbe40b824	-0.18820244
70	0x3e105f45	0.14098842
71	0xbd4ac47e	-0.049503796
72	0xbd5fd8d2	-0.054650135
73	0x3d069e8a	0.03286604
74	0x3e0ccdf0	0.13750434
75	0x3d3c6abf	0.04600024
76	0xbc3e97a1	-0.011632831
77	0x3e15016d	0.14551325
78	0x3d82a375	0.06378833
79	0x3c14af3f	0.009074985
80	0x3b47fe5e	0.0030516605
81	0x3d59d617	0.053182688
82	0x3b8dfa8d	0.0043328465
83	0xbe56698b	-0.20938699
84	0xbd1639fb	-0.03667639
85	0x3da56297	0.08075445
86	0x3d4eef76	0.050521336
87	0x3dfd6215	0.12372223
88	0x3cfeeef9	0.03111981
89	0x3d848801	0.06471253
90	0xbd22f0fb	-0.039780598
91	0xbd2b7d07	-0.041867282
92	0xbd039eee	-0.03213399
93	0x3d28401d	0.04107677
94	0x3db49b89	0.088187285
95	0xbdffd66a	-0.12492068
96	0x3b9993af	0.0046867947
97	0xbe52d148	-0.20587647
98	0x3cd84a76	0.026402693
99	0x3d8c5464	0.06852034
100	0xbe0d1677	-0.13778101
101	0xbd35159e	-0.04421007
102	0xbda555ee	-0.080730304
103	0x3d0de953	0.034646343
104	0xbd2441e5	-0.040101904
105	0x3d38ac19	0.045086
106	0x3d204f06	0.039137863
107	0x3ca46e32	0.020072076
108	0x3dbd9131	0.09256209
109	0x3e219acd	0.15781708
110	0xbe10c42f	-0.14137338
111	0xbc85de15	-0.016341249
112	0xbcf107cc	-0.029422663
113	0x3c48cb2d	0.012255472
114	0x3d5eefb9	0.054427836
115	0xbd5aae1f	-0.05338871
116	0x3d58ef9b	0.05296288
117	0x3b47f6ff	0.0030512211
118	0xbe1d61f6	-0.153694
119	0x3d5a48a7	0.053291943
120	0x3c3b348f	0.011426105
121	0xb8ce651e	-9.84168e-05
122	0x3c9b146b	0.018930634
123	0x3ce4b083	0.027916199
124	0xbd005478	-0.031330556
125	0x3dacfedb	0.08447047
126	0x3cf1d3bb	0.029519906
127	0x3e2b5e01	0.16735078

action_model._continuous_distribution.mu.bias f4 [2]
0	0xbdca23d4	-0.09870115
1	0xbd56b0ef	-0.05241483

action_model._discrete_distribution.branches.0.weight f4 [2, 64]
0	0xbe1c8213	-0.15283994
1	0x3e49ca45	0.19706066
2	0xbdc807ea	-0.097671345
3	0xbf0c189b	-0.54725045
4	0xbdd6c724	-0.10487202
5	0x3e2b0f13	0.16704969
6	0x3dd46f28	0.10372764
7	0x3e857877	0.2606847
8	0x3eccde9f	0.40013596
9	0x3da81f71	0.08209122
10	0x3e1223c4	0.14271456
11	0x3d56e7dc	0.052467212
12	0xbeead3c6	-0.45864695
13	0x3e19fddb	0.15038244
14	0x3d2ecf3f	0.042678114
15	0x3ddd6daa	0.108119324
16	0x3e91897b	0.28425202
17	0xbe01e961	-0.12686683
18	0x3d24f71b	0.04027472
19	0x3e25b5c8	0.16182625
20	0xbe97beba	-0.296377
21	0xbed85b85	-0.42257324
22	0xbe548fa1	-0.20757915
23	0x3e5f2271	0.21790482
24	0x3dc71b0e	0.09721957
25	0xbe3b4394	-0.18287498
26	0x3d9893d8	0.07450074
27	0x3e82d718	0.25554729
28	0x3dc37a81	0.0954485
29	0xbf00d86d	-0.5033024
30	0xbf1062ca	-0.5640074
31	0x3dbf820e	0.09350978
32	0x3eca86ae	0.39555877
33	0x3e625b03	0.2210503
34	0xbe738110	-0.23779702
35	0xbb18dc61	-0.0023324715
36	0x3e9e1102	0.3087235
37	0x3db922ad	0.09039817
38	0x3e0ab8c9	0.13547052
39	0x3e0c9bf6	0.1373137
40	0xbd3bead2	-0.04587824
41	0x3b1b8c5e	0.0023734788
42	0x3e13fd5f	0.14452122
43	0x3d890b41	0.066916
44	0x3c785eae	0.015159292
45	0xbee2a62f	-0.44267413
46	0xbe8fda19	-0.28096083
47	0x3daac050	0.08337462
48	0x3e111308	0.14167416
49	0xbcd6bc87	-0.026212944
50	0x3e3d9dce	0.18517229
51	0x3e939649	0.28825596
52	0x3e42e257	0.19031654
53	0x3e46d4f5	0.19417174
54	0x3ef925be	0.48661608
55	0xbdf817e3	-0.12113931
56	0xbef223e9	-0.47293022
57	0x3c14a4de	0.0090725105
58	0x3e85f1ce	0.26161045
59	0x3dca322e	0.09872852
60	0x3e25a75c	0.16177124
61	0x3e532900	0.20621109
62	0xbde1dda7	-0.11028605
63	0xbd229b9c	-0.039699182
64	0x3e19fd8f	0.15038131
65	0xbe4c4afe	-0.19950482
66	0x3dd3bf4a	0.1033922
67	0x3f08063c	0.5313451
68	0x3de31d65	0.11089591
69	0xbe379df4	-0.17931348
70	0xbdb4db73	-0.08830919
71	0xbe8919a6	-0.2677738
72	0xbed6fe62	-0.41990954
73	0xbdc39ebe	-0.09551762
74	0xbe082057	-0.13293587
75	0xbdae4735	-0.085096754
76	0x3eec5ee0	0.46166134
77	0xbe2949cd	-0.16532059
78	0xbd45b7fe	-0.04827117
79	0xbdb2cc36	-0.087303564
80	0xbe8f6c78	-0.28012443
81	0x3dda034e	0.106451616
82	0xbd3d9ea2	-0.046293862
83	0xbe1d9560	-0.15389013
84	0x3e943725	0.28948322
85	0x3ed8f800	0.4237671
86	0x3e4d0846	0.20022687
87	0xbe5e44ff	-0.21706007
88	0xbdb42158	-0.08795422
89	0x3e363f65	0.1779762
90	0xbd8ad724	-0.06779316
91	0xbe6bcc3d	-0.2302713
92	0xbdbdd83f	-0.09269761
93	0x3f03971d	0.51402456
94	0x3f0d74e6	0.552565
95	0xbe143ed3	-0.1447709
96	0xbec3e854	-0.3826319
97	0xbe45e6b9	-0.19326295
98	0x3e86268f	0.26201293
99	0xbb69224c	-0.003557342
100	0xbe9bcc92	-0.30429512
101	0xbdcc3c11	-0.09972394
102	0xbe1633d3	-0.14668207
103	0xbe035445	-0.12825115
104	0x3d5ca2c7	0.053866174
105	0x3b66cfbe	0.003521904
106	0xbe2a8da7	-0.16655599
107	0xbdc52091	-0.09625352
108	0xbc9333f3	-0.017969107
109	0x3ee546c8	0.44780564
110	0x3e84a309	0.25905636
111	0xbdc860c0	-0.097840786
112	0xbe057473	-0.13032703
113	0x3d0c42c7	0.03424337
114	0xbe47fee3	-0.19530825
115	0xbe869d69	-0.2629197
116	0xbe592484	-0.21205336
117	0xbe37d574	-0.1795252
118	0xbf0238b8	-0.50867796
119	0x3df3a2d9	0.11896295
120	0x3ef5ba67	0.47993776
121	0xbc8197c9	-0.015819447
122	0xbe85fb18	-0.26168132
123	0xbdcf95ee	-0.10136019
124	0xbe156bee	-0.14591953
125	0xbe491bc8	-0.19639504
126	0x3df92e62	0.1216705
127	0x3d6b5123	0.057450425

action_model._discrete_distribution.branches.0.bias f4 [2]
0	0x3e0242ba	0.12720767
1	0xbe0241c6	-0.12720403
