Assets/ML-Models/AirCollector.onnx (onnx, 384268 bytes, 11 tensors)

discrete_act_size_vector f4 [1, 3]
0	0x40400000	3.0
1	0x40400000	3.0
2	0x40000000	2.0

network_body._body_endoder.seq_layers.0.weight f4 [256, 104]
0	0x3ec05809	0.37567165
1	0x3df433d8	0.11923951
2	0xbc24f331	-0.010067747
3	0x3d9ab11d	0.07553313
4	0x3dec60ba	0.11541887
5	0xbc8f11f4	-0.017464615
6	0xbe3b4810	-0.18289208
7	0x3e445a5f	0.19175099
8	0x3e0350c2	0.12823775
9	0x3d6dac92	0.058025904
10	0xbd37abe9	-0.04484168
11	0xbd7c3d89	-0.061582122
12	0x3e3945d3	0.18093042
13	0x3cc8f493	0.024530685
14	0x3ca0270b	0.019549867
15	0xbe918928	-0.28424954
16	0x3ea5e1a7	0.32398722
17	0x3dacac10	0.08431256
18	0xbde24428	-0.11048156
19	0x3dfb69da	0.12276049
20	0xbc91c867	-0.017795755
21	0xbea08e21	-0.31358436
22	0x3d93e503	0.07221415
23	0x3d21dccc	0.03951721
24	0x3e2f86f6	0.17141327
25	0x3ca7cbd3	0.020482933
26	0xbd67305f	-0.056442615
27	0xbe99520a	-0.29945403
28	0xbd8c901e	-0.06863426
29	0xbd60e090	-0.05490166
30	0xbb98ec29	-0.0046668244
31	0x3cfa2e32	0.030539606
32	0x3e62be10	0.22142816
33	0xbde20ba6	-0.11037378
34	0x3dbdf72d	0.09275661
35	0xbe3cfecd	-0.18456574
36	0xbe8310a5	-0.25598636
37	0xbd49518d	-0.04915004
38	0xbdf148a7	-0.117814355
39	0x3d2cb63a	0.042165972
40	0xbcfc299f	-0.030781565
41	0xbc5a1194	-0.013309855
42	0x3e35c357	0.17750297
43	0xbd7ffa35	-0.062494475
44	0xbe1005ea	-0.14064756
45	0xbe363ae6	-0.17795905
46	0xbcb5e280	-0.02220273
47	0x3c408bdc	0.011752095
48	0x3e9b6cdd	0.30356494
49	0xbd0fd93e	-0.035119288
50	0x3bc686e2	0.0060585598
51	0xbc608ae1	-0.013704986
52	0x3e9d934c	0.3077644
53	0xbda94b14	-0.08266273
54	0xbe3ba119	-0.18323173
55	0x3d946746	0.0724626
56	0xbcfd80f4	-0.030945279
57	0xbd96790f	-0.07347309
58	0xbe0a485f	-0.1350417
59	0x3e48978c	0.1958906
60	0x3e49c980	0.19705772
61	0xbe3e2c47	-0.18571578
62	0x3d06eb92	0.0329395
63	0x3c99a685	0.01875616
64	0xbd062e75	-0.03275915
65	0xbe01ce60	-0.12676382
66	0xbc06a915	-0.008219023
67	0x3e2408d5	0.16018994
68	0x3d8d895e	0.06910966
69	0xbc823dce	-0.015898611
70	0xbce38cc9	-0.027777093
71	0xbddc5c44	-0.10759786
72	0x3da45193	0.080233715
73	0x3d91619b	0.07098695
74	0xbca1df65	-0.019759843
75	0x3d33d5e1	0.043905143
76	0x3e566307	0.20936213
77	0x3c92b068	0.017906383
78	0x3d236f43	0.03990103
79	0xbccc42a2	-0.024934117
80	0xbd85cc0b	-0.06533059
81	0xbe6cff44	-0.23144251
82	0xbe312f68	-0.1730324
83	0x3e91d1b0	0.2848029
84	0x3df9a216	0.121891186
85	0xbcc703a3	-0.024293726
86	0xbe1f63d4	-0.15565425
87	0x3daf5fac	0.0856317
88	0xbde8a641	-0.113598354
89	0xbd94ba99	-0.07262153
90	0xbdf61e0e	-0.12017451
91	0xbda6a418	-0.08136767
92	0xbe5bea03	-0.21475987
93	0xbd30d0f3	-0.04316802
94	0x3e0c18ae	0.1368129
95	0xbd181da5	-0.037137646
96	0xbe6a40bd	-0.22876258
97	0xbe196d9b	-0.14983217
98	0x3d924a02	0.07143022
99	0x3e706a3b	0.23478024
100	0x3de0b9bf	0.10972928
101	0xbe1435ec	-0.14473695
102	0xbd42501f	-0.04743969
103	0xbd291d82	-0.041287906
104	0x3e17bbcd	0.14817734
105	0xbcb072c8	-0.021539107
106	0x3d920bd9	0.07131166
107	0x3d2aef2b	0.041731995
108	0x3e9c4a32	0.30525357
109	0xbdf0d0f9	-0.11758608
110	0xbdb5a4c2	-0.08869316
111	0xbdb8621d	-0.090030886
112	0xbc7be4bc	-0.015374359
113	0x3bbca7d9	0.0057573137
114	0x3dd3f80c	0.103500456
115	0x3e19e04b	0.15026967
116	0x3de4d92b	0.11174234
117	0xbd839580	-0.06424999
118	0x3d10d7d5	0.035362083
119	0x3db6e5de	0.089305624
120	0x3e5a46ac	0.21316022
121	0xbe18b12e	-0.14911339
122	0x3d8b7b4b	0.06810626
123	0xbd6143f7	-0.054996457
124	0xbd6dda19	-0.058069322
125	0xbcd598d9	-0.02607386
126	0x3d7cb828	0.061699063
127	0x3dfab472	0.122414485
128	0x3eb56e36	0.35435647
129	0xbe228cb5	-0.15873988
130	0x3d5f76d9	0.0545567
131	0xbdb91477	-0.090371065
132	0xbcb19bd3	-0.021680748
133	0xbe2bcc41	-0.16777135
134	0xbd42bb4e	-0.04754191
135	0x3c6ccb60	0.014452785
136	0xbe498643	-0.19680123
137	0xbd8cb1a8	-0.06869823
138	0x3d1abe8b	0.037779372
139	0x3d0d9fd8	0.034576267
140	0xbdd9af3c	-0.106291264
141	0xbe7f6653	-0.24941377
142	0x3d17db4b	0.03707437
143	0x3d3fabfc	0.046794876
144	0x3e3e65a1	0.18593456
145	0x3e817acf	0.25289008
146	0x3db50728	0.088392556
147	0x3d1ef76a	0.03881017
148	0xbdc80318	-0.09766215
149	0xbe4c420e	-0.19947073
150	0x3e6c652a	0.23085466
151	0xbbebab3a	-0.0071920427
152	0xbd7f08e5	-0.06226434
153	0xbe425a68	-0.189798
154	0x3e0cdfdf	0.13757275
155	0x3ddd4620	0.10804391
156	0x3dbcd785	0.092207946
157	0x3dc93b23	0.098257326
158	0xbd3c4d70	-0.045972288
159	0x3d905f2b	0.07049402
160	0x3e212ad3	0.15738992
161	0x3e3c18a0	0.18368769
162	0xbe16310a	-0.14667144
163	0x3df8eb37	0.12154239
164	0xbd81326b	-0.063084446
165	0xbe23a2ab	-0.15980022
166	0xbe04e9bd	-0.12979789
167	0xbc41c5d4	-0.011826951
168	0xbd4a4e4e	-0.049391083
169	0xbc2af6b8	-0.010434799
170	0xbe46d49d	-0.19417043
171	0xbdc2a677	-0.09504407
172	0x3c30604e	0.010765148
173	0x3ba4d705	0.005030515
174	0x3d99960a	0.07499321
175	0xbdba78a6	-0.09105043
176	0x3e122bc0	0.14274502
177	0xbd3c4c15	-0.045970995
178	0xbe2f11bf	-0.17096613
179	0x3c260914	0.010134
180	0xbe56383d	-0.2091989
181	0xbd39f335	-0.045397956
182	0x3cebd495	0.02878789
183	0xbcaee49e	-0.021349248
184	0xbd579c11	-0.05263907
185	0xbdb26c1e	-0.08712028
186	0x3d81c8bb	0.063371144
187	0x3dcf71e9	0.101291485
188	0x3e5376b4	0.2065075
189	0x3d9f1dee	0.077693805
190	0x3dc8d45d	0.0980613
191	0x3d194f20	0.037428975
192	0x3c6a7a91	0.014311449
193	0xbcbfc348	-0.023408547
194	0x3cc0918f	0.023506908
195	0xbb568507	-0.00327331
196	0x3eb243fe	0.348175
197	0xbda1b813	-0.078964375
198	0xbd2f55cd	-0.042806435
199	0x3c1ea142	0.009682002
200	0x3c6a3f45	0.014297311
201	0xbdb21705	-0.08695797
202	0xbdd02709	-0.10163695
203	0xbd1176c3	-0.03551365
204	0x3e10ebf0	0.14152503
205	0x3e294cd4	0.16533214
206	0x3c8a7584	0.016901739
207	0xbcf3813b	-0.029724708
208	0xbe1a27fe	-0.15054318
209	0xbe42306a	-0.18963781
210	0x3deba3cf	0.115058534
211	0x3d3c44ce	0.045964055
212	0x3e4ef202	0.20209506
213	0xbdc87367	-0.09787636
214	0x3d45bf86	0.048278354
215	0x3ce682ec	0.0281386
216	0xbdb8ea1b	-0.09029027
217	0x3debd61a	0.11515446
218	0xbd40ff86	-0.047118686
219	0x3e330756	0.17483267
220	0xbe191e1e	-0.14952895
221	0xbe547cb0	-0.2075069
222	0x3e3618cb	0.17782895
223	0x3da67919	0.08128566
224	0xbe3026a7	-0.17202245
225	0xbcab5b5f	-0.020917593
226	0x3e0960d3	0.13415842
227	0x3d4343d9	0.047672126
228	0xbda86cd6	-0.08223884
229	0xbe2e6e4a	-0.1703426
230	0x3dd01487	0.10160165
231	0x3d23498d	0.039865065
232	0x3ce59cb6	0.028028827
233	0xbda4bde8	-0.08044034
234	0x3dd74b9a	0.10512467
235	0x3d2a9ddb	0.04165445
236	0xbe96c9d8	-0.2945087
237	0xbcb61f5b	-0.022231748
238	0xbdc07786	-0.09397797
239	0x3cc2142c	0.02369126
240	0xbec43743	-0.3832341
241	0xbe681343	-0.22663598
242	0xbd0ed4e3	-0.034870993
243	0x3e06cc35	0.13163836
244	0xbd33d78a	-0.043906726
245	0x3e4bde82	0.19909099
246	0xbe27e95c	-0.16397613
247	0xbebc25f9	-0.3674772
248	0xbe8b0ecc	-0.27159727
249	0x3cd6c3bf	0.026216386
250	0x3c822b5d	0.015889818
251	0x3e58bca4	0.2116571
252	0x3ea52ad6	0.32259244
253	0x3e42ec89	0.19035544
254	0x3d4ac728	0.049506336
255	0x3e2789d0	0.16361165

network_body._body_endoder.seq_layers.0.bias f4 [256]
0	0x3ca44702	0.02005339
1	0xbc61536a	-0.013752798
2	0x3c538990	0.012911215
3	0x3d24a324	0.040194646
4	0xbc39ccd4	-0.011340339
5	0xbb81437a	-0.0039448114
6	0xbc9672f1	-0.018365355
7	0xbc0788c4	-0.008272354
8	0xbc86c584	-0.016451605
9	0x3c765c06	0.015036589
10	0x3c973ce2	0.018461648
11	0x3bd6a876	0.006550844
12	0x3a5e19f6	0.00084724964
13	0xbce399f3	-0.02778337
14	0x3c8a8011	0.01690677
15	0xbc5523c9	-0.01300902
16	0x3c962b45	0.01833118
17	0xbb0d320e	-0.0021544727
18	0x3c7354f7	0.0148518
19	0x3af8c4bb	0.0018979529
20	0xbbd63d92	-0.0065381015
21	0xbb80ed81	-0.0039345627
22	0xbcf74ebe	-0.030188914
23	0xbc0353ad	-0.008015555
24	0xbc6fb84f	-0.014631345
25	0xbcb87e47	-0.022521151
26	0xbd95cd81	-0.073145874
27	0xbcea2d8d	-0.028586173
28	0xbd14020c	-0.036134765
29	0x3b81eb32	0.003964805
30	0x3c1b23a9	0.009468951
31	0xbd41b461	-0.047291163
32	0xbc5d14dd	-0.013493744
33	0x3d4c4e2b	0.049879234
34	0xbc85627e	-0.016282316
35	0x3b082e06	0.0020779385
36	0xbc2ba145	-0.010475461
37	0x3c947914	0.01812414
38	0xbcdeebfc	-0.027212135
39	0x3c1a3e3a	0.00941425
40	0x3d18f6fa	0.03734491
41	0x3cb7263c	0.022357099
42	0xb956e757	-0.00020494811
43	0x3d1393d9	0.03602967
44	0x3c0f772c	0.00875644
45	0xbd10bb60	-0.035334945
46	0x3b25c645	0.002529518
47	0x3cddeb95	0.027089873
48	0xbc5042f8	-0.012711279
49	0x3c901ff1	0.017593356
50	0x3d08ac26	0.0333673
51	0xba5750e3	-0.0008213652
52	0x3c95721b	0.018242886
53	0xbc0a6804	-0.008447651
54	0x3cb6d244	0.02231706
55	0x3b681aaf	0.0035416295
56	0x3cecfe1e	0.028929766
57	0x3cad79f7	0.021176321
58	0xbc1fc0b7	-0.009750537
59	0x3cbda3bf	0.02314937
60	0x3b045f3a	0.002019836
61	0x3a0ee44f	0.0005450891
62	0x3c2df677	0.010617844
63	0x3c77612b	0.01509885
64	0x3c416803	0.0118045835
65	0x3d078907	0.033089664
66	0x3b10bce2	0.002208524
67	0x3c98a0ed	0.018631423
68	0x3cd37556	0.025812786
69	0xbb1ef4b7	-0.0024254748
70	0xbb9a2fa5	-0.0047053867
71	0xbca00086	-0.0195315
72	0xbc726c69	-0.014796355
73	0xbb423ce0	-0.0029638335
74	0x3c61eeb4	0.013789821
75	0x3c34b420	0.011029273
76	0xbc19c839	-0.009386116
77	0x3d1ba322	0.037997372
78	0x3cd10c1c	0.02551847
79	0x3b559427	0.0032589526
80	0x3c755efa	0.014976257
81	0xbb4960a5	-0.003072777
82	0x3b40d177	0.0029421726
83	0x3be911f8	0.0071127377
84	0x3c8f7cf6	0.01751564
85	0x3c5c23a9	0.013436236
86	0xbb47741d	-0.00304342
87	0x3c3b05e6	0.0114149805
88	0x3d4f5f5d	0.050628055
89	0xbc06b65c	-0.008222189
90	0xbbd1eecf	-0.006406642
91	0x3cfa1350	0.030526787
92	0xbb300dc2	-0.002686367
93	0xbc58251f	-0.013192444
94	0xbc13cd2e	-0.009021087
95	0x3cd1609a	0.025558759
96	0xbb1720c3	-0.00230603
97	0x3d00c375	0.031436402
98	0x3bbabdb1	0.0056988825
99	0x3c20e3a8	0.0098199025
100	0xba02a5dc	-0.00049838214
101	0xbca45bc0	-0.020063281
102	0x3d2f203f	0.04275536
103	0xbc27e9d8	-0.010248624
104	0xbbc07076	-0.0058727814
105	0x3c62ca2a	0.013842145
106	0x3d041d33	0.03225441
107	0xbc90a604	-0.017657287
108	0xbc429142	-0.0118754525
109	0x3cc821b2	0.02443013
110	0x3c062403	0.008187297
111	0x3bdf156c	0.0068079736
112	0x3c865b88	0.016401067
113	0xbc25997f	-0.010107397
114	0x3c629a68	0.013830759
115	0x3c1bb72f	0.009504124
116	0x3c2e71d8	0.01064726
117	0xbc15d22b	-0.009144346
118	0xbb64f13b	-0.0034933824
119	0x3bd0e059	0.0063744006
120	0x3cc8e89d	0.024524981
121	0xbb511544	-0.0031903544
122	0x3cdafa0d	0.026730562
123	0x3b389646	0.0028165742
124	0xbc5c0d4a	-0.013430903
125	0x3c8417c9	0.016124623
126	0x3d5f64e6	0.054539584
127	0xbc10fe50	-0.008849695
128	0x3be0b306	0.0068572788
129	0x3cf99e5d	0.030471021
130	0x3d10ffbe	0.035400145
131	0x3c0e2864	0.008676622
132	0xbc7d4ec6	-0.015460676
133	0x3bba6cf3	0.0056892573
134	0x3d328bf9	0.04359052
135	0xbce77beb	-0.02825733
136	0x3c8c463a	0.01712333
137	0x3c10850e	0.008820785
138	0x3cb785b3	0.02240262
139	0xbb3d2063	-0.0028858415
140	0x3be80dae	0.007081709
141	0xbc68a210	-0.014198795
142	0x3a6d28c0	0.0009046905
143	0xbd8b3b35	-0.06798402
144	0xbcf3ecdf	-0.029776035
145	0xbbaa857a	-0.0052039
146	0x3d1c3929	0.03814045
147	0xbc886387	-0.01664902
148	0xbcc6a50b	-0.02424862
149	0x3c94e02e	0.018173303
150	0xbccc7758	-0.024959251
151	0xbbb7529f	-0.005594566
152	0x3ce3603e	0.027755853
153	0xba9b1142	-0.0011830705
154	0x3cce82fd	0.025208944
155	0x3c7d7180	0.015468955
156	0x3c9060c7	0.017624272
157	0xbce01deb	-0.027358016
158	0x3c8c5d68	0.017134383
159	0xbca4b659	-0.020106481
160	0x3c4bbeed	0.012435657
161	0x3cf8e99f	0.030384837
162	0x3c9e12b6	0.019296031
163	0xbba720d8	-0.005100351
164	0x3cd4a6bb	0.02595841
165	0xbc27149c	-0.010197785
166	0xbd7f51ed	-0.06233399
167	0xbd3735a9	-0.04472891
168	0xbcaff8c3	-0.021480924
169	0x3c06fca8	0.008238949
170	0x3d0486b5	0.03235503
171	0x3ced9116	0.028999846
172	0x3d0b0ef0	0.033949792
173	0x3c8b66f7	0.01701687
174	0x3bccee4d	0.0062539936
175	0x3bf88676	0.0075843884
176	0xbb12d6f8	-0.0022405963
177	0xbc9bcac6	-0.019017588
178	0x3b42f5d7	0.0029748583
179	0x3c382975	0.011240353
180	0x3b8a1302	0.0042136917
181	0xbbdb1321	-0.00668563
182	0x3c97d355	0.018533388
183	0xbc9619a4	-0.018322773
184	0xbb836656	-0.004010002
185	0x3c3f57a2	0.011678608
186	0x3cf53b12	0.029935393
187	0xbb9188f2	-0.004441374
188	0x3c4cb665	0.012494658
189	0x3cdadf1b	0.026717713
190	0x3cb40036	0.021972757
191	0x3cdfb3d0	0.027307421
192	0xbd039b1c	-0.032130346
193	0x3bf053fe	0.0073342314
194	0xbc61bf64	-0.013778541
195	0x3cad81b7	0.021180017
196	0x3d348495	0.044071753
197	0xbc34bca4	-0.011031304
198	0x3c316296	0.010826727
199	0xbb0bf685	-0.0021356654
200	0xbd2f4f63	-0.04280032
201	0x3d0fa383	0.035068046
202	0xbb4ad6c0	-0.0030950755
203	0xbb025273	-0.001988557
204	0x3ab18b78	0.0013545593
205	0xb95211ff	-0.00020033865
206	0x3c4dfbf7	0.01257228
207	0xbdbda07e	-0.09259127
208	0x3d033d33	0.032040786
209	0x3d13d9a3	0.036096226
210	0x3c3086b1	0.0107743
211	0x3cc5440b	0.024080297
212	0xba603652	-0.0008553016
213	0x3d39d9e9	0.04537383
214	0x3c5bc227	0.013412989
215	0x3ba40f3b	0.0050066984
216	0x3be28819	0.0069131968
217	0x3c14ed7a	0.009089822
218	0x3c9b29c6	0.018940818
219	0x3b966eb3	0.004590833
220	0x3bb287c6	0.0054483144
221	0x3c5befb3	0.013423848
222	0x3c7bcc39	0.015368515
223	0x3d101487	0.035175826
224	0xbaf2d65a	-0.0018527017
225	0xbc868ca5	-0.016424486
226	0x3bd299cf	0.006427027
227	0xbcf461e9	-0.029831843
228	0xb9fdfd5a	-0.00048444682
229	0x3c27a826	0.010232961
230	0x3c505286	0.012714988
231	0x3d12eb2b	0.035868805
232	0xbd230b4b	-0.03980569
233	0x3bcb0963	0.0061961873
234	0xbc1e154f	-0.009648635
235	0x3c2dd609	0.010610112
236	0xbc61a55e	-0.013772337
237	0xbb28beb8	-0.0025748443
238	0x3c96c25b	0.018403223
239	0xbc8603ca	-0.016359229
240	0x3d1fcba5	0.03901257
241	0xbc8ca9f4	-0.017170884
242	0x3c93ebc8	0.018056765
243	0xbc977376	-0.018487673
244	0x3b467ae5	0.0030285653
245	0x3c5de03c	0.013542231
246	0x3b8e9001	0.0043506627
247	0x3bf96785	0.0076112174
248	0x3bb10039	0.005401638
249	0x3c718823	0.01474193
250	0xbcfb371e	-0.03066593
251	0xbb550dd0	-0.0032509454
252	0x39c6f6bb	0.0003794933
253	0xbca7f2a7	-0.020501448
254	0x3d024556	0.031804405
255	0xbd7ba2be	-0.0614345

network_body._body_endoder.seq_layers.2.weight f4 [256, 256]
0	0x3d91f113	0.071260594
1	0xbd9e5009	-0.07730109
2	0x3daa6e37	0.08321803
3	0x3d7824d5	0.060582
4	0x3de7b1e9	0.113132305
5	0xbbdfef05	-0.0068339133
6	0x3dde4afa	0.108541444
7	0x3b4433e3	0.0029938153
8	0xbd7785ce	-0.06043034
9	0xbda2c74a	-0.079481676
10	0xbe822378	-0.25417686
11	0xbe1e8305	-0.15479667
12	0xbd8a54fa	-0.06754489
13	0x3db583d3	0.08863034
14	0x3e5dfbca	0.21678081
15	0x3d413989	0.04717401
16	0xbc3af7af	-0.011411591
17	0x3d48b2e3	0.048998725
18	0x3cee7004	0.029106148
19	0xbc162921	-0.009165079
20	0x3df4f1ce	0.11960183
21	0x3cf5af13	0.029990708
22	0xbe2713df	-0.16316174
23	0xbd56d059	-0.05244479
24	0x39897c46	0.00026223267
25	0x3db15926	0.08659582
26	0xbd916394	-0.07099071
27	0x3e1e5a6f	0.15464185
28	0x3e0c2929	0.13687576
29	0xbddc2210	-0.107486844
30	0xbd888788	-0.066664755
31	0x3db977d3	0.09056058
32	0xbdceeaad	-0.101033546
33	0xbe7583d0	-0.23976064
34	0x3cb462fd	0.022019858
35	0x3e00f76a	0.12594381
36	0xbd81a9fb	-0.06331249
37	0xbd85adeb	-0.06527313
38	0xbdfc4cb4	-0.123193175
39	0x3c2f5d35	0.010703375
40	0xbd04de51	-0.03243858
41	0xbe678d29	-0.22612442
42	0xbe20e268	-0.15711367
43	0xbc4c1555	-0.012456258
44	0x3e207b01	0.15671922
45	0x3da83aac	0.08214316
46	0xbe08322a	-0.13300386
47	0xbdf4cce4	-0.11953142
48	0x3e0b5fb7	0.13610731
49	0x3aab656b	0.001307649
50	0xbc0a792e	-0.008451743
51	0xbda7985f	-0.08183359
52	0xbd083642	-0.03325487
53	0x3e51cd5f	0.20488499
54	0x3d523af1	0.051325742
55	0xbe12197c	-0.14267534
56	0xbd966bd5	-0.07344786
57	0x3d16d16f	0.036820825
58	0xbdc65962	-0.09685017
59	0x3e194538	0.14967811
60	0x3c36c9ec	0.01115654
61	0x3c5f4011	0.013626114
62	0xbcd0436f	-0.02542278
63	0x3d345199	0.04402313
64	0x3e1a2132	0.15051726
65	0xbe2cf08c	-0.16888636
66	0x3db7c07b	0.089722596
67	0xbd39f91e	-0.045403592
68	0x3d94d935	0.072679915
69	0xbde8064e	-0.113293275
70	0x3bcae064	0.0061913
71	0x3ddf0e2a	0.108913735
72	0x3d8a7f25	0.06762532
73	0x3dc93a9f	0.09825634
74	0xbe1ba6a6	-0.1520029
75	0x3d8b5608	0.068035185
76	0x3dbad9f2	0.09123601
77	0xbdce6737	-0.100782804
78	0xbd3bc3fd	-0.045841206
79	0xbcc445fc	-0.023959152
80	0x3d7ee19f	0.062226888
81	0x3c956b19	0.018239545
82	0xbd2b6f2d	-0.041854072
83	0x3dc84e18	0.0978052
84	0xbdf429af	-0.11922013
85	0x3df0851c	0.117441386
86	0xb9f5156d	-0.00046746005
87	0xbcc981cb	-0.024598023
88	0x3d536745	0.051612157
89	0x3c32572c	0.010885041
90	0x3dc04d0d	0.09389696
91	0xbda0ddc1	-0.07854796
92	0xbc9eb3e8	-0.019372895
93	0x3e127288	0.14301503
94	0x3d724e16	0.0591565
95	0x3c3f9873	0.011694062
96	0xbd6efb73	-0.05834527
97	0x3db837ca	0.08995016
98	0x3c78f301	0.015194655
99	0xbe033261	-0.12812187
100	0x3d80ec35	0.06295053
101	0x3e178249	0.14795794
102	0x3d54871b	0.05188666
103	0x3d8143b7	0.06311744
104	0x3dc81c87	0.09771066
105	0xbd5520aa	-0.052033104
106	0x3d59f902	0.053215988
107	0x3df7347c	0.120705575
108	0x3d78a895	0.060707647
109	0xbe62c26b	-0.22144477
110	0xbcfba41e	-0.030717906
111	0xbcbdc0c8	-0.023163214
112	0xbd9aedb3	-0.07564869
113	0xbdf9eef8	-0.12203783
114	0x3e2bbe15	0.1677173
115	0x3dcb22be	0.09918736
116	0xbd98a284	-0.074528724
117	0xbdeb8c84	-0.115014106
118	0x3dda6af9	0.10664935
119	0x3e179572	0.14803103
120	0x3e871303	0.26381692
121	0x3e208683	0.15676312
122	0xbe9477a2	-0.28997523
123	0x3d6789aa	0.05652777
124	0x3d4ed69c	0.050497636
125	0x3dbc786b	0.092026554
126	0xbec4ca5b	-0.38435635
127	0xbe4d0328	-0.20020735
128	0xbcc9fa76	-0.024655562
129	0xbcb4c15f	-0.022064863
130	0x3da23390	0.07919991
131	0x3d9c7d04	0.07641032
132	0x3e19320f	0.14960502
133	0x3df6e2d8	0.12054986
134	0x3d681fb1	0.05667085
135	0xbbc60eff	-0.006044268
136	0x3e4ceefe	0.20013043
137	0x3e514446	0.204362
138	0xbeacd737	-0.33757946
139	0xbe09e235	-0.13465197
140	0x3c84a0f9	0.016190039
141	0xbdfa4405	-0.12220005
142	0x3d8b12f6	0.06790726
143	0xbcc9d9f6	-0.024640065
144	0x3d9ffa62	0.078114286
145	0x3df1dd65	0.11809806
146	0xbe1aff03	-0.15136342
147	0x3b4050bb	0.0029344994
148	0x3be6fda4	0.0070492793
149	0x3c757560	0.014981598
150	0xbe52e70c	-0.2059595
151	0xbd047b9a	-0.032344438
152	0x3db35d60	0.08758044
153	0xbdca5b0d	-0.09880648
154	0x3d9fa829	0.07795746
155	0xbdab4a5e	-0.08363794
156	0x3d366419	0.044529054
157	0x3d9c31b6	0.07626669
158	0xbaffdab3	-0.0019520134
159	0x3d6f08c7	0.05835798
160	0x3eb33582	0.3500176
161	0x3dfd0407	0.12354284
162	0xbe06076f	-0.13088773
163	0xbe25de17	-0.16198002
164	0xbe42722d	-0.18988867
165	0xbd222e89	-0.03959516
166	0xbd110105	-0.035401363
167	0xbd989464	-0.07450178
168	0x3e52d84c	0.20590323
169	0xbd877d67	-0.066157155
170	0xbb89d5b4	-0.0042063836
171	0x3d329b5b	0.04360519
172	0xbe1f8691	-0.15578677
173	0xbd01d4ff	-0.03169727
174	0xbd8bfc8f	-0.06835281
175	0x3dc24c24	0.09487179
176	0xba6b2130	-0.0008969484
177	0xbc4aa3da	-0.012368167
178	0xbe17bb8f	-0.14817642
179	0x3d84fbc3	0.06493332
180	0x3d69be15	0.057066042
181	0x3e18316a	0.148626
182	0x3ccc42b7	0.024934156
183	0xbd861d21	-0.06548525
184	0xbca3d8f2	-0.020000909
185	0xbc2102a1	-0.009827287
186	0x3c245044	0.010028902
187	0xbce162e7	-0.02751298
188	0xbe72ab72	-0.23698214
189	0xbdf193cf	-0.117957704
190	0xbd9f1b9d	-0.07768939
191	0xbb865031	-0.004098915
192	0x3d8c85cb	0.068614565
193	0x3dd2bf69	0.10290415
194	0xbd8ba1e9	-0.06817991
195	0xbe2472d4	-0.16059428
196	0x3d75804e	0.059936814
197	0xbd9ea54a	-0.0774637
198	0xbda9dec5	-0.08294443
199	0x3d37dad8	0.04488644
200	0x3e0aae6a	0.13543096
201	0x3cbb8dc1	0.022894742
202	0xbcf749cb	-0.030186554
203	0x3da27b03	0.07933619
204	0x3ddce885	0.10786537
205	0xbc527b0b	-0.012846719
206	0x3e0c4b24	0.13700539
207	0x3d246b21	0.04014123
208	0x3dcac21b	0.09900304
209	0xbd02268e	-0.03177505
210	0x3d3a2a68	0.045450598
211	0x3e0bb206	0.1364213
212	0xbbe47d86	-0.0069729714
213	0xbe6f2b1e	-0.23356292
214	0x3d230884	0.039803043
215	0xbe573121	-0.21014835
216	0xbccd455f	-0.025057493
217	0xbdfc09c8	-0.12306553
218	0x3d536a98	0.051615328
219	0xbd313481	-0.043262962
220	0xbe428747	-0.18996917
221	0xbe6cfb14	-0.23142654
222	0x3d7ca808	0.061683685
223	0xbe1856c9	-0.14876856
224	0xbd011ced	-0.031521726
225	0x3d8f76be	0.0700507
226	0xbd4142e1	-0.04718292
227	0xbc2b7d7d	-0.01046693
228	0xba50cf74	-0.0007965483
229	0xb9b59a4b	-0.00034637967
230	0xbe34b39c	-0.1764664
231	0xbde4fd84	-0.11181167
232	0xbd9ad1c0	-0.07559538
233	0xbe0bd740	-0.1365633
234	0x3d8d32ef	0.068944804
235	0xbd3e981f	-0.046531793
236	0x3decc7de	0.11561559
237	0x3c90fac9	0.017697709
238	0x3a8a8e35	0.0010570945
239	0x3c507a5d	0.012724486
240	0xbe06d14c	-0.13165778
241	0xbd309e60	-0.04311979
242	0x3d8879ac	0.06663832
243	0x3e01670d	0.12636967
244	0xbdc918aa	-0.098191574
245	0x3c9ddfc6	0.019271743
246	0x3e04a7c1	0.12954618
247	0x3d319a30	0.043359935
248	0xbc5d8200	-0.013519764
249	0xbd3adc64	-0.045620337
250	0x3e1be136	0.1522263
251	0xbd83af08	-0.06429869
252	0x3ce8941b	0.028390935
253	0xbda2cd78	-0.07949346
254	0xbe0defb4	-0.1386097
255	0x3da8a30c	0.08234224

network_body._body_endoder.seq_layers.2.bias f4 [256]
0	0xbc91f075	-0.017814854
1	0xbbc73d27	-0.006080288
2	0xbc55182b	-0.01300625
3	0x3d024d6c	0.031812117
4	0x3c84d5d2	0.016215239
5	0x3b486ff5	0.003058431
6	0x3d1376c0	0.03600192
7	0xbb9e8418	-0.004837524
8	0xbc3362df	-0.010948866
9	0xbca50abb	-0.020146718
10	0x39c90cb3	0.0003834717
11	0x3cb456c3	0.022014027
12	0x3cb1fb10	0.021726161
13	0xbc82c10a	-0.015961189
14	0x3d254d6b	0.040357035
15	0xbd0ad422	-0.033893712
16	0xbd1745d1	-0.036931816
17	0xbd7bd527	-0.061482575
18	0xbc1f3537	-0.009717277
19	0x3846bf36	4.7384958e-05
20	0xbd0b05c5	-0.03394105
21	0x3b273c44	0.00255181
22	0xba89d331	-0.001051521
23	0xbc5fb9f0	-0.013655171
24	0x3d136f6e	0.03599494
25	0x3cc70602	0.024294857
26	0x3be032dc	0.0068420004
27	0x3c3428ca	0.010996053
28	0x3c9819d5	0.018567005
29	0xbac8dd1d	-0.0015324686
30	0xbbab7719	-0.0052327034
31	0xbbaf8655	-0.00535659
32	0xbc2ef382	-0.010678174
33	0x3ab756e2	0.0013987685
34	0xbcb5c9b0	-0.022190899
35	0xbc8b2de4	-0.016989656
36	0x3c73dbf6	0.014883986
37	0xbc9eca8b	-0.01938369
38	0x3c29a7ed	0.010354978
39	0xbd06d4df	-0.032917853
40	0x3d0dc4b3	0.034611415
41	0x3c3f6b4c	0.011683296
42	0xbcad844a	-0.021181244
43	0x3c1be2a7	0.009514487
44	0xbb906125	-0.004406112
45	0xbbd735c9	-0.006567691
46	0xbc45d0fa	-0.01207375
47	0x3c231e98	0.009956025
48	0xbc3f399b	-0.011671449
49	0xbca2f422	-0.019891802
50	0xbc3b83b4	-0.011444975
51	0xbcec283f	-0.028827785
52	0x3a3214e1	0.00067932723
53	0x3caaddfe	0.020857807
54	0x3c55b98d	0.013044727
55	0xbd290471	-0.041264
56	0xbcf59252	-0.029976998
57	0xbc0f42df	-0.008743971
58	0x3c781944	0.015142743
59	0xbca67851	-0.020321043
60	0x3ca765ea	0.020434339
61	0x3cf276f0	0.02959773
62	0xbcd78757	-0.026309652
63	0xbd5d3c4f	-0.054012593
64	0xbd40c7bc	-0.04706548
65	0xbcfb9667	-0.030711366
66	0x3c56f66d	0.013120276
67	0xbcd35d0c	-0.025801204
68	0xbc733529	-0.014844217
69	0x3cb26c61	0.021780195
70	0xbc264ce6	-0.01015017
71	0x3bcd14cc	0.0062585827
72	0xbd332a93	-0.043741774
73	0xbb8940fc	-0.004188655
74	0xbc77cc00	-0.015124321
75	0xbc3a2839	-0.011362129
76	0x3d55a14a	0.05215577
77	0xbb95642d	-0.004559061
78	0xbc878353	-0.016542112
79	0xbd118c52	-0.03553421
80	0x3cae9bf3	0.021314597
81	0xbd6fd6e3	-0.05855454
82	0xba039314	-0.000501917
83	0xbd0a34a9	-0.033741627
84	0x3c659a0f	0.014013781
85	0xbd089719	-0.033347223
86	0x39a15ec0	0.00030778907
87	0xbba8efe2	-0.0051555494
88	0x3c852c61	0.016256513
89	0xbca20bf5	-0.019781092
90	0xbcc819a8	-0.024426296
91	0xbce2ea61	-0.027699651
92	0x3b9623a0	0.0045818835
93	0x3d74c525	0.059758324
94	0xbc86eac2	-0.016469363
95	0xbd15c7ba	-0.036567427
96	0xbcd224d3	-0.025652325
97	0xbd15c5b1	-0.036565486
98	0x3c94880a	0.018131275
99	0x3d3a4487	0.04547551
100	0x3c3a2164	0.0113605
101	0xbc9c3fa0	-0.019073308
102	0xbc9ddffc	-0.019271843
103	0x3c95f487	0.018305076
104	0x3bf1c5dd	0.0073783235
105	0xbb06972c	-0.0020536883
106	0xbc2cadd3	-0.01053949
107	0x3c8297e8	0.015941575
108	0x3c872116	0.016495269
109	0x3d086179	0.033296082
110	0xbb2a0f91	-0.002594922
111	0x3c0979d2	0.008390861
112	0x3ce48d92	0.027899537
113	0xbcd3ef21	-0.025870861
114	0x3caeedd2	0.021353636
115	0xbcb7e90d	-0.022449994
116	0xbc78909b	-0.015171195
117	0x3c10a173	0.008827555
118	0x3c57b354	0.013165314
119	0x3d4e5569	0.050374422
120	0xbd4facdc	-0.05070196
121	0x3d17294b	0.036904614
122	0x399b9658	0.0002967592
123	0xbd4b6a42	-0.049661882
124	0x3c89d1a9	0.016823607
125	0xbc96a083	-0.018387085
126	0x3ccea1d4	0.02522365
127	0xbd6b8c97	-0.057507124
128	0xbcd8c935	-0.02646313
129	0x3d0d4d0d	0.03449731
130	0xbc0137b8	-0.00788682
131	0xbd22f3c3	-0.03978325
132	0x3c34f93a	0.011045748
133	0xbc2cb3c4	-0.010540906
134	0x3d042e9d	0.032271016
135	0x3ce1d07c	0.027565233
136	0x3be0bab9	0.0068581966
137	0x3c68700f	0.014186873
138	0x3cbf62c4	0.023362525
139	0x3bd42c95	0.006475041
140	0x3b0fa991	0.0021921138
141	0x3cf5ad35	0.029989818
142	0x3c1b3bc4	0.009474698
143	0xba670bda	-0.00088137167
144	0xbcf72868	-0.030170634
145	0x3b06c2ec	0.002056296
146	0xbcc65564	-0.02421064
147	0xbd1e4390	-0.03863865
148	0x3cb9dbe9	0.02268787
149	0xbd44cdb3	-0.048047733
150	0xbca5c800	-0.020236969
151	0x3b8b5897	0.004252504
152	0xbd48b00c	-0.048996016
153	0xbb0bfdc3	-0.002136097
154	0x3d07a8b9	0.03311989
155	0x3cb5198d	0.02210691
156	0xbbcbb0b5	-0.0062161335
157	0xbc8586f2	-0.016299699
158	0xbc8ce37c	-0.017198317
159	0x3bbd9d56	0.005786578
160	0xbcd4a030	-0.02595529
161	0x3c65409c	0.013992455
162	0xbd493be9	-0.0491294
163	0xbc89096b	-0.016728124
164	0xbd269d82	-0.040677555
165	0xbce97da7	-0.028502299
166	0x3d275525	0.040852685
167	0x3c321cd1	0.010871128
168	0xbd6364e3	-0.055516135
169	0x3c0c6eb2	0.008571314
170	0xbc3ecb24	-0.011645112
171	0x3c812ec6	0.015769374
172	0xbd212efa	-0.03935144
173	0x3c55c9eb	0.013048629
174	0x3c453db8	0.012038641
175	0xbd583983	-0.052789222
176	0x3d12e040	0.035858393
177	0xbce81bbe	-0.028333541
178	0x3c81d7f1	0.01585004
179	0x3cc936fb	0.02456235
180	0xbcf2f5e9	-0.029658275
181	0xbc4204bc	-0.011841949
182	0x3c3d7137	0.011562637
183	0xbd0ffe1f	-0.035154458
184	0x3c757453	0.014981347
185	0x3c1c3a4a	0.009535382
186	0xbc1a4e5c	-0.009418096
187	0x3c0eab66	0.008707857
188	0xbcf63987	-0.030056728
189	0xbcdec8d6	-0.027195375
190	0xbd2b64e1	-0.041844252
191	0x3c7f0dce	0.015567256
192	0x3c20c30e	0.00981213
193	0x3d27db58	0.040980667
194	0x3c469735	0.0121210115
195	0xbc9d1127	-0.019173218
196	0x3beb200b	0.0071754507
197	0xbb538578	-0.0032275598
198	0xbb39c608	-0.0028346796
199	0x3c01bf8c	0.0079192035
200	0xbcb6c8d9	-0.022312569
201	0xbc3e050b	-0.011597882
202	0x3cb01be1	0.021497669
203	0xbc2a554c	-0.010396313
204	0xbc4b1dfe	-0.012397287
205	0x3a3e5164	0.0007260053
206	0xbbcf7a70	-0.0063317344
207	0x3c3080a2	0.010772856
208	0xbc253481	-0.010083319
209	0xbae04c33	-0.0017112553
210	0xbcc87313	-0.024468934
211	0x3a95d8a0	0.0011432357
212	0x3c14b742	0.009076895
213	0xbc685ae1	-0.0141818235
214	0x3ce3f960	0.027828872
215	0x3b0c11a8	0.0021372829
216	0xbd090389	-0.033450637
217	0xbd0e1bc4	-0.034694448
218	0x3c9c0ad6	0.019048136
219	0x3ca1de40	0.019759297
220	0x3c617ea7	0.013763106
221	0x3b93a366	0.0045055626
222	0x3c7cd5ac	0.015431803
223	0xbc0b46b3	-0.008500743
224	0x3c762d74	0.015025485
225	0xbd83e55a	-0.0644023
226	0x3cb831dc	0.022484712
227	0xbcc9d326	-0.024636816
228	0xbd9336c1	-0.07188178
229	0x3c87ccd5	0.016577164
230	0x3cc38bac	0.023870312
231	0xbcda88af	-0.026676504
232	0x3c22f91d	0.009947089
233	0x3c826b1c	0.015920214
234	0xbd2a3b6b	-0.04156057
235	0xbc60fd1d	-0.013732222
236	0x3c7ed08c	0.015552651
237	0xbbe67eec	-0.0070341732
238	0x3cab2676	0.020892363
239	0x3ce547c2	0.027988318
240	0x3c7bcf64	0.01536927
241	0xba8b0262	-0.0010605569
242	0x3c1d6a21	0.009607823
243	0x3d03008a	0.031982936
244	0x3d10a654	0.035314873
245	0x3c2ecb0d	0.010668528
246	0xbbdbffb3	-0.0067138313
247	0xbbda3d98	-0.0066601746
248	0x3c74e33e	0.014946757
249	0x3c0bfd75	0.008544316
250	0xbd0af7e6	-0.03392782
251	0xbd8e21de	-0.069400534
252	0x3c44bab9	0.012007409
253	0x3c3b5fff	0.0114364615
254	0xbce62766	-0.028094959
255	0x3bcf73f2	0.0063309604

action_model._discrete_distribution.branches.0.weight f4 [3, 256]
0	0x3d51f2f3	0.051257085
1	0xbc920c41	-0.017828109
2	0xbddae04d	-0.10687313
3	0xbdb1256b	-0.08649715
4	0xbd942cf4	-0.07235137
5	0xbd65c082	-0.056091793
6	0xbd8ea7a5	-0.069655694
7	0xbdb4979e	-0.08817981
8	0x3dd8f7bc	0.105941266
9	0x3d24a229	0.04019371
10	0x3c041c9b	0.008063461
11	0x3e2b78ee	0.1674535
12	0x3c1fe105	0.009758239
13	0x3d4e1181	0.05030966
14	0xbc7bb6e4	-0.015363429
15	0xbd3c961c	-0.046041593
16	0x3c013e51	0.007888393
17	0xbde052f9	-0.10953326
18	0xbdfbd9cc	-0.12297401
19	0xbd74f2bb	-0.0598018
20	0xbd3e7aaa	-0.0465037
21	0xbc81b141	-0.015831592
22	0x3cea0db3	0.028570985
23	0x3d7c91c8	0.061662465
24	0xbd5679f6	-0.052362405
25	0xbd2cc2b1	-0.04217786
26	0xbdb45ff0	-0.08807361
27	0x3de49d32	0.11162795
28	0x3e03d5de	0.12874553
29	0x3ddd67f0	0.1081084
30	0x3d0fd6b5	0.03511687
31	0xbd277081	-0.040878776
32	0x3cb65fb3	0.02226243
33	0x3d08c996	0.033395372
34	0x3c9ffac8	0.019528762
35	0xba3c12c0	-0.0007174425
36	0xbd3dec0c	-0.04636769
37	0x3d770a5e	0.06031262
38	0xbc3ce035	-0.0115280645
39	0xba8797e1	-0.0010344946
40	0x3e4f5ee5	0.20251043
41	0xbc16dc62	-0.009207817
42	0x3d7a5e86	0.0611253
43	0x3b99acb7	0.0046897787
44	0xbd58201d	-0.052765
45	0xbcfda058	-0.030960247
46	0xbcb722af	-0.022355406
47	0xbce67c0f	-0.028135328
48	0xbd3373df	-0.043811675
49	0xbc02e958	-0.007990204
50	0xbd2c37ab	-0.042045277
51	0xbd0e8853	-0.034797978
52	0xbda4e235	-0.08050958
53	0xbd0cb991	-0.034356657
54	0xbc63ce35	-0.013904144
55	0xbd0b3ca9	-0.033993397
56	0xbdc11f64	-0.094298154
57	0xbd861121	-0.06546236
58	0x3d58f728	0.05297008
59	0xbd94f747	-0.07273727
60	0xbdcfacfc	-0.10140416
61	0xbd86fa1c	-0.06590673
62	0xbc2b37d1	-0.010450319
63	0xbd96953c	-0.07352683
64	0xbd268581	-0.040654663
65	0xbbe60e01	-0.0070207124
66	0xbcf042d6	-0.029328745
67	0xbdafe51c	-0.08588621
68	0xbb832974	-0.0040027443
69	0xbd59dddf	-0.05319011
70	0x3d3a3c2e	0.045467548
71	0xbd68936c	-0.056781217
72	0xbdbcdc6f	-0.09221732
73	0x3c8a6085	0.016891727
74	0xbd6415aa	-0.055684723
75	0xbd600c78	-0.05469939
76	0x3e20ab54	0.15690356
77	0x3d2e68ec	0.04258053
78	0xbd105d71	-0.035245363
79	0x3c2680cf	0.010162546
80	0x3e11ca08	0.14237225
81	0x3a727136	0.0009248437
82	0x3d894197	0.067019634
83	0xbdd6ade1	-0.104823835
84	0xbd277a52	-0.040888138
85	0xbdcebaee	-0.10094248
86	0xbd5b1a63	-0.05349196
87	0xbddc7ad8	-0.10765618
88	0xbd4672b8	-0.048449248
89	0xbdd5d584	-0.104411155
90	0x3d9df00d	0.07711802
91	0x3cd49c08	0.025953308
92	0xbd389cd6	-0.045071445
93	0x3d2b5087	0.041824844
94	0xbdaf5edb	-0.08563014
95	0xbda21e0d	-0.07915888
96	0x3d2208fb	0.039559346
97	0xbdc30707	-0.09522825
98	0xbd6e58d8	-0.058190197
99	0x3d9b9878	0.075974405
100	0xbd829ac7	-0.06377178
101	0x3d3b87f7	0.045783963
102	0xbde9d1ed	-0.11416993
103	0x3e47282e	0.19448921
104	0xbd2d6e5b	-0.04234157
105	0xbd287917	-0.041131105
106	0x3dbb78cf	0.09153902
107	0xbc72cc38	-0.014819197
108	0xbd408c23	-0.047008645
109	0xbd22d368	-0.039752394
110	0x3c91e3db	0.017808845
111	0x3bf90365	0.0075992816
112	0x3c7015e4	0.014653657
113	0x3c9ab9e1	0.018887462
114	0xbdae3264	-0.08505705
115	0xbd8b65f2	-0.06806554
116	0x3d747668	0.059683233
117	0x3d94129d	0.07230113
118	0xbdc24b81	-0.094870575
119	0x3da123bd	0.07868145
120	0xbd37cbd6	-0.044872127
121	0x3e24c9f1	0.1609266
122	0x3baa94bc	0.005205719
123	0xbdc4b285	-0.096043624
124	0x3e372b5c	0.17887634
125	0x3d4f58d3	0.05062182
126	0xbd92aec2	-0.07162239
127	0xbce4f7df	-0.027950225
128	0x3cd0c675	0.025485257
129	0xbd1df55d	-0.038564075
130	0x3d8119f0	0.06303775
131	0xbdc3f5d5	-0.09568373
132	0x3d56f280	0.05247736
133	0xbdae73d7	-0.085181884
134	0x3e1389e8	0.14408076
135	0x3e4156a5	0.18880709
136	0xbd1bd671	-0.038046304
137	0x3c7a604f	0.015281751
138	0xbd0d47dc	-0.03449236
139	0xbd20e026	-0.039276265
140	0x3ddf7359	0.10910673
141	0x3bfc444e	0.0076985722
142	0x3e34b9c4	0.17648989
143	0xbd417995	-0.04723509
144	0xbc338729	-0.010957518
145	0xbd27cc6d	-0.04096644
146	0x3d405acb	0.046961587
147	0xbdc6c64b	-0.0970579
148	0xbde8716d	-0.11349759
149	0xbc336263	-0.01094875
150	0xbad94fca	-0.0016579565
151	0xbd43bea0	-0.047789216
152	0xbd9fc183	-0.07800581
153	0xbd83ce76	-0.06435864
154	0xbcd6ea44	-0.026234753
155	0x3e4b8870	0.19876266
156	0xbcae7712	-0.021297012
157	0xbd535076	-0.051590405
158	0xbd3f85fd	-0.04675864
159	0x3dd6c5da	0.10486956
160	0xbc0a6efd	-0.008449313
161	0xbcff1298	-0.031136796
162	0xbdb5f7e6	-0.088851735
163	0xbd06d5e6	-0.032918833
164	0xbda0bdfe	-0.07848738
165	0xbcb76024	-0.02238471
166	0x3dd07495	0.10178486
167	0x3b0a18a7	0.0021071823
168	0xbdd16e6a	-0.10226138
169	0x3c1330a3	0.008983764
170	0x3e0545c9	0.13014902
171	0xbd293c01	-0.04131699
172	0xbd502b66	-0.050822638
173	0xbc9ff16a	-0.019524295
174	0xbdb6e61a	-0.08930607
175	0xbd32bd4d	-0.043637563
176	0xbd5229ca	-0.051309384
177	0xbbbaf4f3	-0.0057054698
178	0x3cc79b37	0.024366004
179	0xbd02b7d8	-0.03191361
180	0xbba5aebc	-0.0050562304
181	0x3d133d91	0.035947386
182	0x3d43c37a	0.047793843
183	0xbcd84723	-0.026401108
184	0xbcf3f2d6	-0.02977888
185	0x3d1402e8	0.036135584
186	0xbd8a0f02	-0.06741144
187	0x3d16d747	0.0368264
188	0x3c7affe1	0.015319795
189	0x3c67f8d7	0.014158449
190	0xbb77d899	-0.0037818311
191	0xbd09234a	-0.03348092
192	0x3d765bb8	0.060146064
193	0xbc9b1667	-0.01893158
194	0xbd6de48e	-0.058079295
195	0x3d2c6089	0.04208425
196	0xbbd31860	-0.0064421147
197	0xbc904640	-0.017611623
198	0xbb87b4e2	-0.004141436
199	0xbd9178e6	-0.07103138
200	0x3d243b7b	0.040095787
201	0x3de261f0	0.11053836
202	0x3da357de	0.07975744
203	0xbd4e585c	-0.050377235
204	0xbdb01434	-0.085976034
205	0xbdbdd22e	-0.09268604
206	0x3d193416	0.03740319
207	0xbcb52f27	-0.02211721
208	0xbd836aff	-0.06416892
209	0x3d846028	0.06463653
210	0x3d09a0bb	0.03360055
211	0x3e37e0c7	0.1795684
212	0xbc3b1d2c	-0.011420529
213	0x3d918f4a	0.07107408
214	0xbc6799ef	-0.014135822
215	0xbd8939b7	-0.06700461
216	0xbbd5d909	-0.0065261167
217	0xbcd19e6d	-0.025588239
218	0x3d0d0475	0.03442808
219	0x3dbb255d	0.09137986
220	0xbca04d9f	-0.019568263
221	0x3b6f3f13	0.00365061
222	0xbd737b59	-0.059443805
223	0xbcbd1916	-0.023083251
224	0x3cf927a9	0.03041442
225	0xbdc11279	-0.094273515
226	0x3d02daf9	0.03194711
227	0x3d3672d0	0.044543087
228	0xbd9cdb3a	-0.07659002
229	0xbdad9c27	-0.08477049
230	0x3e38954b	0.18025701
231	0xbb1ec774	-0.002422777
232	0xbcbe02f2	-0.023194764
233	0xbd461556	-0.04836019
234	0x3cdd6ada	0.02702849
235	0xbc9fe983	-0.019520527
236	0xbd449e70	-0.04800266
237	0xbda03853	-0.07823243
238	0xbd3d6c4a	-0.04624585
239	0xbd2a5bd2	-0.041591473
240	0xbc186bcc	-0.0093030445
241	0xbd2fde96	-0.042936884
242	0xbd8172e5	-0.063207425
243	0x3e51b13c	0.20477766
244	0x3d773f69	0.060363207
245	0x3b7074d9	0.003669074
246	0xbd5a6224	-0.05331625
247	0xbd0a85cc	-0.033819005
248	0x3df5479f	0.11976551
249	0xbd37b53d	-0.044850577
250	0xbd1edb69	-0.038783465
251	0xbd8cc404	-0.068733245
252	0x3b49eabd	0.003081008
253	0xbd26f9ba	-0.0407655
254	0x3d86d177	0.06582921
255	0xbd5ff4e5	-0.05467691

action_model._discrete_distribution.branches.0.bias f4 [3]
0	0x3db16124	0.08661106
1	0xbc6d807b	-0.014495964
2	0xbe28ead0	-0.16495824

action_model._discrete_distribution.branches.1.weight f4 [3, 256]
0	0xbd747e04	-0.05969049
1	0xbdac7c56	-0.08422153
2	0xbd2e88d2	-0.04261095
3	0xbd50ce68	-0.050978094
4	0xbdab5075	-0.08364955
5	0x3dfc1200	0.12308121
6	0xbd10817a	-0.03527973
7	0xbc911482	-0.017709974
8	0xbc8e28a1	-0.017353358
9	0x3c248bda	0.010043109
10	0x3b783434	0.0037872912
11	0xbbc90d9c	-0.0061356556
12	0x3ccc4645	0.02493585
13	0x3c94f359	0.018182443
14	0x3d0b7b0c	0.034052894
15	0xbd858cd7	-0.06521004
16	0xbd9b5d91	-0.07586206
17	0xbccc1377	-0.024911625
18	0xbd5a6286	-0.053316616
19	0xbd5c7b24	-0.053828374
20	0xbd237ccd	-0.03991394
21	0x3c79abf5	0.015238752
22	0xbd9c0fa3	-0.0762017
23	0xbbf3112c	-0.0074178185
24	0xbc8f6364	-0.017503448
25	0xbcddea1e	-0.027089175
26	0xbd9916e1	-0.07475067
27	0x3ceb4497	0.02871923
28	0x3c6996d0	0.014257148
29	0xbc062903	-0.008188489
30	0xbac8b500	-0.0015312731
31	0xbd0dc997	-0.03461608
32	0xbd8541bc	-0.065066785
33	0x3c791cde	0.015204636
34	0xbc284470	-0.010270223
35	0xbaa10665	-0.0012285231
36	0x3d24b63a	0.040212847
37	0xbc8be394	-0.017076291
38	0x3b7ec8fc	0.003887712
39	0xbdd7f738	-0.105452
40	0xbc055ceb	-0.008139829
41	0x3d1e252c	0.03860967
42	0xbd312d95	-0.04325636
43	0x3bc9bdd4	0.0061566625
44	0xbdaf6b2a	-0.08565362
45	0xbd9ddf35	-0.07708589
46	0xbd928652	-0.07154526
47	0x3c91b7f2	0.017787907
48	0xbc73611b	-0.014854695
49	0x3a46d22a	0.00075844175
50	0x391b7459	0.00014825295
51	0x3b0d13c4	0.0021526674
52	0x3cd034fe	0.025415894
53	0xbd22cf75	-0.039748628
54	0xbd40a243	-0.047029745
55	0xbc77576e	-0.015096528
56	0xbd868d66	-0.06569938
57	0xbcaea156	-0.021317165
58	0x3c66ff05	0.014098887
59	0xbd92058c	-0.07129964
60	0x3d2187f2	0.03943629
61	0xbaa0b080	-0.0012259632
62	0x3b1a082b	0.0023503404
63	0xbcee80df	-0.029114185
64	0xbb5595ec	-0.003259058
65	0xbba30aaf	-0.004975639
66	0x3cd05fdc	0.025436334
67	0xbcf4c044	-0.029876836
68	0xbd631aa8	-0.055445343
69	0x3b1e5bbc	0.0024163565
70	0xbbe937c6	-0.0071172444
71	0xbdaeba8b	-0.08531674
72	0xbd23bd03	-0.039975177
73	0xbd31f478	-0.043446034
74	0xbd92e569	-0.07172663
75	0xbbad171a	-0.005282295
76	0x3d176e05	0.036970157
77	0x3d061665	0.0327362
78	0xbd8e79e6	-0.06956844
79	0xbdd78443	-0.10523274
80	0x3c740050	0.014892653
81	0xbd7b34e6	-0.061329745
82	0xbb88bbb5	-0.004172767
83	0xbcd5da8b	-0.026105186
84	0xbd4fa90e	-0.050698332
85	0xbcc1f6ba	-0.023677219
86	0xbcfce59c	-0.030871205
87	0x3d8ce61c	0.068798274
88	0xbd2b2d87	-0.041791465
89	0xbd59d4ca	-0.053181447
90	0xbc05e1e5	-0.008171533
91	0x3b3d8190	0.0028916337
92	0xbcc78554	-0.024355568
93	0x3c23f33d	0.010006723
94	0xbcab59c4	-0.020916827
95	0x3cc6fc2c	0.024290167
96	0xbd21ed9f	-0.039533254
97	0x3c8f4ff7	0.017494185
98	0xbcd39b38	-0.02583085
99	0x3d213a57	0.039362278
100	0xbbdd1cab	-0.0067478023
101	0x3baf72be	0.0053542545
102	0xbd267b72	-0.04064507
103	0xbba2d82f	-0.0049696187
104	0x3bf67867	0.0075216773
105	0x3ca8bde1	0.020598354
106	0xbba7bed9	-0.0051191864
107	0xbd773d40	-0.060361147
108	0xbd769fde	-0.060211055
109	0x3b2946b5	0.0025829498
110	0x3bd6ffd1	0.0065612574
111	0xbcc0cc2c	-0.023534857
112	0x3ce9f864	0.028560825
113	0x3c37aff7	0.011211387
114	0xbd4ac4ba	-0.04950402
115	0xbcd7580f	-0.026287107
116	0xbc5ece5b	-0.013599004
117	0xbcdb6d3e	-0.02678549
118	0xbd21cc8c	-0.03950171
119	0x3bf21847	0.007388148
120	0x3b34a1b9	0.0027562215
121	0x3abb4782	0.0014288279
122	0x3ca46f66	0.02007265
123	0xbc5a6082	-0.013328673
124	0xbc0b7dde	-0.008513896
125	0xbd0b88e5	-0.0340661
126	0x3cd607b0	0.026126713
127	0xbd1fb93f	-0.038995024
128	0xbae1c293	-0.0017224125
129	0xbc8c9bc2	-0.017164115
130	0xbc86f54f	-0.016474394
131	0xbd0f6f64	-0.03501834
132	0x3bcfc8ed	0.006341091
133	0x3e0f59cc	0.13999099
134	0x3ca70d09	0.020391958
135	0x3c0d5605	0.008626466
136	0x3cef8675	0.029238919
137	0x3c741938	0.014898591
138	0x3da6e7d6	0.08149688
139	0xbc7202ad	-0.014771146
140	0xbba63337	-0.0050720233
141	0x3d1c5d75	0.038175065
142	0x3b3ad5ba	0.0028508739
143	0xbd891c74	-0.0669488
144	0xbd207c5d	-0.039181102
145	0xbd0c4a00	-0.03425026
146	0xbcc48477	-0.023988945
147	0xbcf71f36	-0.03016625
148	0xbd92c359	-0.07166166
149	0xbd26d685	-0.040731926
150	0xba125bb6	-0.0005583124
151	0xbca1d5b5	-0.019755224
152	0xbd245323	-0.040118348
153	0xbdc53b49	-0.09630448
154	0xbcf18e02	-0.02948666
155	0xbb8f5fb4	-0.0043754224
156	0xbb7470cd	-0.003729868
157	0xbc2e6bc7	-0.010645813
158	0x3b759dc8	0.0037478078
159	0x3c75a7d6	0.0149936285
160	0xbcaf456e	-0.021395411
161	0x3d2997e5	0.041404624
162	0xbd024813	-0.031807017
163	0xbcafe138	-0.021469697
164	0xbc90a14a	-0.017655034
165	0xbd1895d6	-0.03725227
166	0x3cf8561f	0.030314503
167	0x3bc7e8a8	0.006100733
168	0xbcfa94ca	-0.030588526
169	0x3b8b02db	0.0042422838
170	0x3c5b10f4	0.013370741
171	0x3baf1878	0.005343493
172	0xbd888884	-0.06666663
173	0xbb782dd5	-0.0037869115
174	0x3db753db	0.08951541
175	0x3ba38b32	0.0049909586
176	0x3c1799c3	0.009252968
177	0xbbf38334	-0.007431412
178	0x3ba95a5b	0.005168242
179	0xbd5bd862	-0.053673156
180	0xbd9006c0	-0.070325375
181	0xbd17fa80	-0.03710413
182	0xbc1c05e3	-0.009522888
183	0xbd8168f5	-0.06318847
184	0xbd1d38cb	-0.03838424
185	0x3c366f11	0.011134879
186	0xbc8fb5c0	-0.01754272
187	0x3c9eefd3	0.019401466
188	0xbdac5b45	-0.08415846
189	0xbd41a555	-0.047276814
190	0xbcba8d59	-0.022772478
191	0xbcac9d45	-0.021071086
192	0x3d06b99f	0.032891866
193	0x3aeb6879	0.0017960212
194	0xbd2878d0	-0.04113084
195	0xbb8b0ae3	-0.004243241
196	0x3cc9e63d	0.024645919
197	0xbbd758bd	-0.0065718577
198	0x3ce748f6	0.028233033
199	0xbce7c45a	-0.02829187
200	0xb9978033	-0.0002889648
201	0xbc4f9a71	-0.012671099
202	0x3d167d17	0.03674039
203	0x3c66249f	0.014046817
204	0xbd56019e	-0.052247636
205	0xbd1f6763	-0.038916957
206	0x3c4d6a4d	0.012537551
207	0x3c898d5b	0.016791036
208	0xbd59d96c	-0.053185865
209	0x3bda12f3	0.006655091
210	0xbd57972b	-0.0526344
211	0x3b2f084a	0.0026707822
212	0xbd685f9b	-0.0567318
213	0xbc231fc8	-0.009956308
214	0xbd937a1b	-0.07201024
215	0x3d64d554	0.055867508
216	0x3b4fe170	0.0031720065
217	0x3b8b496e	0.004250697
218	0x3c4d0254	0.012512762
219	0x3b3d899e	0.0028921138
220	0x3ce3811a	0.027771521
221	0x3cc0cc67	0.023534967
222	0x3d11c7f7	0.035591092
223	0xbdd536ad	-0.10410819
224	0xbb1f4dbd	-0.002430781
225	0xbd14a2c0	-0.036288023
226	0xb9c9e877	-0.00038510907
227	0xbb30ca80	-0.0026976168
228	0xbb751c7a	-0.0037401007
229	0xbd29d824	-0.041465893
230	0xba8d10b3	-0.0010762423
231	0xbcb81d8b	-0.022475025
232	0x3d1e1f0d	0.03860383
233	0x3d4108c5	0.047127504
234	0x3aff4435	0.0019475283
235	0xbdcaa0b7	-0.09893935
236	0x3b3670c7	0.0027838217
237	0x3c8737bc	0.016506068
238	0xbc57d131	-0.013172434
239	0x3d39f3a4	0.04539837
240	0xbdbf14a1	-0.093301065
241	0xbd1b8c65	-0.037975688
242	0x3c1a8b56	0.009432634
243	0x3b047b8e	0.0020215246
244	0x3ccca6cd	0.02498188
245	0x3bc0107f	0.0058613415
246	0x3de497a5	0.111617364
247	0xbd807359	-0.06272001
248	0x3c3beef4	0.011470545
249	0x3d13e794	0.036109522
250	0xbd316112	-0.043305464
251	0xbca046ea	-0.019565064
252	0x3cde0a3c	0.02710449
253	0x3d3a2a94	0.045450762
254	0xbba9d14a	-0.00518242
255	0xbd83e407	-0.06439977

action_model._discrete_distribution.branches.1.bias f4 [3]
0	0x3c52de7c	0.012870427
1	0x3a846f5e	0.0010103991
2	0xbcea94ed	-0.028635466

action_model._discrete_distribution.branches.2.weight f4 [2, 256]
0	0x3c8c287d	0.01710915
1	0x3c183a1e	0.0092912
2	0xbd1b091e	-0.03785049
3	0xbc7f940f	-0.015599265
4	0xbb346841	-0.002752796
5	0xbbbafd26	-0.005706447
6	0x3cef1dfb	0.0291891
7	0xbdd6945b	-0.10477515
8	0x3cf1d510	0.029520541
9	0x3cb8759d	0.02251702
10	0xb92c443e	-0.0001642862
11	0x3d746d96	0.05967482
12	0xbc70ffcf	-0.014709427
13	0x3ce12a6e	0.027486052
14	0xbe081037	-0.13287435
15	0xbcd3e71d	-0.02586704
16	0x3d27d1fe	0.04097175
17	0xbd252c85	-0.04032566
18	0xbd2f57b2	-0.042808242
19	0xbd2fd895	-0.042931158
20	0xbd1c2983	-0.038125526
21	0xbb7d5a03	-0.0038658387
22	0x3ca197f5	0.01972578
23	0x3c3e5208	0.011616237
24	0xbe0429e9	-0.12906612
25	0xbde6a930	-0.11262739
26	0x3ccc0cf2	0.024908517
27	0x3d0cca56	0.03437265
28	0x3d31ae18	0.04337892
29	0x3cef0640	0.029177785
30	0xbb873733	-0.0041264533
31	0xbdb030cc	-0.08603057
32	0x3c005520	0.007832795
33	0xbcaed430	-0.021341413
34	0x3c3e0373	0.011597502
35	0xbc362dea	-0.011119345
36	0xbd7b76d4	-0.06139262
37	0x3d19454d	0.037419606
38	0x3ca8feb4	0.020629264
39	0x3d587aed	0.052851606
40	0x3d0e6450	0.034763634
41	0x3c7d3630	0.015454814
42	0x3d0e9584	0.034810558
43	0x3d52303f	0.051315542
44	0xbbd407f7	-0.006470676
45	0xbbf92a13	-0.0076038926
46	0xbc1663c6	-0.009179061
47	0xbd86ce3c	-0.06582305
48	0x3dea3ee5	0.114377774
49	0xbc98e6d4	-0.018664755
50	0xbd661918	-0.056176275
51	0x3b93a051	0.004505195
52	0xbdb01897	-0.0859844
53	0xbda862bc	-0.08221957
54	0xbcaf2d03	-0.021383768
55	0xbcc23731	-0.023707958
56	0xbce3b20d	-0.027794862
57	0xbd650271	-0.05591053
58	0x3d1b7377	0.037951913
59	0xbce031a2	-0.027367417
60	0xbd68d39e	-0.05684244
61	0xbdd0c94f	-0.101946466
62	0xbbef7a61	-0.00730829
63	0xbc5fc36b	-0.013657431
64	0xbd58b707	-0.052908923
65	0x3ac8871f	0.0015299058
66	0xbda7c632	-0.081921
67	0xbce7117c	-0.02820658
68	0xbae06566	-0.0017120063
69	0xbd6b9444	-0.057514444
70	0xbce66a54	-0.028126873
71	0xbd94620f	-0.07245266
72	0xbd126cd3	-0.035748314
73	0xbc089b83	-0.008337858
74	0xbd2b32a0	-0.041796327
75	0xbd96dd88	-0.073664725
76	0x3d158aca	0.036509313
77	0x3d4461d3	0.047944855
78	0xbd7aabde	-0.06119906
79	0x3d1a38e8	0.037651926
80	0x3d8022fc	0.06256673
81	0x3d95500e	0.0729066
82	0x3cf935c0	0.030421138
83	0x3d4696d7	0.048483696
84	0xbd477353	-0.048693966
85	0x3c853df5	0.016264895
86	0xbda63d73	-0.08117189
87	0x3be4739f	0.006971791
88	0xbdcd7476	-0.10031979
89	0xbd2d3ae3	-0.042292487
90	0x3b3b07b5	0.002853853
91	0x3c04c67e	0.008103965
92	0xbdd08e18	-0.10183352
93	0x3bb5182f	0.0055265645
94	0xbd571ed6	-0.05251964
95	0x3ddf9e1a	0.10918827
96	0x3d1df5c0	0.038564444
97	0x3d2579a7	0.04039922
98	0xbdca59bc	-0.09880397
99	0x3cd006b5	0.025393823
100	0xbd4a57cb	-0.049400132
101	0xbb99d597	-0.0046946513
102	0xbd39ca3e	-0.04535889
103	0x3d67ea93	0.05662019
104	0xbdb84780	-0.089980125
105	0x3d2babc8	0.04191187
106	0x3ccf0f45	0.025275836
107	0x3c5dae94	0.013530392
108	0xbd8740f4	-0.06604186
109	0xbdc7d715	-0.097578205
110	0x3a8ec924	0.0010893685
111	0xbcb85e84	-0.022506006
112	0x3c5e1ea5	0.013557111
113	0xb79c2eb0	-1.861839e-05
114	0xbc260b44	-0.010134522
115	0xbda94821	-0.082657106
116	0x3ce680bc	0.028137557
117	0x3cf80a22	0.03027827
118	0x3d8597ef	0.0652312
119	0x3cd1014f	0.02551332
120	0x3c1306b9	0.008973771
121	0x3d231a84	0.03982021
122	0x3c3fd9a2	0.011709603
123	0x3d9ef28d	0.07761107
124	0x3d224942	0.039620645
125	0x3c0ac222	0.008469136
126	0xbdf0ac4d	-0.11751614
127	0xbd18115d	-0.037125934
128	0x3c1b2a85	0.009470587
129	0xbd73e181	-0.05954123
130	0x3bc07e39	0.005874422
131	0xbc973d8f	-0.01846197
132	0xbb926fd4	-0.0044688974
133	0xbb964743	-0.004586132
134	0x3d6556e6	0.055991076
135	0x3d5e05b0	0.054204643
136	0xbd922f03	-0.07137873
137	0xbb956e38	-0.0045602582
138	0xbb7515b4	-0.003739697
139	0xbd940580	-0.072276115
140	0xbacec9d8	-0.0015776707
141	0xbca36948	-0.019947663
142	0x3cccc6bf	0.024997113
143	0xbcc059c4	-0.023480304
144	0xbcb033b4	-0.021509029
145	0x3dbece77	0.09316724
146	0x3cf99226	0.030465197
147	0x3d821f69	0.06353647
148	0xbd088d6b	-0.03333799
149	0xbbfee642	-0.0077789137
150	0x3bfb2634	0.0076644663
151	0xbdbd8261	-0.092533834
152	0xbcaa7d58	-0.020811722
153	0xbc20c825	-0.009813343
154	0xbdaf1d6a	-0.08550532
155	0x3ce2f37d	0.027703995
156	0xbc8fdcee	-0.017561402
157	0xbd70fdb8	-0.058835715
158	0xbbb181b0	-0.0054170713
159	0x3d3bedcf	0.04588109
160	0xbd076bf5	-0.03306194
161	0xbd9af639	-0.075664945
162	0xbd7417d0	-0.059593022
163	0xbbb008f1	-0.0053721596
164	0xbd5e2993	-0.054238867
165	0x3c6ef8b0	0.014585659
166	0x3d2fe57a	0.042943455
167	0xbca2032c	-0.019776903
168	0xbcab831c	-0.020936541
169	0xbcbcca5f	-0.023045717
170	0x3d343952	0.043999977
171	0xbde9b20f	-0.11410915
172	0xbd44b1d7	-0.048021164
173	0xbda60647	-0.08106666
174	0xbc7d2620	-0.015450984
175	0x3b9986da	0.004685265
176	0xbdfa9a6e	-0.122364864
177	0x3af07905	0.0018346614
178	0x3c1c1898	0.009527348
179	0xbd70155b	-0.058614116
180	0xbccd9bad	-0.025098646
181	0x3c87ef16	0.016593497
182	0x3ce670f9	0.028130041
183	0xbcb9b608	-0.022669807
184	0xbcb4e888	-0.022083536
185	0x3c972e65	0.01845474
186	0xbd3dcfde	-0.046340816
187	0x3c361d1f	0.011115341
188	0x3d53001c	0.051513776
189	0xbcab810f	-0.020935563
190	0x3d2dfc05	0.042476673
191	0xbdcce851	-0.10005248
192	0x3d1bf62c	0.038076565
193	0xbdfc11e7	-0.12308102
194	0xbdac381f	-0.08409142
195	0xbb917fc0	-0.004440278
196	0x3c8f1d1f	0.01746994
197	0x3c5b8332	0.013397979
198	0x3d9daae2	0.07698609
199	0x3d5dfd4b	0.054196637
200	0xbcf46b7c	-0.029836409
201	0x3d5cf8ab	0.053948086
202	0x3ae1460a	0.0017187011
203	0xbd44bf6e	-0.048034124
204	0xbd67bd13	-0.0565768
205	0x3d07cc76	0.033153974
206	0x3d2fff5e	0.042968147
207	0x3b00a8d2	0.0019631875
208	0x3c05ad06	0.008158928
209	0x3d3a86c4	0.04553868
210	0x3bf7f655	0.007567207
211	0x3d04f7a5	0.032462735
212	0xbd5efe85	-0.054441947
213	0x3d20aa58	0.039224952
214	0xbcac7ad5	-0.021054665
215	0xbd981cce	-0.07427369
216	0xbba55dde	-0.00504659
217	0x3c344784	0.011003379
218	0x3cd9b129	0.026573734
219	0xbcd7a08d	-0.026321674
220	0xbd2abf7a	-0.041686513
221	0x3cc11e63	0.02357406
222	0xbddeb9e7	-0.10875302
223	0xbce7fdf5	-0.028319338
224	0xbc898516	-0.016787093
225	0xbd244de6	-0.040113352
226	0xbc9e1c1f	-0.019300519
227	0x3c316192	0.010826485
228	0xbcf925bb	-0.0304135
229	0xbdb531d8	-0.088473976
230	0x3d1dca6f	0.038523134
231	0x3ce4b3f8	0.027917847
232	0x3bac8704	0.0052651186
233	0x3c9a7cf8	0.018858418
234	0x3bac30b5	0.00525483
235	0xbcaa9d93	-0.02082709
236	0xbda7392c	-0.081652015
237	0xbd5b54f2	-0.053547807
238	0x3c753959	0.014967286
239	0x3d40a7dd	0.047035087
240	0xbc318f57	-0.010837398
241	0xbd87e026	-0.0663455
242	0xbd9f8fa9	-0.07791073
243	0x3d1afa09	0.03783611
244	0x3d23ce0e	0.03999143
245	0x3c516659	0.012780749
246	0x3b85a149	0.0040780646
247	0xbd30b828	-0.043144375
248	0x3c1fdc19	0.009757065
249	0xbdad1e18	-0.084530056
250	0xbc78edba	-0.015193397
251	0xbd4142e2	-0.047182925
252	0xbc1ed19e	-0.009693531
253	0xbd9df158	-0.07712048
254	0x3baa50fa	0.0051976414
255	0xbd1284ea	-0.035771288

action_model._discrete_distribution.branches.2.bias f4 [2]
0	0x3d1ce4ca	0.038304128
1	0xbd1ce4c9	-0.038304124
