Assets/ML-Models/AirCollectorRay1.onnx (onnx, 48856 bytes, 9 tensors)

network_body._body_endoder.seq_layers.0.weight f4 [64, 93]
00000000: dc5e c6be 7c3e 063e 22ed c63d 7a3c 403e
00000010: 47fa efbe 5454 9fbd 7cff 943d a4cb 523e
00000020: b88e c3be 522f 81bd aef1 9cbd cea2 40bb
00000030: 8247 b1be 1c97 2bbd 4087 733d e972 883d
00000040: 58e8 17be 65cb 753e d3dd ed3d bbd2 2f3d
00000050: 128f e2bc f8e9 683c bb4a b83c a470 9fbd
00000060: 44bb 1fbe 9d4f 86be a5ed 023e 2413 863d
00000070: 3631 7bbe 36fa 88bd 0b72 223c f0af 443d
00000080: 7bf9 2ebe ed41 8a3d 1c00 8e3c 20d7 2dbc
00000090: 75c3 73be d101 673e 8217 5f3d 3779 413d
000000a0: f71f 30be 0ca9 26be a897 6a3d ff21 533e
000000b0: 8a72 bbbd 58bf 52be 0126 6fbd 0802 7a3e
000000c0: 6626 d4bd 89b2 08be 0980 f93c 2ee2 433d
000000d0: 4cca ad3d 41d4 cabe ff58 4abb 5b31 113d
000000e0: 1f60 a2bd 7093 e1bd ed64 88bc 1f87 9ebd
000000f0: d2cb 47bd 8e87 1abe e27c 21be 2b96 243d
00000100: 9d26 98be 94e5 713c 4cf0 023c 8ff2 afbd
00000110: fc07 483e 04cf 48be 0a16 78bd 6b64 423b
00000120: 96ec d53b cded c2bd 8ad8 25bd 122f 14be
00000130: 7a84 973e 7122 16be 6b2c 813d 8621 9abd
00000140: 2e5c d1bd 9e1c f7bd c54e d63d 1aac c73d
00000150: 4e9b 843a 9bb3 c8be f15d 073e 5ceb 2bbd
00000160: 69ad 843e 0123 353c 76a8 a33e cc1c d1bd
00000170: 1a1f 743e 083d b5be 5d24 7bbd d5e7 233e
00000180: ff1a c03d 297f aebe df4a 3e3d d05d 81bd
00000190: d214 ab3d ceef 8ebe 35b7 08bd 2cc2 88bc
000001a0: dae4 b23d b4e3 0dbe 5e04 e03c 08e9 053d
000001b0: 1a3a 563e 2322 c6be df1e 35bd 19ab d33d
000001c0: 6750 a83b 31de c2bd 415e 853d 2007 9a3d
000001d0: f583 2ebd 2dbe 93be 5fe0 8d3d 7cff 19be
000001e0: 86bc 253e 88ed 25be e589 013e 02f1 20be
000001f0: 067f 1dbe 684f 9ebe 7480 823d 6a98 1cbe
00000200: 2ac5 9d3e 41d2 0b3e 5df2 723d 2ce0 19be
00000210: 4ae0 90bd 6273 3cbb 2dc5 a2be 5703 8c3d
00000220: b435 303e 8349 fcbd ac9a 01bb 5f64 103d
00000230: 1be9 833d 4b85 b1be b90e 0c3e 4b7c 073e
00000240: f637 4ebc a3d9 e2bd 28c6 40be 1990 efbc
00000250: 67ac a53c a1d0 a4bd dab7 ddbd afb0 c33d
00000260: 266b 93bd a6f3 a8bd 70e6 55be 4eb7 073e
00000270: aa89 193e ee0b 31bd 1611 e6bd c07f d83c
00000280: b801 c4bd d314 843e 7676 2ebe 0811 e73d
00000290: d67b 0bbe abfe 05be ea15 cabd e7cf 943c
000002a0: 3567 32bd 13be 0fbc f3cc 89be 0005 b6bd
000002b0: 210c d33d 64f2 2f3d 1d45 a3bd ea14 a4bd
000002c0: 1efe 73bd 1dd2 29be c09f fcbc 7cf6 f4bc
000002d0: a9f1 74bd fe71 443e 8d72 2b3d e36f d4bc
000002e0: ff18 e23c e138 0a3e 4f03 803d f07f 32be
000002f0: 9d4b 923d 9edd 003d c683 9d3c 9466 c8bd
00000300: e687 9c3c 29bb be3d 12a0 893e fd3a 77be
00000310: c743 3f3e 4d81 953d e3c3 30be 4360 293c
00000320: 8ff9 a03d f191 babc ea6c b4bb 7b9b 7cbc
00000330: 4b02 ea3b 1a47 21bc 51f7 b1be e660 d23d
00000340: 9d43 f43d cd3a d73d e40d b53c dcab 96bd
00000350: 76b6 38bd 20f5 c9bd 75f7 433c 53e4 07bb
00000360: 4d36 0c3c fced d63d 56ee 843e 109b d1bd
00000370: 37b5 91bd 202c d83b b963 54be 2e47 56be
00000380: b228 533d 1988 eb3c 4a37 b83e 3ca4 ea3e
00000390: 4477 4c3e f333 7bbe c5f7 4f3e 8cce 503e
000003a0: 1b65 c53c 9346 73bc 29f0 5bbd 2b68 303d
000003b0: d845 3fbe 44c6 0bbe e21d 46bd 01c8 f6bd
000003c0: 05fc 90bb 4e40 eb3d 8ecd e6bd 32bc e53d
000003d0: 3b09 babd cd12 9e3d 16a0 bdbd 3f92 493d
000003e0: 2fe0 003d 914c 21bd b235 f3bd 34da d0bd
000003f0: 8add 403e 31ba 9f3d e09b 8dbd 9073 5c3e
-0.38744247 0.13109773 0.09713198 0.1877307 -0.46870634 -0.07779756 0.07275292 0.20585495
-0.38194823 -0.06307854 -0.07663284 -0.0029393914 -0.3462487 -0.041892156 0.059455156 0.066625424
-0.14834726 0.2400337 0.11614575 0.042925578 -0.027656112 0.014215939 0.022496572 -0.07785156
-0.1559878 -0.26232615 0.12785967 0.065466195 -0.24530491 -0.06688349 0.009914885 0.04801935
-0.17087357 0.067508556 0.017334037 -0.010610372 -0.2380503 0.22559287 0.05446578 0.04723474
-0.17199694 -0.16275424 0.057273537 0.20618437 -0.09152706 -0.20580804 -0.058385853 0.24414837
-0.103588864 -0.13349356 0.03045656 0.047823124 0.08485851 -0.39615062 -0.00308758 0.03544746
-0.0792849 -0.110144496 -0.016649688 -0.07740616 -0.048778363 -0.15090773 -0.15770295 0.040182274
-0.2971696 0.014764208 0.007991862 -0.08591186 0.19534296 -0.1961022 -0.060567893 0.0029661905
0.0065284474 -0.09518013 -0.04048971 -0.14471081 0.2959326 -0.14661576 0.063073 -0.07525925
-0.1022266 -0.12066005 0.10464243 0.09749623 0.0010117085 -0.39199528 0.1321943 -0.041972503
0.2591355 0.011055709 0.31964463 -0.10210571 0.2383999 -0.35398126 -0.061313976 0.16006406
0.09380149 -0.3408139 0.04645812 -0.063167214 0.083535805 -0.2791733 -0.033377845 -0.01669415
0.08735056 -0.13856393 0.027345832 0.03269294 0.20920601 -0.3869792 -0.044218894 0.10335369
0.005136538 -0.09515036 0.06512118 0.0752089 -0.042606313 -0.2885603 0.06927561 -0.15038866
0.16185197 -0.16203892 0.12650259 -0.15716937 -0.15380487 -0.30919957 0.06372157 -0.15292516
0.30814487 0.13654424 0.059313167 -0.15026921 -0.0707403 -0.0028755297 -0.31791058 0.068365745
0.17207986 -0.12318709 -0.001977603 0.03525197 0.06440946 -0.34672007 0.13677491 0.13231008
-0.012586584 -0.11076667 -0.1882559 -0.029243516 0.02022381 -0.08047605 -0.108260825 0.09555184
-0.07198171 -0.08249597 -0.20888686 0.13253519 0.14993921 -0.043224268 -0.11233728 0.026428103
-0.0957064 0.25797138 -0.17037377 0.11282545 -0.13621458 -0.1308543 -0.09867461 0.018165542
-0.043555457 -0.008773345 -0.26914176 -0.088876724 0.10305048 0.04295577 -0.07972167 -0.080118015
-0.059568517 -0.16584058 -0.030837893 -0.02990269 -0.059800778 0.1918411 0.04185729 -0.025932258
0.02759981 0.1349826 0.06250631 -0.17431617 0.07143328 0.03146135 0.019227874 -0.0978519
0.01910777 0.09313042 0.26879936 -0.24143596 0.18678199 0.07300053 -0.17262225 0.010337892
0.078600995 -0.022774668 -0.0055061476 -0.015417929 0.0071413866 -0.009843612 -0.34759 0.10272388
0.11926959 0.10509262 0.02210135 -0.07356998 -0.045095883 -0.09861207 0.011960854 -0.0020735457
0.008557868 0.10494611 0.25963086 -0.10234654 -0.07114642 0.006597057 -0.20741166 -0.2092559
0.051552482 0.02875142 0.35979682 0.45828426 0.19967371 -0.24531536 0.2030936 0.20391291
0.024096062 -0.014848369 -0.05369583 0.043068092 -0.18678987 -0.13649851 -0.048368342 -0.120498665
-0.0044245743 0.114868745 -0.11269675 0.11217536 -0.09083792 0.0771843 -0.092590496 0.049211737
0.031463798 -0.03937966 -0.11875476 -0.10197869 0.1883451 0.07799185 -0.069144964 0.21528459

network_body._body_endoder.seq_layers.0.bias f4 [64]
00000000: f242 6cbc 0350 a2ba 83c3 953c 2fcf 633d
00000010: 7e00 2f3d 3781 123d b026 b93c 9f70 4d3d
00000020: 7dd2 e6bb f3d4 2e3c cff4 113c 882d 82bc
00000030: 8c33 01bb 2935 afbc 37fe 46bc 53ad a0bb
00000040: c805 3bbd 741d 5fbc 5627 293d 76a4 45bc
00000050: 5a92 a23b c0b4 453d f280 cc3c d636 b13d
00000060: 2f45 52bb 95db d2bc 7a49 663c ce67 3f3b
00000070: 2d2b c33b 4ecb a43c 44fc 12bd 1dc1 65bb
00000080: 2bfe 143d 994f 01bd 06e8 47bd fe3a c2bd
00000090: c771 153c c438 e93c ce62 7e3b badb 9e3c
000000a0: 616a febb e28f bd3b 6475 1abd 7ce8 313d
000000b0: 1c52 a0bc 983c 33bc 9db4 f3bb 97f6 653c
000000c0: 2958 f13c b5f1 0f3c 337f edbc fb89 2d3d
000000d0: cf46 683d 6f0d 33bc f2e2 483d 6594 bcbc
000000e0: cf05 1ebd 0be4 1e3d 599d 65bc 36d8 903c
000000f0: 8a2e 103d 7583 e4bb aeb7 f63b b7fe 113d
-0.014420258 -0.0012383464 0.018281704 0.055617508 0.04272508 0.03576776 0.022601455 0.050156232
-0.007044135 0.010670888 0.008908465 -0.015890852 -0.0019714562 -0.021387653 -0.0121455705 -0.0049034744
-0.04565981 -0.013617862 0.04129728 -0.012063136 0.004961294 0.04826808 0.02496383 0.08653037
-0.0032084694 -0.02573947 0.014055604 0.002920616 0.0059560747 0.020116474 -0.03588511 -0.0035057731
0.036375206 -0.03157005 -0.04880526 -0.09483908 0.009121365 0.02846945 0.0038816216 0.019391883
-0.007764146 0.0057849744 -0.03770961 0.043434605 -0.019570403 -0.01093974 -0.0074373023 0.014035842
0.029460983 0.008785655 -0.028991317 0.042367917 0.056708153 -0.010928496 0.049044557 -0.023019979
-0.03857976 0.038791697 -0.014014565 0.017681222 0.035200633 -0.0069736787 0.0075292205 0.035643306

network_body._body_endoder.seq_layers.2.weight f4 [64, 64]
00000000: 9784 0abe 1324 dc3d 448e 34be 38d7 963d
00000010: fd28 363e 6b11 97bd 11ae ebbd f964 3dbe
00000020: ea2d f13d 18aa edb7 d0a8 89be 6267 013d
00000030: 5885 823d 2792 9bbd 89b9 4bbe d130 e6bc
00000040: e7c6 b8bd cf64 aabe 2f90 ebbc df45 54be
00000050: 5e96 93be 48c8 00be 3f0d 82bc 1603 4fbd
00000060: 30b2 0f3e 5c8d 36be 7940 6a3e c050 5e3e
00000070: d654 f13d 8fd8 8e3e d670 b63b 2463 92bd
00000080: 37a7 b83d 34af cd3d ae5a 293e 7df6 48bd
00000090: 2434 8c3d 38ee 933d c83c 323a c491 fa3c
000000a0: 6951 16be c567 6d3e d3bb 18be a77a acbc
000000b0: ac71 14be ceb3 663c bfc3 39be 3c5d 55be
000000c0: cef4 52be 6fdc 42bd 92f1 2cbd 3046 2dbd
000000d0: c122 c2bd 716f 003e b2b6 6dbd 8f70 343e
000000e0: bbcc 4dbe e8e4 2cbe d19f 4fbe f7d5 4cbd
000000f0: 59c9 8b3d 6ea0 5abd da0b 25be 8992 163d
00000100: ba82 f93c ea34 223e 63a0 513e e725 53bd
00000110: 80d9 913d 4944 ab3d 0889 86bd 6542 b2be
00000120: 3245 bb3d 5a4e dbbc 3781 313d 986c 723e
00000130: e7b3 1fbe 50aa 013b 6e35 7f3e 85e5 353e
00000140: b7fa a03d ad10 c13e 5b6d 84be 000d 7d3e
00000150: 6801 7cbe 92d4 b03d 860f 1c3e 9f0e 9b3c
00000160: 4e1a 443d 13f9 043e b6c8 14bd 41d2 a8bd
00000170: 9c77 8abd 1c72 363e 6408 8a3e f64d 5f3e
00000180: 52f0 fa3d bfd1 0cbd d3e7 223e b0ca 343e
00000190: b853 c1be 5c21 d9bd 1138 7a3e 0db6 19bd
000001a0: 54cb d4bd 690c 47bd c4f8 863d 4be3 0fbd
000001b0: 3295 ce3b 2f35 153e 4a9d e33d 6191 523e
000001c0: 3b27 84be 0557 783e f64e 7f3e f12b 86be
000001d0: 4f62 8bbd 42f5 803e 1d34 e13d fbf3 ca3a
000001e0: 1d26 c13d 3c5c bcbd 4361 16bd 2377 9bbd
000001f0: 999b 48be 5a56 b6bc db3e 043e c242 14be
00000200: b9bb 94be ba8e 10be e941 d3bc 8777 eebd
00000210: 145e 49bb ac2c f4bc 9ddc 603d 9163 993d
00000220: c9df d4bd c8df 10be 76ba dc3c ad5e 3bbe
00000230: 68bd 85be cf6c 02bd 8eae a73e 6d53 86bd
00000240: 7f3d 393d a43b babe f047 6f3d ca67 d6bd
00000250: 9233 5abe 08b3 163e a052 b6bc 3c63 fd3c
00000260: e5a3 b4bd 46da f4bd cd68 f9bd 6590 63be
00000270: 468a 63be 6edf 5a3d 644a 72be 0522 593e
00000280: 4287 5b3e 5984 8e3d 4a24 9cbc 418c 143e
00000290: ff09 c93d 61d9 bdbd 9dcd 33be 0e06 a23d
000002a0: d601 ab3d 49c5 f03d 0b69 fb3e de39 ac3d
000002b0: 32ec 86be 575f cdbe 5eff d23e f00d 8abe
000002c0: f0c7 713e b5ff 973d e116 e1bd ef0d 1fbe
000002d0: c821 463d 6068 83bd 1a48 88be 1dcc f7bd
000002e0: d17a a83d 5837 343b f430 b53d f05e 6dbe
000002f0: c7d9 673d b99b 1bbc 265f 213e 267a fabd
00000300: 88f2 9d3e a43f abbc 293b 3ebe 4738 58bd
00000310: e3ea 6d3d 3ef1 58be d58e 3bbe 40af 58be
00000320: cb0e 1fbd 70fe 5fbd 9629 003d 8463 963d
00000330: 73cc 5e3d ada7 58bd d2b9 bdbe 91ed abbd
00000340: 10fe 08be e743 0c3d 2fe4 45bd c2e1 8bbd
00000350: 9292 ef3c 87f7 903d 0af9 62bd 7404 85be
00000360: 8592 8b3e e51f 9ebb dcfc 0a3e b408 003e
00000370: cdaa 353d cdcf 193e 44ee cbbc 96f5 67be
00000380: 8a39 58bb a402 d03b 09e7 10bd f724 d8bd
00000390: dd1b 7e3d 271f 0fbd a72f 183e 83ba 953e
000003a0: 10e2 ed3e 6e12 cb3d f473 aabd efb1 c9be
000003b0: 579c cc3c 593f 8f3e bcf2 703e d890 0fbe
000003c0: 42be f8bd a281 e43b 32c5 26be 83c4 383e
000003d0: 29b6 0b3e 2ca8 d3bd 9815 493d 0d94 d83d
000003e0: 48b8 59be f9a8 09be b883 babd 40f4 a73d
000003f0: ef14 e93d abe9 a83e 0370 abbd a771 753e
-0.13527142 0.10749068 -0.17632395 0.073652685 0.17789073 -0.07376369 -0.1150781 -0.1849555
0.117763355 -2.8331808e-05 -0.26886606 0.031592734 0.063730896 -0.07596236 -0.19894995 -0.02809945
-0.090223126 -0.33280036 -0.028755276 -0.20729779 -0.2882566 -0.12576401 -0.015875457 -0.050540052
0.14032817 -0.17827362 0.22876157 0.21710491 0.11783759 0.27899596 0.0055676503 -0.07147816
0.09016269 0.10043183 0.16538498 -0.049063195 0.068458825 0.07223171 0.0006799218 0.030587085
-0.14679493 0.23184116 -0.14915399 -0.021054579 -0.14496487 0.014080955 -0.18141077 -0.20836347
-0.20601198 -0.047573503 -0.042222567 -0.042303264 -0.09479285 0.12542512 -0.05803556 0.17621063
-0.2009763 -0.16884196 -0.20275809 -0.05000874 0.068255134 -0.053375654 -0.16117802 0.03676084
0.030457843 0.15840498 0.20471339 -0.05154982 0.07121563 0.08362634 -0.065691054 -0.3481628
0.09144057 -0.02677076 0.04333612 0.23674238 -0.15595971 0.0019785352 0.24922726 0.17763336
0.0786032 0.37708035 -0.25864682 0.2471199 -0.24609911 0.086342946 0.15240297 0.01892787
0.04787665 0.1298564 -0.036324225 -0.08243228 -0.06761095 0.17816967 0.26959527 0.21807083
0.12252869 -0.034379717 0.15908746 0.17655444 -0.37759185 -0.10602066 0.2443545 -0.037527133
-0.10390344 -0.04859582 0.06590417 -0.035128873 0.0063044066 0.14571069 0.11113985 0.2056327
-0.2581118 0.24251945 0.24932465 -0.262054 -0.0680586 0.25187117 0.10996268 0.0015484089
0.09431098 -0.0919728 -0.03671385 -0.07591083 -0.19590606 -0.022257973 0.12914602 -0.14478591
-0.2904947 -0.14116946 -0.025788264 -0.11643892 -0.003072624 -0.029806457 0.054897893 0.07489694
-0.10394246 -0.14147866 0.02694438 -0.18297835 -0.26121068 -0.03184205 0.32750362 -0.06558881
0.045224663 -0.36373627 0.058418214 -0.10469015 -0.21308735 0.14716733 -0.022256196 0.030931108
-0.08820323 -0.11955695 -0.12178192 -0.22223051 -0.22220716 0.053435735 -0.2366119 0.21204384
0.21438316 0.06958837 -0.019060273 0.14506628 0.0981636 -0.09269977 -0.17558904 0.07911311
0.083499596 0.11756379 0.4910358 0.08409475 -0.26352078 -0.401118 0.41210455 -0.26963758
0.23611426 0.07421819 -0.10990692 -0.15532659 0.04837206 -0.06416392 -0.2661751 -0.120994784
0.0822655 0.0027498808 0.08847228 -0.23180747 0.056604173 -0.009497576 0.15758952 -0.12230329
0.308491 -0.02090437 -0.18577255 -0.052788045 0.058085334 -0.21185777 -0.18316205 -0.21160603
-0.038832467 -0.05468601 0.03128966 0.073432 0.054394197 -0.052894283 -0.37055832 -0.083949216
-0.13378167 0.034244444 -0.048313316 -0.06830169 0.029244695 0.07078462 -0.055413283 -0.2597996
0.27260223 -0.0048255795 0.1357302 0.1250332 0.04435234 0.15020676 -0.024893887 -0.22652277
-0.003299328 0.006347971 -0.035376582 -0.105539255 0.06203829 -0.03494182 0.14861928 0.2924386
0.46461535 0.099156246 -0.083228976 -0.39393565 0.024976892 0.27978018 0.23530096 -0.14020097
-0.12145664 0.0069734612 -0.16286162 0.18043713 0.13643707 -0.103348106 0.04909286 0.105751134
-0.21261704 -0.13443364 -0.091071546 0.08200884 0.11380946 0.32990775 -0.08370974 0.23969136

network_body._body_endoder.seq_layers.2.bias f4 [64]
00000000: d99e 523d bec6 8dbc bb7f 00be e561 613c
00000010: 613f 14bc 9e08 cf3c 8706 4f3c 7605 063d
00000020: 8ebe 94bb ddeb 3bbb 703a d0bc 5e1f 3b3d
00000030: 0cf9 e5ba abc5 713c e6d4 15bd b6ed 6cbc
00000040: 3b84 33bd a8ce 473c 3dd7 f2bc eb4b 45bc
00000050: 76cb 1dbb 9407 873d 7950 0f3d 223e 7b3d
00000060: 8919 19bd 424b 37bd d054 003d bfb7 f23c
00000070: 4cb7 cc3c 830c 393d e454 00bd 2bac 793d
00000080: 7a35 89ba fba5 883a 9cf4 b3bb 0ecd c83c
00000090: 829e d53a 12aa a53a 8d4f 86bc 942e 513d
000000a0: e31f f63c 6019 873d 6f4c 09bd a2d6 b33d
000000b0: 1dde fbbb 4e09 283d 7f39 1e3d de40 843d
000000c0: 4c5a 653d 824c 2b3d bd8e 263d de71 983d
000000d0: 1e5d 6b3d 5ab6 d7bc c76c 0fbd b309 ba3c
000000e0: 4144 17bd 448f 09bc ebec 0b39 bf5e 39bd
000000f0: 6cbe 5c3d a2f4 cabc 7995 3b3d 19bb 81bd
0.05142102 -0.017306682 -0.12548725 0.01375625 -0.009048314 0.025272664 0.012635834 0.03272005
-0.0045393175 -0.002867452 -0.02541849 0.04568421 -0.0017545535 0.0147566 -0.03657999 -0.014460972
-0.043827277 0.012195267 -0.02964365 -0.012042026 -0.002407757 0.06593242 0.034988854 0.06133855
-0.037377868 -0.044749506 0.031330884 0.029628633 0.024989747 0.045177948 -0.031330958 0.060955208
-0.0010468208 0.0010425443 -0.005491806 0.02451184 0.0016297849 0.0012639186 -0.016395355 0.05106981
0.030044502 0.06596637 -0.03352016 0.08781172 -0.00768639 0.0410245 0.03862905 0.06457685
0.055994317 0.04182101 0.04066347 0.074435934 0.05746185 -0.02633207 -0.035015848 0.022709703
-0.036930326 -0.008395974 0.00013344332 -0.045256373 0.053892538 -0.024774853 0.045796845 -0.06334514

action_model._continuous_distribution.log_sigma f4 [1, 2]
00000000: d344 3bbf 089b 2bbf
-0.7315189 -0.67033434

action_model._continuous_distribution.mu.weight f4 [2, 64]
00000000: b018 9a3d da4c b0bd 38c2 ccbd 6137 52bd
00000010: 7c48 ccbd 357e 46bc 7704 7f3b 1198 563d
00000020: 783f eb3c 2e40 a1bd 55c5 ad3b ebdc 873c
00000030: 1d9f b2bd d235 b53c 268d c6bd 0314 08bc
00000040: 5a9c 2ebd 0c10 0c3d 5cd6 be3b 60d6 a2bd
00000050: af3c 1d3d 5898 f23d 6e04 58bc 5e83 cc3d
00000060: 2ad0 c9bd 071e debd 2427 35bc d0ec 903d
00000070: 28da 8c3d 3aeb 743d fb41 04bd 482a f93d
00000080: 3a44 7ebb e6d9 b43b d328 56ba a323 06bb
00000090: d506 bc3c 0b5f 14be 05df 18bd c75f aa3d
000000a0: 40b9 3f3c a976 903d f2c7 0ebd 2c68 0d3e
000000b0: 4ae1 88bd 31bd 8cbd c427 c1bd dece af3d
000000c0: ac43 a73d ece6 883c 0102 833d 9818 ba3d
000000d0: 23cc a53d 5b37 55bc 4bca e3bd 46f8 88bc
000000e0: c699 51bd 8793 a03c 3aca 79bc 03e8 1fbe
000000f0: c38a dc3d d16e 41be 11b0 2a3d 4a07 e8bd
00000100: 84c7 aa3d 1b36 50be a9a5 22bd c483 163e
00000110: be6f eb3d 9020 c93d d405 9a3d 3d5c fbba
00000120: ffc3 d0bc 2dad 2a3e 723b fc3b baac 8abd
00000130: 814b 363e 3afb 173e a2fd 4ebc c8bb 1ebe
00000140: a15c 6fbd 6ccd fb3c 0fd2 d7bc 86c7 033e
00000150: dc27 82bd 37b9 18bd eccd b73d a3cf 81bc
00000160: 670d 21bd f87e 0ebe f0e7 963d e975 77bd
00000170: e6b7 4bbd d676 343c 212e b3bd a26f 61bc
00000180: 06d3 67bb 4f43 34bb 9159 463c 4a31 3b3d
00000190: a9d4 3dbe fb43 a2bd 7254 ffbd b4f7 8bbd
000001a0: 8526 903c 0ac8 363d ae8a 0bbe d06f 42bc
000001b0: 23c4 bfbd e55d 1a3e 6123 593e 6bfc 863d
000001c0: d8fc c3bc 4ed5 173e 8e75 a43c e322 073d
000001d0: 72ef 93ba 9e23 d3bd e079 dfbc c1ea 213e
000001e0: 7841 973c f10d 48bd 36dc 3e3a f44a ecbd
000001f0: fdb3 633c 038b 14bd 3c0b 9c3d a430 2fbc
0.0752424 -0.08608408 -0.09997982 -0.051322345 -0.09974763 -0.012115051 0.0038912573 0.052391116
0.028716788 -0.078735694 0.005303065 0.016584834 -0.08721755 0.02212039 -0.09694891 -0.008305552
-0.042629577 0.03419499 0.0058238935 -0.07951045 0.03838795 0.118454635 -0.01318465 0.09985994
-0.09854157 -0.10845571 -0.011056695 0.070764184 0.068775475 0.059794642 -0.032289486 0.12166268
-0.003879799 0.0055191396 -0.00081695354 -0.0020468018 0.022952477 -0.14489381 -0.037322063 0.08319049
0.011701882 0.07053883 -0.03485865 0.1380927 -0.066835955 -0.06872023 -0.09431413 0.08584379
0.08167204 0.016711675 0.063968666 0.09086722 0.080955766 -0.013013686 -0.11122569 -0.016719949
-0.05117204 0.019601597 -0.0152459685 -0.15615849 0.10768654 -0.1888993 0.041671816 -0.11329515
0.08338836 -0.2033314 -0.039708767 0.14698702 0.114959225 0.09820664 0.07520643 -0.001917727
-0.025484083 0.16667624 0.007697516 -0.06771226 0.1780224 0.14841929 -0.012633713 -0.1550132
-0.058437947 0.030737601 -0.02634528 0.12869081 -0.06355259 -0.03728601 0.08974823 -0.01584608
-0.039319422 -0.13915622 0.07368457 -0.060415182 -0.049735926 0.011014661 -0.08749033 -0.0137595255
-0.0035373583 -0.002750594 0.012106315 0.045701303 -0.18538155 -0.079231225 -0.124672785 -0.06834355
0.017596493 0.044624366 -0.13627121 -0.0118674785 -0.09363582 0.1507488 0.21204902 0.06591114
-0.023924276 0.14827463 0.020075586 0.032992255 -0.001128657 -0.10309528 -0.027279794 0.15812208
0.018463835 -0.04884142 0.0007280739 -0.11537734 0.013897893 -0.036265384 0.0761933 -0.010692749

action_model._continuous_distribution.mu.bias f4 [2]
00000000: abda 853d 1eb9 123d
0.06535848 0.035821073

action_model._discrete_distribution.branches.0.weight f4 [2, 64]
00000000: f5b0 34bd 3ada d23c 8c7f cf3d 9c02 4dbd
00000010: 46b8 97bb ea53 cdbd 17d5 cabb 38a2 573d
00000020: cb72 00bd ac14 11bb 9fa6 c83d 9b05 9abc
00000030: db5d 5dbd 5409 63bd 1e3a 9e3d fcbc 823d
00000040: 2896 cd3d ed30 e3bc 4dc7 84bd 1992 a2bd
00000050: 57e0 993c 3bdd 83bd 446d 28bd c6f6 b1bd
00000060: e637 bc3d 93a2 ab3d ca4f 303c cbda 51bd
00000070: 44da 0bbd 7d5e a6bd 62e9 763d 13e0 92bd
00000080: 0fb9 b93d 4e69 65bd 4631 70bd 9bd6 553d
00000090: b611 793c dd4c faba c576 ef3d be5e 55bd
000000a0: f9a2 003d 2eb2 debd c2a6 4b3d 63f9 bebd
000000b0: 510f c33d 6bf3 2b3b 4ed7 3eba c3e7 afbd
000000c0: 098f 73bd 627d a4bd 1bc6 b6bd e93c 88bd
000000d0: 1155 86bd 8297 063e 0f71 2a3d eca2 acbd
000000e0: d9fd 4a3b 87e5 08bc bc5b 0d3d 40b6 6e3c
000000f0: 0561 2cbd 7e78 5cbc 80e8 bebd 2933 b63d
00000100: e720 4f3d fbd7 ccbc 885b c9bd 7822 713d
00000110: 538c 213b 6418 e93d b4a5 d6bc b7ab c7bc
00000120: c48a 033d 0578 70bc a74a 6bbd 3248 38bc
00000130: b840 973d d601 383d 62a9 afbd 541a b2bd
00000140: 3fb5 98bd d49f 9eb9 8e73 753d a79f a93d
00000150: 7a53 eebc b956 843d 6889 193d d771 ac3d
00000160: 2472 fbbd 15ef d0bd 9641 483a 0860 1c3d
00000170: 309b 2b3d 3e27 b93d 6bb5 b7bd d029 a13d
00000180: 7a3a c5bd 8b03 213d 392e 753d 4f3f b4bd
00000190: 9005 6f3c 7547 f23b 2e63 0abe f07a 2f3d
000001a0: ccba c0bc 97ec 9c3d dc35 2fbd b68c a13d
000001b0: 4d62 07be 4210 733b 722c b73c 6d8f ce3d
000001c0: a6c8 883d 9785 a53d dfbd 9b3d a765 5f3d
000001d0: 21d0 a33d 9f04 c6bd c799 bebb 2332 a53d
000001e0: 6d7c 293d e7fa fabb 3590 09bd 2cb6 e73a
000001f0: 159e 623d 6cad 0fbb 330a ab3d 7378 9cbd
-0.044114072 0.025738824 0.101317495 -0.050051317 -0.0046301214 -0.10025771 -0.006189953 0.05264494
-0.031359475 -0.0022137566 0.097974055 -0.018801501 -0.054044586 -0.055428818 0.07725929 0.06383702
0.10038406 -0.02773329 -0.06483326 -0.07938022 0.018783731 -0.06438681 -0.04111983 -0.086896464
0.09190349 0.08380618 0.010761211 -0.051234048 -0.0341437 -0.08123491 0.060281165 -0.07171645
0.090685 -0.05600863 -0.05864074 0.052206617 0.0152019765 -0.0019096393 0.11692575 -0.052092306
0.031405423 -0.10873829 0.04971958 -0.093249105 0.09524406 0.0026237618 -0.00072800077 -0.08589127
-0.05946258 -0.080317274 -0.08924504 -0.06652243 -0.06559194 0.13143733 0.041611727 -0.084295124
0.003097406 -0.008355505 0.034511313 0.014569819 -0.042084713 -0.013456462 -0.093216896 0.08896477
0.050568487 -0.025005331 -0.09831911 0.058870763 0.002465029 0.11381605 -0.02620206 -0.024373872
0.03211476 -0.014677052 -0.05744424 -0.011247681 0.07385391 0.044923626 -0.08577229 -0.08696428
-0.07456445 -0.0003025519 0.059924655 0.082824044 -0.02909254 0.064618535 0.037484556 0.08420151
-0.1227763 -0.10201851 0.00076391676 0.03817752 0.041896045 0.09040688 -0.089701496 0.07869303
-0.09630294 0.03931002 0.059858534 -0.08801138 0.014588729 0.0073937722 -0.13514397 0.04284185
-0.023526572 0.076623134 -0.042775974 0.078881666 -0.13221093 0.0037088548 0.02236006 0.1008595
0.06678896 0.08082121 0.076045744 0.054540303 0.07998682 -0.0966885 -0.0058166715 0.080662034
0.041378427 -0.0076593044 -0.033584792 0.0017678193 0.05532654 -0.0021923436 0.08351555 -0.07640161

action_model._discrete_distribution.branches.0.bias f4 [2]
00000000: e57b bebd e77b be3d
-0.09300975 0.09300976
