Assets/ML-Models/AirCollector_Default_Run04.onnx (onnx, 145925 bytes, 9 tensors)

network_body._body_endoder.seq_layers.0.weight f4 [128, 137]
00000000: 2a11 51bd 752f 6c3d ce2d 00be d763 7dbc
00000010: 0bec b83c f96f 6dbb f30d 343d 3a13 ff3b
00000020: b2ba 393e d398 6a3c 0029 debd bcf8 d7bc
00000030: fd8c bf3c a121 343e ad29 013d 5dc2 07bd
00000040: ca4b b83d 3f28 c53d f44e 293e 13d0 07be
00000050: 08a0 e4bd 6d3a 97bd 21d1 813d 4937 cb3c
00000060: b3d3 31bd d14c 903d b7d2 8abd 94f3 d03d
00000070: 6085 7dbe bed5 71bd 690c b2bd accc 3e3e
00000080: e16c e2bd d180 18bd e43b 88bd f4b1 853d
00000090: a9a2 db3c 0aef 0bbd 357e 8ebc fb42 bb3b
000000a0: e5a6 0bbe ddc1 d93d a22f 9cbd 1c7c a1bd
000000b0: 9a6f e5bc e93a 7f3d 8612 1cbd cd3a 133e
000000c0: a0bd 14be 4d0e b3bd c590 043e 5cc4 d03b
000000d0: 14a0 1bbe 3c8e 2e3e eed0 cbbd dd4a b93c
000000e0: dc3e cabd b572 c23c 2e50 463d 4335 01be
000000f0: 13cc 0dbc 4c49 493d 22ac 383e 54fd 1fbe
00000100: 4583 31be 52fa 2fbc 4df3 6fbc d471 e8bd
00000110: c1f0 dd3d 16ea 5b3e 0b49 0abe 0475 3a3e
00000120: b422 23be 37ba c0bd 4bb7 82bc 00c5 193b
00000130: e79c 193d d4a0 84bd e368 a8bd 17b7 833c
00000140: 72e7 d1bd 17cc 5abc c0d1 903d 3f57 bfbc
00000150: c1c5 e6bc 5788 3bbd ff03 77bd e660 653d
00000160: 2e70 10bc 72d1 9cbd 313a 9cbc c565 8abd
00000170: 4493 24be 7259 07be 9edb 6abc 529b 123e
00000180: acb1 86bd c990 93bd 900d 0abe 6244 7abd
00000190: d741 213d 3c54 a7bd b3d5 7abd 8f42 1cbd
000001a0: dac9 1ebe 4a18 223d 3fcd c43d 85d6 ccbc
000001b0: 29f1 aebd 9acb b7bd df22 f13b 3097 0b3c
000001c0: 41af 1bbe 259f f33d 1bc4 10bd 3700 703d
000001d0: 828f 43be 1877 843c bf12 76bb 36ad 33be
000001e0: 39d9 39bd 5212 153d 43d9 a23d 1c6c 9d3c
000001f0: 00df 56bd d5fb d7bd f4d9 b43d 03fb c03b
00000200: 0c20 383c 9e0e babd 9461 963d 327c 033b
00000210: db6b 72bd 395f d93b ec42 04be 8e5d 063e
00000220: 95e9 3f3b 0636 0ebe 5413 38bd 97b0 333d
00000230: c051 54bb 9a0d 243d 02f3 9fbd db81 b0ba
00000240: 5351 2d3e 5982 70be be13 08bc b2fd c93d
00000250: 823f 0b3d 3651 4fbe 6aae d83d 1cf3 96bd
00000260: c23c 8d3c e5a5 52be e646 d8bd 0bcb 023e
00000270: d7e4 203e db88 2dbe 36b4 ae3d 67bc 7ebb
00000280: 0b42 f63c 25ce 65be 1564 84be e386 053e
00000290: ec1e 083e c942 053d ea07 5f3d 1c29 efbd
000002a0: 8e25 85bc 63f9 21be 4087 acbd 67b0 823d
000002b0: 38a3 d23c a57b e2bd edb5 d4bd 211f 0c3e
000002c0: 73d7 7ebc ac2b 11be 7b15 4abd be1e 43bd
000002d0: 093d 9b3d 6f84 babb fa2d 12be 8fa2 ebbd
000002e0: 9e92 673d 2196 f7bd 8426 b5bc fbef cb3d
000002f0: 5116 8bbd a216 32be 5766 f43c 385d 1f3d
00000300: 73a9 7fbc 0a7f f2bc 8a4d 43be c615 4abd
00000310: 705b a4bd b0b2 cbbd 4c8e 82bc 3fda cabd
00000320: 5f0a 6e3d caff 793d 4640 903d 4d73 ff3c
00000330: 648e 5cbd 7161 69bd 8a76 2dbe dce9 11bd
00000340: f8b6 febd c1b4 fcbb 3830 153e ee7a 253e
00000350: 060e 6dbd fb5d 1cbe 010c e1bb 132c 2c3d
00000360: 046a 98bc 016f 0b3e f063 40bc ff92 13be
00000370: b55b 9e3b fc11 13be f799 84be a0e4 703e
00000380: 33f9 0a3e a4b2 afbd 5cb9 1e3d f315 ef3d
00000390: f7e6 063c ec08 28bd 9d18 a93d 2baf 303c
000003a0: 452c e0bd c3d0 d3bd 1ada ca3d 3104 cf3b
000003b0: 6dd3 6e3d e873 a1bd 787f 283e 9382 37be
000003c0: 9785 c9bb cb75 ecbd 22c9 753c 1362 cebb
000003d0: 2d3c 443c 59a3 dfbd 765e 3a3d 55c2 53bc
000003e0: 6b4c 783e 9390 24be 515b 423d fe75 6f3d
000003f0: 74a7 8e3d dec0 01bd 0f56 263e a3e4 9a3d
-0.05104176 0.057662446 -0.12517473 -0.015465698 0.022573492 -0.003623007 0.043958616 0.0077842744
0.18137625 0.014318663 -0.10847664 -0.026363723 0.023382658 0.17590953 0.031533886 -0.033144344
0.089988306 0.09626817 0.16534024 -0.13262968 -0.11163336 -0.07384191 0.06338716 0.024806635
-0.043414783 0.070459016 -0.06778472 0.10202709 -0.2475791 -0.05904173 -0.08693773 0.18632764
-0.11055923 -0.037232224 -0.06652048 0.065280825 0.02681096 -0.034163512 -0.017394165 0.005714772
-0.13637884 0.106326796 -0.07626273 -0.07885 -0.028007317 0.06231204 -0.038103603 0.143779
-0.14525461 -0.08742962 0.1294585 0.006371064 -0.15197784 0.17046446 -0.099519596 0.022618705
-0.09875271 0.023736337 0.04841631 -0.12617974 -0.008654612 0.049142167 0.18034413 -0.15623981
-0.17335232 -0.010740833 -0.01464541 -0.11349836 0.10836936 0.21476015 -0.13504426 0.182087
-0.15931207 -0.09410518 -0.015956542 0.0023463368 0.03750315 -0.06475988 -0.082231306 0.016078515
-0.10249223 -0.013354323 0.07071257 -0.023357032 -0.028170468 -0.04578432 -0.060306545 0.056000613
-0.008815808 -0.07657136 -0.019070717 -0.06757692 -0.16071802 -0.13217714 -0.014334587 0.14317062
-0.06576857 -0.0720535 -0.13481736 -0.06110037 0.03936943 -0.08170363 -0.061238956 -0.038149413
-0.15506688 0.039573945 0.0960946 -0.025004635 -0.085420914 -0.08974381 0.0073588933 0.008519933
-0.15203573 0.11895589 -0.03534327 0.058593955 -0.19097713 0.01617007 -0.0037547795 -0.17546543
-0.045373175 0.036394425 0.07951596 0.01921659 -0.052458763 -0.1054608 0.08830634 0.005889298
0.011238109 -0.09084819 0.0734283 0.002006304 -0.05918489 0.006633666 -0.12916154 0.13121626
0.0029283513 -0.13887796 -0.044940308 0.04386958 -0.003239736 0.040052034 -0.07810022 -0.0013466434
0.16925554 -0.23487224 -0.008305488 0.09862842 0.033996113 -0.20245823 0.10580142 -0.07370588
0.017240886 -0.20571096 -0.10560398 0.12772767 0.15712295 -0.16946737 0.08530466 -0.003886962
0.030060789 -0.22441919 -0.25857607 0.13039736 0.13293046 0.032534394 0.054450907 -0.11677763
-0.016253259 -0.1581779 -0.084242344 0.06381302 0.025712594 -0.110587396 -0.10386262 0.1368375
-0.015554297 -0.14176816 -0.04933689 -0.04763674 0.07580001 -0.005692057 -0.14275351 -0.11505615
0.05653631 -0.12089182 -0.022113092 0.09957882 -0.06791366 -0.17391446 0.029833956 0.03890726
-0.015604365 -0.029601593 -0.19072548 -0.04933717 -0.08025253 -0.09946191 -0.015936993 -0.099049084
0.05811536 0.061034955 0.07043509 0.03118291 -0.05384673 -0.056977693 -0.1693975 -0.035623416
-0.12437242 -0.007711977 0.14569175 0.16160175 -0.057874702 -0.15270226 -0.006867886 0.04203422
-0.01860524 0.13616563 -0.011742577 -0.14411543 0.0048327097 -0.14362329 -0.25898716 0.23524714
0.13571624 -0.08578995 0.03875099 0.11674108 0.008233777 -0.041024134 0.08256648 0.010783951
-0.10945944 -0.103425525 0.09904881 0.0063176383 0.0583071 -0.078834355 0.16454875 -0.17920904
-0.0061499584 -0.11545905 0.015001567 -0.0062983125 0.011977238 -0.10919828 0.04550024 -0.01292475
0.24247901 -0.16070776 0.047450367 0.058462135 0.06965533 -0.031678073 0.16243766 0.0756314

network_body._body_endoder.seq_layers.0.bias f4 [128]
00000000: bfff a2bb 009e bb3c 283b df3b 766f 29bc
00000010: 2b4f c43b 0782 373b 576f 453c 3d9a 333c
00000020: 8401 213d 2f94 6f3c dcdb 4d3c 0d0d 1d3d
00000030: 6eda d33c 3f14 f7bb befe 9a3c ba98 aa3c
00000040: ea2d 28bc 9e99 ad3c eaec a43c ce1d 833c
00000050: 825a 983c 98fd 003c a796 ac3c 477e 3e3c
00000060: a5ab 2a3c ff50 9c3c e40e 293b 19aa 653c
00000070: 3ebb 93bc 14b2 443c 2f83 be3b 70d2 21bc
00000080: b685 b03b 47a4 923c 1cc4 593c 52af a13c
00000090: 011a a03c c68a bb3c 18a4 123c 247d 2a3b
000000a0: 36a4 803c 7944 b43c dc36 5a3c c563 1d3c
000000b0: 6cec 323c 021e 03bb 392d 7b3c c2e2 9ebc
000000c0: d43d 7e3c 9792 743c abde c13b 35b3 aa3b
000000d0: 976a 5e3c 7bdf 9b3c 1846 8f3c cd55 243c
000000e0: 5af3 bf3c 9d7a a23c 5d95 0e38 0583 f63a
000000f0: 8de1 663c e132 ac3c d795 b53c 2344 913c
00000100: 82e7 54bb 7cd4 2a3b 4f6d 8b3c 938a c8bc
00000110: 7183 c13c 591d c43b 83b8 ad3c 412d 523c
00000120: dc99 833c cf93 773c 6438 963b 9f1b cb3c
00000130: 2e54 e53c 6760 aebb 96ee 9bbb f4a7 e33c
00000140: 4d87 42bc 8d14 b93c cee4 d9bb 39eb c23b
00000150: 54da 263b 6d79 ad3b 178e e23c 938d f23c
00000160: a4a5 f13c b595 773c 4479 dd3c 8471 6d3c
00000170: f1ce 9c3c ec67 b83a a13d 473c 5d3e ce3c
00000180: 2a2b 98bb 55da d63c 1d89 16ba e727 5c3c
00000190: 81b7 cb3b 3558 4b3c 46d8 fb3c a54e 07bc
000001a0: 1bfe 573c 9188 283c caaa cf3b 8768 c43c
000001b0: 421c 7c3c ead3 a73c a687 983c 2212 fa3c
000001c0: b1ab e13b e4d5 263c 87b0 193b 0255 fa3c
000001d0: 4da1 2cbb c9cd 833b 4207 03bc 212d 9b3c
000001e0: a09d 593c 1a7e c7bc b1ae c53c 3011 6dbb
000001f0: 1d5e 1838 0b64 233c 1302 b2bb 8d10 083c
-0.004974335 0.022902489 0.006812472 -0.010341516 0.005990883 0.0028001086 0.012050471 0.010962066
0.039308086 0.014622732 0.012564626 0.038342524 0.025860991 -0.0075402553 0.018920299 0.020824779
-0.010264853 0.021191414 0.0201325 0.016005423 0.018597845 0.007872961 0.02106793 0.011626787
0.0104169 0.01908159 0.002579623 0.014017605 -0.01803362 0.012005348 0.005813978 -0.009876832
0.0053870333 0.0179006 0.013291385 0.01973692 0.01954365 0.02289332 0.008950256 0.002601453
0.015703302 0.022005307 0.013318744 0.009606306 0.010920625 -0.00200069 0.015330606 -0.019395236
0.015517671 0.014927528 0.0059164367 0.0052093514 0.013575218 0.019027462 0.017489478 0.010030222
0.023431469 0.019833857 3.3994544e-05 0.0018807357 0.014091861 0.021020355 0.022166176 0.017732685
-0.0032486622 0.0026066592 0.017019896 -0.02448014 0.023622246 0.005984944 0.021206146 0.012828172
0.016064577 0.015110924 0.004584359 0.024793444 0.027994242 -0.0053215506 -0.0047586663 0.027790047
-0.0118730785 0.022592807 -0.00664959 0.005948451 0.0025459724 0.005294016 0.027655644 0.029608523
0.029497929 0.0151113765 0.027035363 0.014492396 0.019141646 0.0014069057 0.01216069 0.025176222
-0.0046438174 0.026227156 -0.00057424774 0.013437248 0.0062169437 0.012411167 0.030742776 -0.008258496
0.013183142 0.010286466 0.0063374983 0.023975624 0.015387597 0.02048679 0.01861937 0.030526225
0.0068869223 0.010182831 0.0023451166 0.030558113 -0.002634126 0.0040223342 -0.007997336 0.018942418
0.01328221 -0.024352122 0.02413115 -0.0036173575 3.6327274e-05 0.009972583 -0.005432376 0.008304727

network_body._body_endoder.seq_layers.2.weight f4 [128, 128]
00000000: c8a8 c2bb 5cde 9f3d 8427 c5bd 8b3f ee3d
00000010: b34a 19bc f695 a83c 0485 d9bc 094f 5bbe
00000020: 2b99 d9bd 186a 2fbd 7cdd f43c 8997 dd3c
00000030: 242b 013d be6e c43c cc00 abbd 5ebe fb3c
00000040: f608 723d 80f0 c3bc f6b7 203d 6f4a c8bb
00000050: 9a05 72bc bafd 113d dffb d9bd ca8b 8fbc
00000060: dfd0 8c3a 3736 96bd 1b8d b73c b4e4 20bd
00000070: c9cc fd3c 3889 993d ae91 853d 68e0 403e
00000080: 6fdc 22bd 6a2f bcbd aee2 9e3d 91fd ca3d
00000090: 7551 c7bc a9b8 2f3b 7560 613d 64e3 263d
000000a0: 15cd 26bd 57d0 dfbb a8a0 a83c 86e1 70bc
000000b0: f529 86bd 6fe6 fa3d 74f7 023e 98ce 873d
000000c0: 59c2 af3d 4d2a f0bc 350f a7bd 1317 36bc
000000d0: 9f84 2d3d 120b 19be cef3 213e a3fa 73bb
000000e0: 7b82 a83c 04b3 b1bd e580 953d de2d 4f3e
000000f0: ea14 bf3d b019 18be bae4 183d cf9a 7c3d
00000100: a09a a03d 73fd 2b3e 272a a9bd 5d57 cfbc
00000110: 5ed0 b0bd 32cb 10bd c303 e43d ceb5 053e
00000120: 1f6c e8bc edb1 9f3c fe42 2e3e 4ba5 823c
00000130: 1e0e 3cbe 9131 af3c 371c 5b3d ba9a f1bc
00000140: cd2f 83be 5f7c d53d fab5 eb3d b068 813d
00000150: 9b4a e63d d6a7 2a3d 7841 07bd ae0c 93bd
00000160: a38f 683c 7b2a cdbd 8454 50bd f84c a53d
00000170: 63ff f63c 7e3b 133e 9210 02bd 84ec 0b3e
00000180: 0d0b 54bd c4e0 453e 3c17 2abe 3413 34be
00000190: 6cc6 c33d d5af 543d 5e1f 513c be49 4b3e
000001a0: 5e8a 5a3d 9833 383e 2561 d73d a5fe 8a3b
000001b0: cb8e 9cbd f8c3 e13d 55f1 943c bc99 083e
000001c0: a392 ba3d c847 1dbd bf90 463d 4aa5 33bd
000001d0: fa08 2a3d e93f 293d 80f1 633c 28ec 433c
000001e0: 981b d83d f56c b33d 0bb6 c73c 2606 a23c
000001f0: e4ad 823d 2d43 02be 0982 e73d 3af1 f03c
00000200: 7158 183d aced 2abd dc84 0dbd cbc6 59bd
00000210: 1773 263e 68e1 7d3d c48a 023e 535c 663d
00000220: b2e0 d6bd a174 8abd 9a40 34be 1710 35bd
00000230: 0110 823d 594a 16bc 298e 54bc 509f febc
00000240: 42ce 483d 96ae f8bb 5e2d 28bd 678c 4abd
00000250: 80df 4c3d a680 333d 67eb 08be 4e66 25be
00000260: 1ca0 a73c 52ed 1ebe 696d 41bd ce2b 6b3e
00000270: 26a6 a33d 5b29 a63d e3e0 013d 2940 733e
00000280: 1fd0 ad3c 42d6 e1bd d65a 383e f6e4 80bc
00000290: bdf4 013d 16c6 483d 3469 29bc 3072 e2bd
000002a0: e303 eabd 8296 ddbc 0941 a7bd cbee 033d
000002b0: eb8e 62bd 85fe 173e def6 86bc 5099 ef3d
000002c0: 97fe 5a3d 44e4 e23d 121c a53d 8784 ffbc
000002d0: 7b67 57bd 730b 85bd 23c2 193d e595 003c
000002e0: 7d66 84bd 6b64 adbc a609 39be 16cd 463c
000002f0: 2498 033e ef57 193e 79d8 283d 3091 9abc
00000300: ba12 663d 993b e13d 69f2 cf3d 3046 bf3d
00000310: 66ca f0bc 1959 393d ce9b 3b3e b3ab f03d
00000320: 981d b1bd c702 d23d 167a 70bb 951d 3dbe
00000330: 622b 5abd c5ce 503e c61c a83d 4eb1 ceb8
00000340: efa0 3bbc e212 123e 3f0e 29bd 20d0 1a3e
00000350: 2855 e23b fd99 013e 0ae7 4a3e 1605 bbbc
00000360: 7cae 4f3d f78a babc 092b 883d 21be c4bd
00000370: 03d4 c0bd bd22 743d 2acf 3a3e 0d49 1f3e
00000380: 7306 07be 4267 dfbc 53e1 c53d 2443 b9bc
00000390: 494f 323b 10f3 e1bd 5382 3d3b 1088 8bbd
000003a0: 4980 2c3e 646c 22bd c039 c83d 6dc4 883e
000003b0: 01ec 143e ca40 c03c 95df cf3c 8ba4 d13d
000003c0: 27af 17be 06d0 823d b23d 94bd acb2 39bd
000003d0: cf15 65bd a3a2 393d 43b9 363c 6b6d 01be
000003e0: afba 0dbe 73eb aa3d 0471 083e 6c5d 4cbd
000003f0: 2efc eabd 04b1 11bd 6acf 913d 6f41 1e3d
-0.0059405304 0.078060836 -0.09626678 0.116332136 -0.009356189 0.02057932 -0.026552685 -0.21416868
-0.106249176 -0.04282579 0.029890768 0.027049797 0.031535283 0.023978587 -0.08349761 0.030730423
0.059090577 -0.02391839 0.03923794 -0.006112389 -0.014771843 0.035642363 -0.10643744 -0.017522711
0.0010743401 -0.073345594 0.022406152 -0.03928061 0.030981438 0.074968755 0.06521927 0.18835604
-0.039761003 -0.09188731 0.077580795 0.09911645 -0.024330834 0.0026812947 0.05502363 0.0407442
-0.040722925 -0.006830256 0.02058442 -0.0147022065 -0.065509714 0.12250983 0.12789708 0.066312015
0.08581991 -0.029317046 -0.081571974 -0.0111139 0.042362805 -0.14945629 0.1581566 -0.0037228249
0.02057003 -0.08676723 0.07299975 0.2023234 0.09330161 -0.14853549 0.037327506 0.061671074
0.078419924 0.16795902 -0.08259993 -0.025310213 -0.08633493 -0.035350032 0.1113353 0.13057634
-0.028371869 0.019494021 0.17017743 0.015947958 -0.1836476 0.02138594 0.053493705 -0.029492725
-0.25622407 0.104241125 0.11509319 0.06318796 0.112446986 0.041663967 -0.03302142 -0.07180153
0.014194402 -0.10017868 -0.05086185 0.08071321 0.030151075 0.14378163 -0.031754084 0.13664442
-0.05176835 0.19324023 -0.16610426 -0.1758545 0.0955933 0.0519255 0.012763826 0.19852349
0.053354613 0.17988431 0.10516576 0.004241782 -0.07644423 0.11023706 0.018181482 0.13339895
0.0911 -0.038398534 0.048477884 -0.043858804 0.041512467 0.041320715 0.013912559 0.0119581595
0.10552138 0.08761016 0.024378797 0.019778322 0.06380823 -0.12720938 0.11304099 0.0294119
0.03719372 -0.041730568 -0.034550533 -0.0531681 0.16254841 0.061982542 0.12748247 0.05624039
-0.10492076 -0.067605264 -0.17602769 -0.044204798 0.06350709 -0.009172999 -0.012973347 -0.031081825
0.049024828 -0.0075891716 -0.04105889 -0.049450304 0.050017834 0.04382386 -0.13371049 -0.16152307
0.020462088 -0.15520218 -0.047223482 0.22965929 0.07990675 0.08113357 0.03170861 0.23754944
0.021217404 -0.110271946 0.18003401 -0.015734177 0.03172754 0.049017034 -0.010340024 -0.11056936
-0.114265226 -0.027049307 -0.08166701 0.032210153 -0.05531208 0.14843185 -0.016475137 0.11699164
0.053465452 0.110786945 0.080619946 -0.031191124 -0.05258892 -0.064963244 0.03753866 0.007848238
-0.064648606 -0.021166047 -0.18070087 0.012133857 0.12851006 0.1497495 0.04122207 -0.018868059
0.056170203 0.109976955 0.10153658 0.09339559 -0.029393386 0.045250986 0.18321154 0.11751499
-0.08648223 0.10254436 -0.0036693863 -0.18468316 -0.05326403 0.20391376 0.08208613 -9.855871e-05
-0.011451944 0.14265016 -0.04127335 0.15118456 0.006907124 0.12656398 0.19814697 -0.022829574
0.05070351 -0.022771342 0.06648833 -0.09606577 -0.09415438 0.05960344 0.1824309 0.1555521
-0.13186054 -0.027270917 0.09662118 -0.022615023 0.0027207902 -0.110326886 0.002891679 -0.06813061
0.16845812 -0.03965415 0.0977664 0.2671236 0.14543153 0.023468394 0.025375167 0.10236462
-0.14812909 0.063873336 -0.0723833 -0.04533641 -0.055929 0.045321118 0.011152568 -0.12639396
-0.13840745 0.083456896 0.13324362 -0.04989378 -0.11473881 -0.035569206 0.07119639 0.03863662

network_body._body_endoder.seq_layers.2.bias f4 [128]
00000000: b71b 803b dcad 293c f9e0 ecba 6052 abb8
00000010: 718b 093c 5f65 39bc 93d3 7f3a d12b 69bb
00000020: 5d4a 293c 554e 9e3c b071 67ba c3c4 a2ba
00000030: b653 773c e383 893b 378f c03c f6ce c23c
00000040: 08bc 543c 9b9a f33b f184 3abb 8406 cf3c
00000050: 5e79 053c dfd9 e03c ac75 0ebc b591 6bbb
00000060: 8dd2 de3a f670 973c eedf 1a3c 1116 db3c
00000070: 66b7 313c fed7 dd3c dfbe dc3c 24e1 9b3c
00000080: fe3f dabb b50d 953b 06af 7f3c 5352 b93c
00000090: 3ad6 fc3c d15c e93c d54d 573b 50c1 503b
000000a0: 3ca8 113c be95 c73b 173c 703b 3625 283c
000000b0: 33b0 b43b c4af f13b 681d 4a3b ec73 393c
000000c0: 174d c23c 5d94 c73c fb81 27bb 8a05 ca39
000000d0: cb0d d83c 0de3 d83c 7c1c 0bba 6335 8d3b
000000e0: cb75 703c f07a a43c 1733 3ebc e946 413b
000000f0: 9f5e a9bc 3649 9f3c 4f00 9c3c 2e99 813c
00000100: 0b95 84bb c3ed 823c a7a2 283c a07d 45bc
00000110: 920e d93c f548 963c 0921 44bc c10f 853c
00000120: 46a3 9c3c 88be bc3c 65b1 bdbb a1b2 b43c
00000130: c3c5 9e3c c25b 54bc b910 743b 3bed 9b3b
00000140: 0d91 cc3a 34b0 b03c ee68 813c ee71 c33b
00000150: 9d37 89bb e14f 273c 99df 563a cd79 833c
00000160: faf3 533c 2023 eb3a 1dca a03c 51ca 483c
00000170: e0a7 733c 1d8d c03c beb3 143c 3fc5 9bbb
00000180: 536d bb3c 774e 823c c6f2 e53c c4f6 493c
00000190: 4278 5b3c b72c 8e3b c8af 3f3c 57ea ab3c
000001a0: 9f4d be3c 3358 163b 3e84 903a aff5 133c
000001b0: 630f 953b d27d 94bb 7872 163c 5e85 4a3c
000001c0: c4be c43c 5115 923b ac59 393c 9392 613c
000001d0: 7247 1c3c 09e2 003c 3825 d0bb 71db 843c
000001e0: 281a b33c c381 163c 2b95 863c 69a4 cfbb
000001f0: c9fe 5f3c 3231 9b3c 475b 8b3c a09b a23c
0.003909554 0.010356393 -0.0018072418 -8.169259e-05 0.008395062 -0.011315673 0.0009759005 -0.0035579095
0.010332671 0.019324461 -0.00088288914 -0.0012418259 0.015095642 0.0041966303 0.02350579 0.023780327
0.012984283 0.007434202 -0.0028460587 0.025271662 0.008146612 0.027447639 -0.008695047 -0.0035945002
0.0017000005 0.018486481 0.009452803 0.02674392 0.010846948 0.027080532 0.026946483 0.019028254
-0.0066604605 0.004548753 0.015605694 0.022622263 0.03086387 0.028486641 0.0032852788 0.0031853504
0.008890208 0.0060908487 0.003665691 0.010262778 0.0055141686 0.007375689 0.0030840281 0.011319142
0.0237184 0.024362737 -0.0025559652 0.0003853257 0.026373765 0.026475454 -0.00053066737 0.0043093427
0.0146765215 0.020078152 -0.01160886 0.0029491729 -0.020675002 0.01944409 0.019043116 0.015820112
-0.0040460876 0.015982514 0.010292686 -0.012053877 0.026496205 0.018345335 -0.011970767 0.016242864
0.019120824 0.023040071 -0.0057889693 0.022057833 0.01938141 -0.01296133 0.0037241413 0.0047585047
0.0015607193 0.021568395 0.015797105 0.005964509 -0.004187538 0.010211916 0.0008196771 0.01604929
0.0129365865 0.0017939545 0.019627625 0.012255267 0.0148715675 0.023504788 0.009076057 -0.004753738
0.022879278 0.015906556 0.028069865 0.0123269 0.013395371 0.0043388265 0.011699624 0.020985765
0.023230372 0.0022940754 0.0011025739 0.0090307435 0.0045489534 -0.0045316005 0.009182565 0.012360899
0.024016745 0.0044581075 0.011312883 0.013767856 0.009538518 0.007866391 -0.006352093 0.016217919
0.021863058 0.009186211 0.01642855 -0.006336738 0.013671585 0.018944357 0.017011298 0.019849598

action_model._continuous_distribution.log_sigma f4 [1, 2]
00000000: 79b3 2dbe 3dfe 46be
-0.16962995 -0.19432922

action_model._continuous_distribution.mu.weight f4 [2, 128]
00000000: ce44 fd3c 734d 683d 0585 3d3d e5e9 4cbc
00000010: 84dd 0a3d a615 693d 6d48 b23d bcf3 e6bc
00000020: 5d9f 8f3d 2469 4dbd 020f 86bc 2863 803d
00000030: 07b4 63bc 55d7 4b3d 1fab 27bd ef99 51bd
00000040: 5136 8b3d 5e01 893d e480 a33d 1d4e 3dbd
00000050: aee9 813d d472 87bd ddaf 493d 3974 333d
00000060: 023d 273d 7fa7 2bbd 48b4 e1bc 5daa a8bd
00000070: c44b a4bc 65ad 563d f285 d5bc f13a 19bd
00000080: b191 453d fe13 cc3d 83d6 6f3d 993f 8bbd
00000090: 7aaa 4c3c d102 74bd 9135 b53d bafc 583d
000000a0: 8846 f7bc 728d 923d 1e87 aa3d 2760 303d
000000b0: 7d96 633d 50cd 03bd 3c9e ae3d 290c eebc
000000c0: 52c2 1fbd 314f 45bd c10c 8d3d 43ce 90bc
000000d0: 48e4 26bd f1dd 82bd b631 723d c64c 84bb
000000e0: 0c8c 163d 10bf 13bd ea62 833d be6c a23d
000000f0: 0a5d 443d 61aa 0cbc 3bfa 35bd 1076 44bc
00000100: d9e7 823d cff8 8f3d 165b 763d 1f33 5b3d
00000110: d517 72bd b976 14bd 5eed 823d 8eef f1bc
00000120: d2df 823d 8f65 40bd 3c79 543d 1174 63bd
00000130: 4c59 d6bc d284 8d3d 00b5 bc3d c30f 443d
00000140: 7dd6 bd3d d067 4abd 8eba 20bb 7e49 513d
00000150: 87f4 9f3c f3dc 09bb a395 4b3c d3fd 31bd
00000160: 10d6 483d 7e77 8a3d f0be 2b3d 3498 663d
00000170: dd68 00bd 870d 0dbd 40f3 a1bc 43d7 943d
00000180: da51 3fbd 44f0 7f3d d5fe 69bd cafa 1d3c
00000190: 4faf b13d 737b 7e3d 972e ac3d 4161 0abd
000001a0: fd25 8d3c 47ab a2bb 7edc 79bc 404e 69bb
000001b0: 19ce 973d 0dd7 7b3d f0e8 a7bc 7fa1 ebbc
000001c0: 724a 40bd 7a0e 693d c7ac 4f3d ab20 04bd
000001d0: 1bda 943d 91e2 873d ba07 433d c359 773d
000001e0: 71f4 cfbc 9038 3fbc d6cf 893d 88d4 a63c
000001f0: 8f6c f4bc c687 12bd 84af 17bd 247b 12bd
00000200: 6406 2cbd e77d cdbd 49c0 eb3d feaa 53bd
00000210: d00e 8dbc f5d4 25bd 6a8d d73c d23b a4bc
00000220: 069e 503d de10 16bd 8c6b dbbd dd9c d3bc
00000230: b275 d53d c663 cb3b 0f72 383c 057d 44bc
00000240: fc14 f0bd 447b d63b 60f2 e33c b3d4 723c
00000250: 4de7 2f3d cd2f f43c 745e 76bd 7b5a 87bc
00000260: 5b15 9b3d 0542 82bc e75f 8fbb 0afc 813c
00000270: cf09 0f3d 3963 bd3d d34c 753d da5f 8bbb
00000280: 5902 b6bc 436f 6f3c 7300 16bd 0007 2dbc
00000290: ff1e f13d 03d6 6f3d 9a13 023d dd32 aa3c
000002a0: ee91 70bd 3f1e 363d fd0d 903d 60da 973d
000002b0: f066 d03c 79fc 9d3c a479 14bd 5bc4 003d
000002c0: 17e0 753c 0b85 093d aaff 7dbd 28a1 6fbd
000002d0: ddbf 233d 3584 62bc 32f0 033d 2d22 9abd
000002e0: 8bc0 2e3b 56f0 d33d 2a18 8c3d 03ca 75bd
000002f0: cd44 ab3c 5828 83bd 651b 87bc 7baf 8fbd
00000300: ffe9 8fbc 8ff2 833b cd5c 5a3b 4b4f 013c
00000310: f85b dd3c 259e 8cbd a159 d23c c7b2 a53c
00000320: e530 b23d cf48 d73c 77aa 623d 949b 70bc
00000330: aab0 51bd 8f97 213d 9011 c8bc 7f38 1abd
00000340: 74af 07bc 7612 4cbd f2ea b9bd 54a2 86bd
00000350: 2c65 863c f35b 523d 5bb0 aa3d c96b 4dbd
00000360: 95ae 083e d804 05bd 1b3a 76bd b5b2 b73d
00000370: c57b acbd f124 b03d 1a88 d9bd 8093 ef3c
00000380: b882 89bc 8707 b1bd d30c a43c 640b 9b3b
00000390: 18af 67bc b933 45bd 51ef afbc b0b4 323d
000003a0: 5fdf bd3d ef8f b1bd 0110 1ebd 2901 623d
000003b0: dd5f 98bc 390b 4abc e019 e53b 4431 03bc
000003c0: 7295 13bd 4b7a a6bd d156 853c aec5 6dbd
000003d0: 86f7 c53b bf15 f7bb 33b3 353b 2a39 92bd
000003e0: 8b8d 62bd 0aaf 1f3d 9a6e b0bc 6912 20bd
000003f0: 99d6 0bbe 0c4a 163d 17a0 72bb d234 c53c
0.030916598 0.056714486 0.046269435 -0.012506937 0.03390266 0.05690541 0.0870522 -0.028192393
0.07012818 -0.050149098 -0.016364578 0.062689126 -0.013897902 0.049765904 -0.04093468 -0.051172193
0.067974694 0.06689714 0.07983568 -0.046217073 0.06343399 -0.066136986 0.049239982 0.04381201
0.040829666 -0.041907784 -0.027551785 -0.08235619 -0.02005566 0.052411456 -0.026064847 -0.037409727
0.048234645 0.09964751 0.058554184 -0.0679924 0.012491817 -0.059573 0.088481076 0.052975394
-0.030185 0.07155885 0.08326553 0.043060448 0.05556344 -0.032178223 0.085262746 -0.029058533
-0.039003678 -0.048171226 0.06887198 -0.017676478 -0.04074505 -0.06389988 0.05912944 -0.0040374724
0.036754653 -0.036070883 0.06415351 0.07930897 0.04794029 -0.008585543 -0.04442809 -0.011991039
0.06391878 0.07029878 0.06014546 0.05351555 -0.05910476 -0.036246035 0.063929304 -0.029533174
0.063903466 -0.046971854 0.05187343 -0.05553061 -0.026165627 0.06910099 0.092142105 0.047866594
0.09269426 -0.04941541 -0.0024525258 0.05109548 0.01952578 -0.0021036237 0.012425813 -0.043454956
0.04903227 0.067610726 0.04193014 0.056297496 -0.031350005 -0.03443673 -0.019769311 0.072676204
-0.04670892 0.062484995 -0.057127792 0.009642312 0.086760156 0.06212945 0.08407324 -0.033784155
0.017230028 -0.0049642655 -0.015250323 -0.003559962 0.07412357 0.061484385 -0.020496815 -0.02876353
-0.046945997 0.05689857 0.050701883 -0.032257717 0.07268163 0.06635011 0.04761479 0.060388338
-0.025385113 -0.0116712 0.06729095 0.020365015 -0.029836921 -0.035774015 -0.03703262 -0.035761967
-0.041998282 -0.100337796 0.11511285 -0.051676743 -0.017218977 -0.040486295 0.026312549 -0.020048056
0.050931953 -0.03663718 -0.10713872 -0.025831634 0.10422839 0.0062069623 0.011257662 -0.011992698
-0.117227525 0.006545456 0.027825534 0.014821219 0.042945195 0.02980795 -0.06014867 -0.016522637
0.075724326 -0.015900621 -0.004375446 0.015867252 0.034921464 0.09247441 0.05988772 -0.0042533698
-0.022217916 0.014613929 -0.036621522 -0.010560751 0.1177349 0.058553707 0.031756975 0.020776207
-0.05873292 0.04446244 0.07033918 0.074146986 0.02543971 0.019285427 -0.036248818 0.03143726
0.01500704 0.033574145 -0.0620114 -0.0585033 0.039977897 -0.013825466 0.03221149 -0.0752605
0.0026665058 0.10348575 0.068405464 -0.060007107 0.02090683 -0.06404179 -0.016492555 -0.07015892
-0.017567633 0.004026718 0.0033319474 0.00789244 0.027021393 -0.06866101 0.025677504 0.02022685
0.08700732 0.026279835 0.05533835 -0.01468553 -0.05119387 0.03945118 -0.024422437 -0.037651535
-0.008281577 -0.049822293 -0.090780154 -0.065739304 0.016405664 0.05135722 0.083344184 -0.05015162
0.13347848 -0.032475322 -0.060114007 0.089696325 -0.08422045 0.08600796 -0.106216624 0.029245138
-0.016785964 -0.08644014 0.020025646 0.0047315825 -0.014140867 -0.04814503 -0.02147642 0.04362935
0.0927112 -0.08670031 -0.03858948 0.055176888 -0.018600399 -0.012331777 0.00699161 -0.008007351
-0.036031194 -0.08128794 0.016276749 -0.05804985 0.00604147 -0.007540434 0.002772522 -0.071398094
-0.055310767 0.03898529 -0.021537114 -0.039080057 -0.13656081 0.03669171 -0.003702169 0.024073038

action_model._continuous_distribution.mu.bias f4 [2]
00000000: 43ec e8bc 1d42 833b
-0.02843297 0.004005684

action_model._discrete_distribution.branches.0.weight f4 [2, 128]
00000000: a8bd e83b d4cd ae3c 4fe1 d0bb e2f9 d6bc
00000010: f826 b5bc 8e7b 643c 4002 80bb 8981 de3b
00000020: 75b0 93bc 46bd a3ba a76d f23c 7b71 21bd
00000030: 68f2 fb3b b51e ae3b 1483 143d cf4b c63a
00000040: c456 963c 14e4 7dbb fac4 bd37 789e d63c
00000050: 2601 27bc a8c6 1f3d 285c b4bc 5ac4 9e3c
00000060: 2526 8dbd 0440 583c 8822 c5bc 52ed 3f3c
00000070: 960e fdbc ff63 053b c1db 5dbc 8d8c 753c
00000080: e0d1 9bbc 20ae 3ebc 2386 2f3c c22c a9bc
00000090: 5af1 81bc b7cd 21bd 1911 1bba a883 b33a
000000a0: 81b2 85bc 6612 a0bb 3fae 203c f7b3 993c
000000b0: 224d 90ba 4c9a 46bd 4be7 6fbb fff8 203c
000000c0: bdb9 1a3d 75ae afbb 79d7 2dba d8d4 d93b
000000d0: 706b d03c 14e3 e03c 024c fdbd 4807 2bbd
000000e0: 57ad 8c3a 49ea 413c f69a c8bd 5006 173b
000000f0: 9b34 95bc 19de 193b 7562 89ba fe3b a2bc
00000100: fa10 f63b 3a41 c23c b692 be3c 75c3 903c
00000110: 6c7e e03c 1f07 17bd f867 1dbc b958 81bc
00000120: 79a9 d63b d6c4 8a3c f63b 8dbd 9b39 a43c
00000130: d642 da3c 64b0 d7ba 7330 573b adad 1d3c
00000140: 02da 67bc 73ac 45bc 7779 7a3d 7e6a 953c
00000150: 80c6 a63a 38e6 91bc c22d be3c be17 cbbc
00000160: 00e9 9dbc 8a86 3f3b 93ce 3cbc 875f 283c
00000170: 8c2b a1bc 30f9 e5bc a108 db3c dc3c 97bc
00000180: 90ad 6d3c 4db7 a63c ee8e b53c 0ca4 98bd
00000190: 77b8 d4bc 5b45 043c bddf 3c3c 9166 293d
000001a0: fe7e 413c 4c12 9d3c 3a46 083c 0f34 173d
000001b0: 2a7e cd3b b49a ebbc adcf 5ebd c91d 683d
000001c0: fb82 ab3c f863 043d 03e2 26bc 88f7 863c
000001d0: 9646 5a3c aee5 a0b8 e73b 9e3c 852f 353d
000001e0: 6a35 dcbc 2950 463d 8929 c1bb 3798 17bd
000001f0: 8439 4239 27d6 2fbd dd84 21b9 8a36 b53b
00000200: 48de 26bc 6137 08bd 6705 c43c 6f0a 763d
00000210: 0006 c73c 931d 4dbc f1c8 e1bb d058 f2bb
00000220: 9417 c63c bfbf 54bc f509 efbc 4119 b83c
00000230: 3e62 013b 2128 46bc ab91 c2bc 3e23 07bd
00000240: 83fb b9bc 54a5 1bbc 05ef b53a 56ef d9bc
00000250: 3a04 a33c 8067 d8bc e711 d43b 82ce f9bc
00000260: 3b82 5e3d 44d0 7c3a 29ba b43c df9b c6bb
00000270: e8ff b13c 2cea a63a b84d a03c 68ab 79bc
00000280: 1a82 b93b a71c de3c a577 5439 d43f 1a3b
00000290: 82c7 04bc 9ac4 4c3d 97bc 8ebb a9bb e8bb
000002a0: 6916 bd3c 3152 f6ba 0d37 15bb 2819 d0bc
000002b0: e64e 31bc 9ae3 523d fc50 a0bc 9e83 b639
000002c0: 7016 70bc 84ce bd3c df06 66b9 0494 c1bc
000002d0: a9b5 e8bc 1630 d7bc 8f79 073e 4254 443d
000002e0: 3db7 b73c 81a7 dc3a 18fe cd3d 2c3d 3c3b
000002f0: 72f2 103d 8b6b 4c3c 11c7 813c 9da7 c03c
00000300: f615 743b e639 12bc 2e39 943b b91c a7bc
00000310: 7d0f cabc 96df 763d 63a9 a63c 0733 e83c
00000320: fd3e 57ba 1cbe 043c 643b 7a3d ff3b 92bc
00000330: b104 febb 8f58 2a3b 33af 2e3c fa82 f639
00000340: 9d24 d4bb ae94 bd3c df3b 6abd b661 15bc
00000350: 102a a33b 1b8e 573c 54a4 f1bb 76f6 eb3c
00000360: 53d0 093b 598b 8c3b 64fb 5a3c fe63 103c
00000370: 75a4 d63c 60fb 163d 5d26 05bd bbea ff3c
00000380: dff9 bdbc 1258 c83a 1aa3 9dba e566 a93d
00000390: 512b af3b 25ed f8bb 6aa9 4bbc 699e 9dbc
000003a0: 4239 13bc 7b13 99bc 0f34 f3bb d84c a8bc
000003b0: a3b1 86bc cbeb 273c 7adb 633d d25c 81bd
000003c0: 60c7 07bd 31b9 67bd 7590 283a aafe 1d3a
000003d0: 8469 5fbc c69f c8bc 2ab5 d03b 3fb0 f4bc
000003e0: 6f88 263d 7f0e 42bd b20d 653c fa6d e73c
000003f0: 1b3e 80bc 40ea ab3c 1689 85bc 92a2 1dbd
0.007102687 0.02133838 -0.006374515 -0.0262422 -0.022113308 0.013945473 -0.003906518 0.006790344
-0.018028477 -0.0012492321 0.029593302 -0.039414864 0.007688809 0.005313719 0.03625782 0.0015128794
0.01835192 -0.0038740681 2.262228e-05 0.02619861 -0.010193145 0.039007813 -0.0220166 0.019380737
-0.06892041 0.013198856 -0.024064317 0.011714296 -0.030890744 0.0020353792 -0.013541163 0.014987123
-0.019020975 -0.011638194 0.010713133 -0.020651225 -0.015862156 -0.039502826 -0.00059153285 0.0013695853
-0.016320469 -0.0048850058 0.0098071685 0.018762572 -0.0011009315 -0.048486993 -0.0036606367 0.00982499
0.03777479 -0.005361373 -0.0006631534 0.0066476874 0.025441855 0.02745203 -0.12368013 -0.04175499
0.0010732812 0.011835643 -0.097951815 0.0023044534 -0.01821356 0.0023478328 -0.0010481613 -0.019803997
0.007509348 0.023712743 0.023263317 0.017671326 0.027404033 -0.036872026 -0.009607308 -0.015789377
0.0065509644 0.016939562 -0.06896202 0.020047 0.026643198 -0.0016455767 0.0032835274 0.009623927
-0.014151098 -0.012065041 0.061150994 0.018239256 0.0012723953 -0.017809972 0.023215178 -0.024791595
-0.019276142 0.0029224479 -0.0115238605 0.010276682 -0.019674085 -0.028072923 0.026737513 -0.018461637
0.014506713 0.020351076 0.02216288 -0.074531645 -0.025966866 0.008073176 0.011527953 0.04135758
0.011810062 0.019173764 0.008317525 0.03691488 0.0062711434 -0.028760292 -0.054397274 0.05666903
0.02093648 0.0323219 -0.010185721 0.016475454 0.013322493 -7.672176e-05 0.019315673 0.04423477
-0.026880939 0.04841629 -0.005894844 -0.037010398 0.00018522708 -0.04292884 -0.00015403652 0.005530183
-0.010184832 -0.03325594 0.023928357 0.060068544 0.024294853 -0.012519258 -0.006890409 -0.007395841
0.024181165 -0.012985169 -0.029179553 0.02247298 0.0019742395 -0.012094528 -0.0237511 -0.032992594
-0.022702938 -0.0094998665 0.0013880437 -0.026603382 0.019899476 -0.02641654 0.0064718607 -0.030493978
0.054323416 0.0009644071 0.022061424 -0.0060610618 0.02172847 0.0012734584 0.01956831 -0.01523862
0.0056612613 0.027113272 0.00020262467 0.002353658 -0.008104207 0.04999218 -0.0043559778 -0.007102449
0.023081975 -0.0018792805 -0.0022768409 -0.02540262 -0.0108220335 0.05148659 -0.019569866 0.00034811808
-0.014653787 0.023169763 -0.00021937069 -0.02363015 -0.028406935 -0.026268046 0.13229965 0.047931917
0.022426242 0.0016834588 0.1005823 0.0028722985 0.035387464 0.012476812 0.015841993 0.023517424
0.0037244535 -0.008924937 0.004523418 -0.020399438 -0.024665589 0.060271822 0.020344442 0.028344644
-0.0008210985 0.008101966 0.061091796 -0.017850874 -0.007752024 0.0025992726 0.010661888 0.00047018362
-0.006474091 0.023142185 -0.057186004 -0.009117534 0.0049793795 0.013156439 -0.0073743258 0.028804045
0.0021028712 0.0042890725 0.0133656 0.0088129025 0.026201466 0.036860824 -0.03250729 0.031239858
-0.023190437 0.0015285036 -0.0012026757 0.08271579 0.00534574 -0.007596629 -0.012430528 -0.019240575
-0.008985819 -0.018686047 -0.0074219774 -0.020544454 -0.016442126 0.0102490885 0.05562923 -0.06316532
-0.033149123 -0.056573097 0.0006430217 0.00060270226 -0.013635997 -0.024490248 0.0063692527 -0.029869197
0.040657457 -0.047377106 0.013980316 0.028250683 -0.015654614 0.020985723 -0.01630072 -0.038485117

action_model._discrete_distribution.branches.0.bias f4 [2]
00000000: 1c9b 163c 1b9b 16bc
0.009192254 -0.009192253
