Assets/ML-Models/AirPlatformerPlus20.onnx (onnx, 387039 bytes, 9 tensors)

network_body._body_endoder.seq_layers.0.weight f4 [256, 109]
00000000: aac9 423d 2341 0ebd 3dcf 26be ffd2 49be
00000010: a815 923d 9d65 443e 29c1 0fbd 11f2 78bd
00000020: 3729 09be 2ef1 c13d cac1 3abd b328 173e
00000030: ddeb a43d 9bfd 473d eced 0d3e 8589 c73c
00000040: cbbb 87be 7451 a4bd 6b4d fa3c 6f93 20bd
00000050: 2a79 7c3d 0211 173e b4bb 76bd b6c9 7dbe
00000060: 55a1 03be 540f f43b fba5 863d c925 6e3d
00000070: 720d 913d 9472 40bd 555e 803b e253 edbb
00000080: d5c5 72bd 6468 bdbd 8f42 81bd 0cac 0cbd
00000090: 96cb 953e b023 ec3b 559c 7cbd 8f92 a2bd
000000a0: 5784 07bd d0ac 1c3e ccdd 9abd 4d43 8dbd
000000b0: 12fb d43e b215 2b3d 49cd afbd 14c5 f4bc
000000c0: 92c4 bebe 0159 443e 2b4f b2bd 1fda bdbd
000000d0: 50a6 dc3c c043 533d 5086 49bd 4675 e33d
000000e0: 0733 443c 5d67 893d 3aae 32bc c222 dabd
000000f0: e96a f6bd dbf4 903d ce43 8c3d 4ade 52bd
00000100: 3c71 e13d 32c8 08be 444c ba3d 2053 a63d
00000110: 3d06 aebc 66ce 6b3e 96a2 7c3d a1cb a53d
00000120: e3c6 2e3e 97d4 a1bd 5ef0 96be 3eb3 dfbd
00000130: ff6d 9dbe d217 a2bd f181 01bd 5ca5 4bbd
00000140: 6c17 c33e f9b5 1d3b 50c0 423d 9e43 08bd
00000150: b3bc 74be 6b58 2b3c 7929 e439 8c0b 7c3d
00000160: 00a4 293e c162 233b 4b73 e73c 80b9 523e
00000170: f005 833c b4ba 5bbe 3f91 cabd 80d9 073e
00000180: cc5e 163e 49e4 b03c b3cb 80be f622 5dbd
00000190: 5e90 11be f1d3 163d 07d1 0e3e 15d2 b6bd
000001a0: ef7a 83bd eb5f ef3d 1074 11be f0b8 00bd
000001b0: 7391 53be 53b6 613c e50a 243e e510 a6be
000001c0: 5c92 843b 9c52 bb3d c93f 413d 0ea0 06be
000001d0: de50 053e 5e6b 073d 1fd6 60bd 7f68 0e3d
000001e0: c731 acbd b817 403e 0c50 9c3b 727d 033d
000001f0: 54e6 b4bc 9dbc 8d3e f1cd d73d 44df cdbc
00000200: ed8d 5a3b 4ebd 113e e0f4 2fbd e713 f9bb
00000210: 8305 82bd d6d0 0c3e 0372 13be 3b2a e1bc
00000220: 107b 9b3d 37b0 f83d 797f 22bd 374e bb3d
00000230: 058d 693e 3581 8c3d bdce 44bb 0dd2 e0bd
00000240: b3c7 733e 1508 213d 598f 21be 01c1 d63d
00000250: e0a0 60bd da4d 833e 9b6e 46bd 1d5a 38bd
00000260: 28e1 8dbd 3b83 b53e 2ac0 4abe b891 d93d
00000270: 05e9 ffbd 4fe8 023e ebd4 05be c5c5 5fbd
00000280: adbd fdbc dd22 173e 36b2 433e 88b8 67bd
00000290: 1f7a 69bd 0b5b de3d fe91 9cbd b596 ad3d
000002a0: a95a 1d3e 9c11 583e 2f81 bdbd 5607 7bbe
000002b0: 5b11 05be 2bfd 1d3e 48fb e33d ae43 863d
000002c0: c840 1a3c 373b 0fbe 73fa 223e 30c6 3ebd
000002d0: 842f 18be df45 3bbd db49 c43d 3119 e2b8
000002e0: beb2 893d a245 593d dd4b 913d c594 393d
000002f0: d13e f73d c8f7 c2bd 06e9 31be 4d39 503e
00000300: faa9 473c 1cda 7e3d 0f87 4d3d 7b67 26be
00000310: 11c3 54bd a2c7 093e fbb1 8e3c 5c55 14bc
00000320: 4b23 5bbd 78b9 6a3d a771 d43c 644e ec3c
00000330: 0962 aebd 1068 06bd fa72 e9bc c321 343d
00000340: a4a4 043d 751f 013d ba17 4cbe bf62 163e
00000350: e904 1ebd 3398 973d dfe3 21bc 7752 cdbd
00000360: f1a1 2cbe 6a1e b53d 0434 853d e9dd 073d
00000370: 5721 c93d b933 6a3c 6462 19bd b96f 883d
00000380: e71b 09be 323d 6abe 8d0d 2d3e 84f7 083e
00000390: 87ab c53d 2be8 1b3e 1872 adbd 0977 24be
000003a0: e70a 623d da76 18bc 12f2 143e cece 323d
000003b0: 8e08 23be d422 95bb 0d6f b5bc bf10 30be
000003c0: 2818 0d3e c5b1 a5bd 5e2e 373e 94e7 15be
000003d0: cdef 75be 86ec 8fbe 0399 7bbe a45a 2439
000003e0: c0bc 9d3c 4043 923d d955 0f3e a416 5dbe
000003f0: 6f9f 22bd 10af b0bd 4c4e 7abd d579 dcbb
0.047555603 -0.034730088 -0.16289993 -0.19709395 0.07133037 0.19179387 -0.03509632 -0.060777728
-0.13394628 0.094698295 -0.045594968 0.1476162 0.080528 0.04882584 0.13860291 0.024357567
-0.26510462 -0.080233485 0.030554494 -0.039203104 0.06163899 0.14752582 -0.0602376 -0.24783978
-0.12854512 0.0074481163 0.06574627 0.058141503 0.070826426 -0.04698427 0.0039174953 -0.0072426656
-0.0592707 -0.092484266 -0.06311523 -0.034343764 0.29256886 0.0072064027 -0.061672527 -0.0793811
-0.033085193 0.15300298 -0.07561836 -0.06897602 0.415978 0.041768737 -0.08584077 -0.02987913
-0.37259346 0.19174577 -0.08706506 -0.09270119 0.026934773 0.051578283 -0.049200356 0.111063525
0.0119750565 0.06709168 -0.010905797 -0.10651161 -0.1203211 0.070779525 0.0684887 -0.051481523
0.11007926 -0.13357618 0.09096578 0.081213236 -0.021243209 0.23027954 0.06167849 0.0809548
0.17068057 -0.079018764 -0.2948026 -0.109228596 -0.30747983 -0.079146996 -0.031618062 -0.049718246
0.38103807 0.0024064763 0.047546685 -0.03326761 -0.23900108 0.010458092 0.00043518448 0.06153445
0.16566467 0.0024930688 0.028253218 0.20578575 0.015994042 -0.2145794 -0.09890985 0.13266563
0.146846 0.02159323 -0.2515541 -0.05398842 -0.14215228 0.036823217 0.13946925 -0.08926789
-0.06419932 0.11688217 -0.1420443 -0.03142637 -0.20660953 0.01377638 0.16019781 -0.32434765
0.0040457677 0.09146616 0.04717997 -0.13146994 0.1301913 0.033061378 -0.0548917 0.034767624
-0.08407932 0.18759048 0.0047702845 0.032102056 -0.022082485 0.27682963 0.10537327 -0.025130875
0.0033348755 0.1423237 -0.04295814 -0.0076012495 -0.063487075 0.1375154 -0.14398961 -0.027485957
0.07591832 0.12142985 -0.03967235 0.09145778 0.22807701 0.06860582 -0.0030030452 -0.10977564
0.23806648 0.03931435 -0.15777339 0.10486031 -0.054840922 0.25645334 -0.048445325 -0.045007814
-0.06927711 0.35451683 -0.19799867 0.10623497 -0.12495617 0.12783931 -0.13069503 -0.054631967
-0.030974234 0.14759393 0.19110951 -0.056572467 -0.05700123 0.10857209 -0.07645033 0.08476011
0.15366615 0.21100467 -0.092531554 -0.24514517 -0.12994902 0.15428607 0.111319125 0.065558776
0.009414859 -0.13987432 0.15915851 -0.046575725 -0.14861876 -0.04572093 0.09584399 -0.00010781212
0.067235455 0.053044923 0.07094548 0.045307893 0.12072528 -0.09519917 -0.17374048 0.20334359
0.012186522 0.062219724 0.05017763 -0.16250412 -0.051943842 0.1345506 0.017418852 -0.009053554
-0.053500455 0.057305783 0.0259331 0.028845973 -0.085147925 -0.032814085 -0.028497208 0.04397751
0.032383576 0.03152414 -0.19930926 0.14686106 -0.0385789 0.074020766 -0.009880989 -0.100254945
-0.1685865 0.08843692 0.06504062 0.033170614 0.09820812 0.014294558 -0.03744735 0.066619344
-0.1338955 -0.22874907 0.168997 0.1337567 0.09651857 0.15225284 -0.08469027 -0.16061033
0.05518618 -0.00930568 0.14545467 0.043654256 -0.15921232 -0.004551271 -0.02214768 -0.17193888
0.13778746 -0.080905475 0.17888781 -0.14639121 -0.24017258 -0.2811014 -0.24570088 0.00015674025
0.019255042 0.07141733 0.13997592 -0.21590668 -0.03970283 -0.086271405 -0.061109826 -0.0067283907

network_body._body_endoder.seq_layers.0.bias f4 [256]
00000000: 030a 81bb 6e90 f53a d86b 003c 2e34 6f3c
00000010: d5a5 41bc 4ebf 243c 6653 c939 21bb c93c
00000020: e079 2b3b 20e9 143b 101d 75bc 2ba9 78bc
00000030: 6309 d5ba b149 993a 6e3d c13b 5535 36bc
00000040: c2ed c6bc c5f9 c83c 9b6d 07bc 7e03 86bc
00000050: 9f66 2c3b 6b91 8c3c a296 7fbc 5bc7 a93b
00000060: 32ca 44bc ff0c 003d e7b7 a3bc b0d1 ed39
00000070: 7fe2 bbbc ab31 c33c e77a 223c a400 513d
00000080: 22a0 f53b b550 d93c 4c69 78bc 4945 11bb
00000090: b25b f4bb 8435 573a db68 c6bc 4af8 de3c
000000a0: d483 0dbd a09a d0b9 9e56 f3bc 1432 00bc
000000b0: 57a1 90bc 5d03 3f3c c0df 163b 00ab e2bb
000000c0: 8478 4ebb 9ff7 c43b b3c2 eebc bb4a 4c3a
000000d0: adee 0c3c 7de7 fb3b 37e9 6ebc 0be0 033d
000000e0: af06 a2bc a474 173d deb8 643c 9603 d93c
000000f0: 9764 0dbd 4c43 eebb c173 ebbb 5064 fb3c
00000100: b00f ee3b dfac 94bc 514c 953c 7087 ccbc
00000110: 12f3 2739 9517 93bb 42ec 4abc ad57 8abc
00000120: 7496 423c 2d1d 9abc 2402 213d 5201 cbbc
00000130: 5422 b3bc 852a e7bc 8a65 7d3a 78c0 893a
00000140: 89bf b3ba 5881 913c b8bb 2a3b 01ac 92bb
00000150: 2526 ebbc 41e8 fe3b efcb 863b 5c67 1b3c
00000160: 3830 8fbc 93b8 89bc 8270 e93b 3175 89bc
00000170: 5fcf fbbb 9ded e03c cd78 0b3d c8f2 613c
00000180: f6fb 153c b578 553c a25b 423a 94cd 39ba
00000190: 8385 f4bb 4a95 323c 9af5 6bbc c11a 94bc
000001a0: 916e 35bb c69a 9b3a 30c1 953c 6966 37ba
000001b0: 0eb0 a1bb 3c66 28bd 36d9 e1bb c751 0dbc
000001c0: 639a 983c e06b 12bc c04b 823c 04a0 c83c
000001d0: 8ea8 baba 472e a83b 892e 93bb e88e 8e3c
000001e0: 477b 0cbc 0f49 a9bc 7ac3 c1bb 1efe 04bc
000001f0: 05b0 a5bc 1f4d 0b3c 4080 463c 1b30 53bb
00000200: 966d a8bc 5701 553c fb78 243c bac7 90bc
00000210: 9a01 26bb 1d0d 02bd 5cf7 41bc 2d01 1a3c
00000220: 4861 75bc b398 e7bc b8c0 9fbc f006 113d
00000230: 5d32 873b e231 f1bc abfe 5dbc 0e50 a23c
00000240: ab36 49bc 8001 be3a 6106 d7bb 2ab1 42bc
00000250: ae66 15bd 1298 2bbc 0bd0 303c e7fb d4bb
00000260: a758 753b e3d0 d7bb 7c1c 883c b644 73bc
00000270: 2d23 9b3b 49c8 1e3c 9b47 2d38 d5a5 15bb
00000280: 8983 2cbb 99cb 693c dd7b 98bc a1a3 ccbc
00000290: 1b1b 1dbc db24 0d3c c2d4 e13b 076a 8ebb
000002a0: e77a 3a3c 7069 6d3b 637b 053c 2dc1 c7bb
000002b0: 448f 0abb bc16 713c 579a e6bc 453b 30bc
000002c0: c928 8dbc 141f 50bb b858 0fbc 4406 cdbc
000002d0: 50d8 c9bc 6767 263c 9197 043c dacb cbbc
000002e0: 88af 693c 6881 a3ba 994c f93b ab70 263c
000002f0: 0972 313c 489b 463c 4367 8e3c 4126 26bd
00000300: a35d 8d3c eadd 68bb df0c efbc 5fda 14bd
00000310: acf0 343c cf6c 56bc 85a2 57bc ce82 d4ba
00000320: 3e9c d43b 17e6 093b b093 bdbc 407f be3b
00000330: 70a9 2b39 e7c5 a3ba dfd7 33bc 3e20 b33b
00000340: ab50 d83b fa34 c43c 7c23 9abb a029 22bb
00000350: 2c7e a13c 1760 36bb 0b89 663c 3f51 88bc
00000360: 596a 513c 5c5a b03b 8838 833c b91a a3ba
00000370: 3a6b 543c f4b1 6f3b 033d e2bc ec3e 7bbb
00000380: 7a9b cf3c 1861 65bb 5cd8 663c f233 603c
00000390: 57bb 553b 5c48 5bbb 3534 a2bc 6109 883c
000003a0: a1e2 91bb ee8b 5c3b 1464 a8bb 226a a4bc
000003b0: 47eb 50bc a0d4 b83b e524 a13c db58 473c
000003c0: 20a7 cc3c 6914 2bbc 83f7 07bc 7379 0b3b
000003d0: c05f c03c 58c0 413c 6610 643c 0029 1fbc
000003e0: 0bec f5bb 7dc6 64bb 1423 38bc 60c8 85bc
000003f0: 4baf 573c 3205 bbbc c63b cfbb 51d9 9bbc
-0.003937961 0.001873506 0.007838212 0.014599843 -0.011819323 0.010055376 0.00038399844 0.024625363
0.0026165172 0.002272196 -0.014960542 -0.015177052 -0.0016253408 0.0011694935 0.0058972156 -0.011121114
-0.024283294 0.024533162 -0.008265878 -0.016359087 0.0026306284 0.017159184 -0.0155998785 0.0051812357
-0.012011098 0.031262394 -0.019985152 0.00045360392 -0.02293515 0.023827394 0.0099169975 0.051026
0.007495896 0.026527742 -0.0151618235 -0.0022166541 -0.00745722 0.00082095736 -0.02421992 0.027218003
-0.03454955 -0.00039788056 -0.029704388 -0.00782444 -0.017655058 0.011658517 0.002302155 -0.0069173574
-0.0031504938 0.006010964 -0.029145574 0.0007793118 0.008601827 0.0076875077 -0.01458197 0.032196086
-0.019778578 0.03697647 0.013960091 0.026490968 -0.034519758 -0.007271206 -0.00718543 0.030687481
0.0072650537 -0.018148838 0.018224867 -0.024966925 0.00016016912 -0.004488895 -0.01238543 -0.01688751
0.011876691 -0.01881274 0.039308682 -0.024780903 -0.021866955 -0.028218517 0.00096663146 0.0010509631
-0.0013713698 0.017761871 0.002605183 -0.004476071 -0.028704712 0.0077791517 0.0041136662 0.009485092
-0.017479047 -0.016811645 0.0071240077 -0.016779514 -0.0076846327 0.027457053 0.03405075 0.013790794
0.00915431 0.013029267 0.0007414167 -0.00070878235 -0.007462205 0.010899851 -0.014401818 -0.018079164
-0.002768431 0.0011871688 0.018280596 -0.00069961563 -0.0049343174 -0.041113123 -0.0068923486 -0.008625454
0.018628305 -0.008936852 0.015905261 0.024490364 -0.0014240907 0.00513247 -0.0044916314 0.017402127
-0.0085743135 -0.02066472 -0.005913195 -0.008117227 -0.020225534 0.008502274 0.012115538 -0.0032224718
-0.020560067 0.013000808 0.01003861 -0.017673362 -0.0025330544 -0.031750787 -0.01183876 0.009399694
-0.014976807 -0.028271055 -0.019501075 0.035407007 0.004125877 -0.029442731 -0.013549487 0.019813564
-0.0122811 0.0014496297 -0.0065620397 -0.0118830595 -0.036474876 -0.010473268 0.010791789 -0.0064997557
0.0037436874 -0.0065861805 0.016615145 -0.014847925 0.004734418 0.009691306 4.1313102e-05 -0.002283444
-0.0026323518 0.014269733 -0.01861375 -0.024980368 -0.009588982 0.008614744 0.006891818 -0.0043461355
0.011381841 0.0036226176 0.0081470935 -0.0060960264 -0.0021142522 0.014714893 -0.028149767 -0.010756318
-0.017231362 -0.0031756805 -0.00874918 -0.025027402 -0.024639279 0.010156489 0.008092777 -0.024877477
0.014263041 -0.0012474479 0.007608008 0.010158698 0.010830411 0.012121983 0.017383223 -0.040563826
0.017256564 -0.0035532662 -0.029180942 -0.036341067 0.011043709 -0.013087465 -0.013161306 -0.0016213299
0.006488352 0.0021041685 -0.023141712 0.005813509 0.00016370951 -0.0012494893 -0.010976761 0.00546649
0.0066014132 0.023951042 -0.004703937 -0.0024744049 0.019713484 -0.002782827 0.0140707595 -0.016640304
0.012781703 0.0053818654 0.016018167 -0.0012443877 0.012965018 0.0036574574 -0.027616983 -0.0038337065
0.025342692 -0.00350005 0.01408967 0.01368426 0.0032612884 -0.0033459878 -0.019800285 0.016606035
-0.004452065 0.003365274 -0.0051388834 -0.02007014 -0.012751407 0.0056405813 0.019670913 0.012167181
0.024982035 -0.010441878 -0.0082987575 0.0021282106 0.023483157 0.0118256435 0.013919925 -0.009714365
-0.007504945 -0.0034908347 -0.011238832 -0.016330898 0.013164352 -0.022829626 -0.006324264 -0.019024523

network_body._body_endoder.seq_layers.2.weight f4 [256, 256]
00000000: 275d 79bd 9363 76bd b3e5 6ebd 93c9 663c
00000010: 4b6f bcbc 4148 33bd 647c 0cbe bf4c 48be
00000020: 0511 c43b c0e1 273d 3b03 bcbd ebc7 223c
00000030: 5baa b9bc 4057 4a3d 1b39 6abd 2615 0c3e
00000040: 684a 97bd c589 21bc 9134 6fbd 9b99 e93c
00000050: e83d 39bb 8095 94bc 30e4 393d 0a6b 933d
00000060: 0453 9c3d af5a e2bc f034 4f3d dbcf a33d
00000070: d9d6 03be af6c 7dbc 1ee9 11bc 5950 443d
00000080: 1e73 af3c 490c 9cbd 9a0e 3cbd 7f69 f0bc
00000090: cb47 a6bc dca0 673d c4fb ed3c 1c0e 013e
000000a0: 9562 953d f9d8 d9bd 591c 223b 2180 393d
000000b0: 5515 033e 427c cbbc aae4 e63d 6e56 9ebd
000000c0: 643b c73d 46e4 81bd 3728 d73c 55a9 473e
000000d0: 55af 3fbe 5875 683d fcc7 efbc b1ca c03d
000000e0: 84f9 51bd 9864 0d3c 1ad7 8f3d 0127 863c
000000f0: 8764 ba3d 2144 533d 411f 7c3d bdce c0bc
00000100: 8482 97bd ec70 533d 78e3 0fbd 757e ddbc
00000110: 94bc 52bc 2079 d4bd 5596 c4bc 653b 153d
00000120: 460d 52bd 7fab 3dbd e476 fe3d ae11 103c
00000130: 319e 9f3d 1af6 02bd 5aa3 ba3d bff5 a33d
00000140: c94b 933d 768f 08bd cad9 0e3e 197c e93c
00000150: b170 cdbc 2fb5 58bd 25ba 803d 6f43 803d
00000160: f6c7 c93c c5d9 b9bd c844 0d3c 7eec e2bc
00000170: 2289 1fbe 1075 9bbd 9b99 92bc a357 623c
00000180: 4c94 64bc d587 bbbd 58df de3c c4dd 62bd
00000190: 44be 7e3d 0e53 b3bd f73f 693d 17ed 2d3c
000001a0: ac71 cabb 3a4a 9d3b bf2d 61bc 4b35 963b
000001b0: fb3a 3a3d cf30 2e39 0795 a93c 2ef5 76bc
000001c0: 5b0d 153d 529c c03c e171 0cbd 5ecf 983d
000001d0: 19b8 96bc f500 8e3c b30e 1fbd 5f62 5abd
000001e0: 29b8 7d3c dd05 073c f6c0 c13d dad8 fe3b
000001f0: a4e9 0ebd e6fa 8bbd a091 2d3d 1064 1b3d
00000200: 19be d73c e5a4 b0bd 22b3 c2bd d882 92bc
00000210: acf3 5c3e 7a73 f7bc 4bd4 84bd 41e8 a4bc
00000220: 79ee fcbc 4666 093b 876c f23d ba54 91bd
00000230: 9979 ca3d a758 303d 537e 3ebe 3610 b03b
00000240: 54cc 3e3d 2718 a4bc 0028 8e3d ee51 1e3d
00000250: cdcf db3d fd5d ecbc ffc9 843d cfdf 47bd
00000260: 4111 efbb 9a0b 0e3c 928c 273e e998 30bc
00000270: bf53 13bc 04bb a53d f0ee 1c3e da47 993d
00000280: 05bc 3fbc 48e8 393d c81b f83d b486 76bd
00000290: 4038 bbbc f0f3 49bc 2efe 12bb c459 dc3d
000002a0: 1b46 48bd 5255 593c f4b5 7abc 33f8 94bd
000002b0: c845 e6bd 1e14 8f3b da0d a7bc 258a bebd
000002c0: 11f6 45bd c957 2fbe f1e9 db3c a7f0 07bc
000002d0: a77e a1bd b1a9 cc3c 4cc5 8abd fadb 69bd
000002e0: 9542 5cbd b0e4 b7bd f6a9 acbb 2ddb 503d
000002f0: d1d6 02be 7b6b f1bd c7fe bf3d d190 7dbc
00000300: e996 99bd 3710 453e 3153 033d 2735 383d
00000310: 91ec cabd 6555 293d fac8 863d c075 c73d
00000320: 51d9 a6bc 7612 153e 8eb2 483d 4beb b13d
00000330: 39e7 883d bb6b 9abd 239e 81bd 392b 6f3d
00000340: 9065 e53d 919a 843d 5946 16bd 09bb ae3c
00000350: b904 46bc 4f66 e2bc 0af7 debd e1c5 64bd
00000360: ca31 77bd d663 1bbd dd31 f5ba 27e2 da3d
00000370: 2e67 e1bd b2a5 b7bd f959 63bd 7359 0cbe
00000380: b66b 2a3d b604 603d 0c9a e7bc b061 803d
00000390: a42c 88bc 0bd1 0a3d ffc9 793c d030 cdbd
000003a0: 5a6d 883d 885c b93c d209 4c3d 7057 48bd
000003b0: b3ee c23d 8913 c33c 5178 8e3d 61ab 753d
000003c0: 000e ab3c 7f2c afbd aaec 9d3c 5752 a9bd
000003d0: 4671 013d 2741 053d e0da f7bd 35ef 19bd
000003e0: a6a2 f63c 8d8c 813d 8140 853d a9a2 97bd
000003f0: fbaa f3bc fb52 b63d a042 983d 7c9e b6bd
-0.060879853 -0.060153555 -0.058324527 0.014086145 -0.023002287 -0.04377008 -0.13719326 -0.19560526
0.005983474 0.040986776 -0.09180304 0.0099353595 -0.02266424 0.049399614 -0.057183366 0.13679942
-0.07387239 -0.009859507 -0.05839974 0.028515628 -0.0028265659 -0.018137693 0.045383632 0.071981505
0.076330215 -0.027631132 0.050587595 0.0799863 -0.12874927 -0.015467807 -0.008905677 0.047928188
0.021417197 -0.07619531 -0.045912363 -0.02934718 -0.020297905 0.05654989 0.029050715 0.12603039
0.07294194 -0.106370874 0.0024736135 0.04528821 0.12801106 -0.024839524 0.11274083 -0.07731329
0.09728125 -0.06342368 0.026264293 0.19498189 -0.18719228 0.056752533 -0.029270165 0.0941366
-0.051263347 0.00862994 0.07023449 0.01637602 0.09101205 0.051578645 0.061553244 -0.02353608
-0.07397941 0.051621363 -0.03512904 -0.027037838 -0.012862343 -0.10374665 -0.023997465 0.036433596
-0.05128219 -0.04630613 0.1242502 0.008793278 0.077938445 -0.031972982 0.09113188 0.08005857
0.07192189 -0.03333994 0.13950267 0.028501557 -0.02507815 -0.052907165 0.06285504 0.06262862
0.024631482 -0.09074739 0.008622356 -0.027700659 -0.15579656 -0.07590687 -0.01789551 0.01381484
-0.013951372 -0.09156767 0.027206108 -0.055387273 0.06219317 -0.08756076 0.056945767 0.010615609
-0.0061781015 0.0048001083 -0.013743817 0.0045839897 0.045466404 0.00016612116 0.020700945 -0.015073104
0.03638969 0.02351204 -0.03428829 0.07461427 -0.018398331 0.01733444 -0.038832378 -0.05331647
0.015485802 0.008241144 0.094606325 0.0077773156 -0.034890786 -0.068349645 0.042375207 0.037937224
0.026335763 -0.08625201 -0.09506823 -0.017884657 0.21577328 -0.03020643 -0.06485804 -0.020130279
-0.030875431 0.00209655 0.11837106 -0.070962384 0.09886474 0.043053295 -0.18602876 0.0053730262
0.04658158 -0.020031048 0.06941223 0.038652353 0.10732994 -0.02885341 0.0648384 -0.048797425
-0.007295758 0.008669758 0.16362217 -0.010778644 -0.008992135 0.08092311 0.15325522 0.07484408
-0.011702542 0.045387536 0.12114674 -0.060187057 -0.02285397 -0.012326226 -0.0022429335 0.10759309
-0.048894983 0.013264971 -0.01530217 -0.07273903 -0.112437785 0.004366412 -0.020392347 -0.09303693
-0.04833037 -0.17123331 0.02684495 -0.008297122 -0.07885485 0.024983259 -0.06775913 -0.05709455
-0.053774435 -0.089791656 -0.0052692844 0.050990272 -0.12777258 -0.117880784 0.09374767 -0.015476421
-0.07499487 0.19244467 0.03206176 0.044972565 -0.09908403 0.041341204 0.06581302 0.09739256
-0.020367296 0.14557824 0.048998408 0.08687457 0.06684727 -0.07540079 -0.0632899 0.05839083
0.11201012 0.06474794 -0.036688183 0.02132942 -0.012086087 -0.027636675 -0.10886963 -0.055852775
-0.060350217 -0.037937008 -0.0018706877 0.106876664 -0.11006008 -0.08967151 -0.055505726 -0.13705997
0.041606627 0.054691993 -0.028271697 0.062686324 -0.016622849 0.033890765 0.0152459135 -0.10019076
0.06661482 0.02262713 0.049814053 -0.048911512 0.095181845 0.023813026 0.06956542 0.059977893
0.0208807 -0.08553409 0.01927789 -0.08267658 0.031602167 0.032532837 -0.12102294 -0.03758164
0.030106854 0.06325636 0.06506444 -0.07404072 -0.029744616 0.08902546 0.07434583 -0.08916947

network_body._body_endoder.seq_layers.2.bias f4 [256]
00000000: 45fd 833c 3e72 60ba eb25 9b3c c2d7 343d
00000010: 84e8 9b3c b400 e9bc 498b 013d 8b18 9ebc
00000020: b37d aebc 46ed abbc d33a 653b df7e 673c
00000030: 1c05 abbc 6167 c8bb d73b f63b 502e 86bc
00000040: 9554 1cbd ae19 aa3b b7d5 a83b 0434 b7bb
00000050: 6618 c13b e9ab 23bc 8034 cfbc 28f7 783c
00000060: dbab 553b 2d27 25bb 22df 65bb c3d1 5dbc
00000070: ff02 853c e2ef e1bb 21a9 3ebd 1c0f bdb8
00000080: 215a d93c 046f e23b 1549 11bc b4d1 7a3b
00000090: 4216 bdbc 3bb7 9dbc 17c0 8f3b 2348 103d
000000a0: 96d5 5a3c 2ee2 fc3c d466 12bc a2fe b43c
000000b0: 4f3f 3fbc c998 2f3c 1a92 b53c 1591 52bc
000000c0: f040 023d fad1 b43b f650 4d3d 2d15 b93c
000000d0: d89b 3f3c 4bac 5a3d 2499 11bc 61e4 2f3c
000000e0: cd8f 843d f953 e43b d36b a33c 8c8f 90bc
000000f0: 56d0 c43c abc0 5dbb 4553 dfbb 58ec f4b9
00000100: afef 803b 054a 1c3c c16a 453c 52a5 0f3b
00000110: a439 b0ba 2e7b 943c 4c79 a63c c7db c73c
00000120: feda 06bd b9a2 d939 b80d 9a3b 0856 283b
00000130: c7e6 123d beac 0f3d 5f55 c73c 5270 2fbd
00000140: 3bb6 acbc 33f6 42bc d940 51bd a9b8 c2bc
00000150: f5a0 d43c 2039 8d3b 819f 513c 3726 20bd
00000160: b2e8 f1ba 5561 f4bb fc46 9bb9 af2a 733d
00000170: 24b0 173c 8131 423c 0040 833c 0b3d cfbc
00000180: b60a 5d3b 559a fbbc 8257 b8bb 349f aa3b
00000190: d6ce f23c 10bf 07bb 0e46 633d 204d 9cbc
000001a0: 454b 99bb d675 7b3c 218f 1e3d 5a45 0e3c
000001b0: 03b6 e93a 6862 5a3c 6ba5 3e3c ad2a ab3c
000001c0: 8ffb 66bc 8eb2 dcbc b14b 36bb 506f 04bd
000001d0: 3031 babb 765f b5bb ba69 fcbc 3144 f43c
000001e0: da42 893c da7c 20bb be14 973c 548e 3c3d
000001f0: c42a b5bc 16ae 4f3d 3cf8 5cba 2026 cb3b
00000200: 76a9 e33b 24a2 2d3c 4b18 db3b dd05 0c3d
00000210: ad85 2bbb ceb2 163d 16a6 dd3c c2a8 d1bc
00000220: 60c6 b7bc 9ec2 633b 7f70 ea3a 751d 92bc
00000230: a563 78bc bf61 373a 869e bdbb 8f1e 063d
00000240: 5ec2 4a3d b3ad dc3c b01f 8eba c0be 3bbd
00000250: a569 5fbc aec2 ccbc a90b a23a a15b 0c3d
00000260: e409 6bbb 150e 1c3d a5b1 1b3c c481 05bc
00000270: 55a6 dc3c d672 843b 9d0a 813d dc88 aabc
00000280: 2314 043d fb19 7dbb c8c0 2f3c e6a8 523d
00000290: 2bcc ba3c fe21 0a3d c9fb a13c 9af3 6e3d
000002a0: ffc1 86ba 6b92 4c3c b8fd 55bb b777 773d
000002b0: 6056 2d3b 25b2 27bc 1650 a13b 9e22 b63c
000002c0: e39b a0bc 39aa 023d 9052 1d3d 8c54 27bd
000002d0: ef73 433d bd3c 803b 7759 44bc adb2 8bbc
000002e0: 2691 593c 79cc 813d e2b5 343d ee2b 733c
000002f0: e038 013c 9851 133c 9a99 0aba 613c 433d
00000300: ee57 023d 50b5 013d a79a 103d b8c2 ddbc
00000310: b5b7 513d e532 2abb 30bc 7d3d 561b b8bb
00000320: 3814 003d d002 27bd 2dcc b7bc 981e ef3a
00000330: cfc3 fa3b dab4 8b3c 5f83 c33b c115 89bb
00000340: eb30 9a3c 04a8 343d 4394 143b 9146 6b3c
00000350: 707b 343d d204 8b3b 8b38 56bc 2434 493d
00000360: 2229 7d3b 162a 04bd b867 ddbc b1bc 76bc
00000370: beb5 533b e8bb 9938 d7e5 0d3c cee4 13bc
00000380: bb1f 953b 86fe 21bd 20e0 c33c 5b72 c23c
00000390: 3554 573d dbdb f43b bd52 f1ba de0f b43c
000003a0: 9252 34bb 722d 0b3d 063e 353b a934 a6bc
000003b0: 56db 9fbb 9231 0b3d 9dd2 fdbc 960f 143d
000003c0: dac2 bf3c e22e c9bc 95f1 3ebc 7087 9abb
000003d0: dcf3 013d bd9a 60bb 8960 25bb ae6f 933c
000003e0: 1c24 453d 2485 43bb 0d9f a0bb 31d4 ee3c
000003f0: 9722 a63c 5309 b93a fbc8 143d 2786 8f3d
0.01611198 -0.0008561945 0.01893898 0.044151075 0.01903177 -0.028442718 0.031626973 -0.019298812
-0.021300172 -0.020987164 0.003497769 0.0141293695 -0.02087646 -0.0061158394 0.0075144577 -0.016379505
-0.0381666 0.0051910495 0.00515243 -0.0055909175 0.005892801 -0.009989717 -0.025293589 0.015195645
0.0032603655 -0.0025200353 -0.0035075624 -0.013538781 0.01623678 -0.0068950513 -0.046548013 -9.0150366e-05
0.026532235 0.0069102068 -0.008867522 0.0038271965 -0.023081902 -0.01925241 0.0043869126 0.035225045
0.013356587 0.03086957 -0.008935649 0.022094075 -0.011672809 0.010717579 0.022164393 -0.012851973
0.03180021 0.005518195 0.05012604 0.022593105 0.011694871 0.053386968 -0.008886609 0.010735602
0.0647274 0.006968018 0.019948876 -0.017646573 0.024025124 -0.0033836763 -0.0068153464 -0.00046715396
0.0039348225 0.009539132 0.012049378 0.0021918607 -0.0013444913 0.018125143 0.02032151 0.02439679
-0.03292369 0.00041510703 0.0047013424 0.0025686044 0.035864618 0.03507685 0.0243327 -0.042831726
-0.021082988 -0.011899519 -0.051087234 -0.023769693 0.025955657 0.0043097883 0.012794376 -0.039098945
-0.001845619 -0.007457892 -0.0002961679 0.059366878 0.009258304 0.011852623 0.016021729 -0.025297662
0.0033728308 -0.03071324 -0.005625666 0.005206967 0.029639643 -0.0020713247 0.05548673 -0.019079745
-0.0046781623 0.0153479185 0.038710717 0.008683527 0.0017830733 0.013329126 0.011636118 0.020894373
-0.014098062 -0.02694061 -0.0027816112 -0.03233272 -0.005682133 -0.0055350615 -0.030812133 0.029817672
0.01675551 -0.002448848 0.018442508 0.046034172 -0.022115119 0.05070313 -0.0008429324 0.006199613
0.0069476916 0.010597739 0.0066862456 0.03418528 -0.0026172206 0.036791615 0.027056735 -0.025593165
-0.02243346 0.0034753452 0.001788631 -0.017836312 -0.015160476 0.00069954613 -0.0057867197 0.032743987
0.04950177 0.026938295 -0.0010843184 -0.04583621 -0.013636027 -0.024995174 0.0012363094 0.03426707
-0.003586405 0.038099367 0.009502803 -0.008148614 0.026934782 0.00404201 0.063008524 -0.020817213
0.032245766 -0.0038620222 0.010727115 0.051430605 0.022802433 0.033723824 0.01977338 0.058337785
-0.0010281204 0.012486081 -0.003265245 0.060416903 0.0026449189 -0.010235344 0.004922877 0.022233304
-0.019605583 0.03190062 0.038408816 -0.040852115 0.047717985 0.0039134906 -0.011984221 -0.017052973
0.013279235 0.06337828 0.04411877 0.014842017 0.007887095 0.008991621 -0.00052871706 0.047665004
0.031822138 0.031667054 0.035303738 -0.027070388 0.051200587 -0.0025970277 0.061947048 -0.005618493
0.031269282 -0.040774167 -0.022436226 0.001824337 0.0076527367 0.01705401 0.0059665884 -0.0041835015
0.018822154 0.044105545 0.0022671379 0.014360086 0.04406303 0.004242518 -0.013075004 0.04912199
0.0038629253 -0.0322667 -0.027026996 -0.015059636 0.0032304372 7.330609e-05 0.008660755 -0.009026719
0.0045509017 -0.039549373 0.023910582 0.02373617 0.05257054 0.007472498 -0.0018411499 0.021980222
-0.0027515036 0.033978887 0.0027655377 -0.020288782 -0.004878442 0.03398282 -0.030984217 0.036147676
0.023408342 -0.024558488 -0.011654277 -0.0047158524 0.031726703 -0.0034271919 -0.0025234541 0.017997589
0.04813014 -0.0029833997 -0.004901773 0.029153915 0.020280166 0.0014117159 0.036324482 0.070080094

action_model._continuous_distribution.log_sigma f4 [1, 2]
00000000: 6dd2 bcbd e5f2 c1be
-0.09219823 -0.37880626

action_model._continuous_distribution.mu.weight f4 [2, 256]
00000000: ed7a af3c b88c fdbd caf0 bb3c 299d 4e3d
00000010: 4c7c 763c 9009 c8bd 093b 353d 2947 f0bd
00000020: 25f5 d9bd 32f9 48bd f5da 0cbe dccb 753c
00000030: 613b 15bd d5b1 f4bd 9e55 013c 2049 bf3b
00000040: bce6 4cbd 510b f33a dd25 15be cc3a dbbd
00000050: 7196 513b 70cf 32bc fad6 ffbd c025 fc3c
00000060: 9130 8937 c941 a13a 58d7 c2bd 095a eabd
00000070: 6a82 543d f589 243b 403e b0bd 055e 54bb
00000080: 3319 463d 79a7 ec3b 507a bbbd 9eaa a93c
00000090: 0214 81bd d0d1 07be d5bf b5bb 58c7 023d
000000a0: 86cc 8b3c 0970 123d cb8b 01be 4cae b43c
000000b0: 179b 79bd d7e3 d63c d641 1d3d fd0c 22bc
000000c0: 5c93 1b3d 801f f43b a64c 693d eb8b 19bc
000000d0: ebdb ae3c c61b 883d 689e 59bc 4311 fa3b
000000e0: 248c a33d 8cba 223c b64b 273d d6bd e7bd
000000f0: bf1e 603d d9c3 0ebe 1ad4 07bd 5583 53bd
00000100: 21ce 0ebe 5a19 f53c 5f1e f1bd f346 02ba
00000110: 98f2 983c 785f a93c 81b9 2ebd 7383 013d
00000120: 9e0b 10bd 6ee1 2fba fe37 95bd 87d0 84bc
00000130: cfb7 6e3d f9c8 653d 1063 f53c cc12 a9bd
00000140: 800f c9bd 4df0 d9bd 2582 d0bd 9baa ebbd
00000150: 6ee9 fc3c 0b4e 21be 5dd6 c3bd 9c8c 9bbd
00000160: 2106 cd3b 197d 97bb 59f1 36be c323 703d
00000170: 3b25 ba3b 7117 c0bb 2801 8b3c b8e1 2bbd
00000180: 5fa7 afbc 2b3c 91bd ed53 ffbd aceb 0abe
00000190: b806 4e3d c8c8 3dbe 0a87 953d 1c7c d8bd
000001a0: b27a bbbc e2ad ba3b 1f2e 593d dea7 cb3b
000001b0: 3199 17be 063d 92bc a84f a13c de22 d73c
000001c0: b3cf 863c fd1a 6ebd ee29 67bb 245a 9ebd
000001d0: 5435 cbbd a5d6 ee3a 3dce afbd ef20 0b3d
000001e0: 7bbf 2f3d 8741 cabb 1bf2 393c 1852 3d3d
000001f0: 1a45 1dbd 2b8c 7f3d 9f1a 26be 8fb8 9d3c
00000200: 6647 913c a24b be3c f86d 373c e587 393d
00000210: 55a2 80bc d0cd 3c3d d270 db3c 42c8 60bd
00000220: 1268 a7bd c4e7 e33b 6f64 20be f735 ddbd
00000230: 0665 f5bd 5c66 d2bd 3005 053a e260 513d
00000240: fc37 7f3d 1442 303d fa73 0abe 9dc8 0abd
00000250: 0768 4dbd 6709 8dbd 7b33 7c3c d02f 343d
00000260: a141 003c 79d0 353d 9a78 7a3c 6e12 f4bd
00000270: afe6 fb3c 3947 bebb ee98 9e3d 4f87 0dbe
00000280: 13ec 4c3b 7d50 f0bd dbec 0ebe 700e 613d
00000290: 60dd c93b 79a6 793d c08e 893b 33db 843d
000002a0: 07fc 32be 8bcf e5bb a69a 0ebd b4cd a13d
000002b0: bfad c53b ecb1 c4bd 6f66 20be 8a80 523d
000002c0: 8f91 afbd e5bd 013d b008 3e3d bd08 81bc
000002d0: 8be8 6f3d 51fe f4ba 5ff6 65bc 716c 25bc
000002e0: 952e 923c e2e4 a93d 17e8 833d 0aa5 f83c
000002f0: 987d 733c 460d 2fbe c347 84bc 1fb3 323d
00000300: a3fe 153d eb52 153d 2e62 643d 0619 bbbd
00000310: 5aa5 343d 7c89 80bd 3186 6f3d 0400 cdbd
00000320: e89a 493d 00db 9ebd 6b4d 66bd 6bab 33be
00000330: 354d 8b3c c9dc cb3c 08d1 4bbc 579a 0ebe
00000340: 4f1c 193d b5e9 5c3d 76a6 23be df1c 3b3c
00000350: b9dd 653d 1cbb 37bb f1c7 323b 85c6 ae3d
00000360: d282 353c 3e2a 4ebd 7f81 67bd 1cb7 39bd
00000370: 0b55 21be 21b2 15be 6b37 9e3c 2049 10be
00000380: 9de1 0a3b 8ae2 1abd 3daa a93c 089e 453d
00000390: df77 6c3d 9cdf f83b cc0d 1dbd 39ea 0d3d
000003a0: 87a7 0ebd 82b6 503d 1ef6 87bb 4b10 a0bd
000003b0: 8598 fbbd 6ebe 2b3d adfb 95bd b260 363d
000003c0: f6e4 6e3c d86d bcbd 60ba 73bd 5482 bdbd
000003d0: 5bba 3a3d c72c fdbd 4a31 283c d847 d63c
000003e0: 7cdf 5a3d aea2 93bb 14b1 413c 8852 053d
000003f0: cda8 063d 1fbf 3d3c ccc6 3e3d 0fe1 ab3d
0.02142092 -0.123803556 0.022941966 0.05044285 0.015044283 -0.09767449 0.044245753 -0.11732323
-0.10642461 -0.049065776 -0.137554 0.015002217 -0.03643358 -0.11947981 0.007893948 0.0058375746
-0.050024733 0.0018542801 -0.14565225 -0.10704574 0.003198054 -0.010913715 -0.124921754 0.03077972
1.6354288e-05 0.0012302931 -0.0951373 -0.11442954 0.051882185 0.0025106643 -0.08605623 -0.0032404673
0.048363876 0.0072221127 -0.09154189 0.02071124 -0.06302644 -0.13263631 -0.00554655 0.03192839
0.017065298 0.035751376 -0.12650983 0.022055767 -0.06093892 0.02623169 0.038392864 -0.009890792
0.03798233 0.007450044 0.056957863 -0.009371738 0.0213451 0.06645922 -0.013282396 0.0076314523
0.07985714 0.009932172 0.040843688 -0.11315505 0.05471682 -0.13941897 -0.03316126 -0.05163892
-0.1394582 0.029919315 -0.11773371 -0.00049696787 0.018670365 0.020675406 -0.04265738 0.0316195
-0.03516733 -0.0006709312 -0.0728607 -0.016212715 0.058280762 0.056099866 0.029954463 -0.08255538
-0.098174095 -0.10641537 -0.10181073 -0.1150715 0.030873027 -0.15752427 -0.09562371 -0.075951785
0.006256834 -0.004623067 -0.17865504 0.058627855 0.0056807077 -0.0058621694 0.016968325 -0.04196331
-0.021442113 -0.07091554 -0.124671794 -0.13566464 0.050299376 -0.18533623 0.07301147 -0.10570547
-0.022885654 0.005696998 0.0530225 0.0062150797 -0.14804532 -0.017851364 0.019691303 0.026261743
0.01645646 -0.058131207 -0.0035272795 -0.07732037 -0.09922281 0.0018221928 -0.08584259 0.033966955
0.04290722 -0.0061723622 0.011349226 0.04622087 -0.03839598 0.062389534 -0.16221093 0.019253043
0.01773424 0.023229424 0.011195652 0.045295615 -0.015702406 0.046094716 0.026787195 -0.05487848
-0.08174147 0.006955119 -0.15663312 -0.108013086 -0.11982159 -0.1027343 0.00050743204 0.051117785
0.06230925 0.043031767 -0.13520804 -0.033882726 -0.050148036 -0.06886559 0.015393133 0.04399091
0.007828147 0.04438827 0.015287543 -0.11917578 0.030749647 -0.0058068302 0.07744013 -0.13821147
0.003126864 -0.11734102 -0.1395754 0.05494541 0.006160423 0.060949776 0.0041979253 0.064871214
-0.17478953 -0.0070132664 -0.034815453 0.07900563 0.006032675 -0.096042484 -0.15664075 0.051392116
-0.08572685 0.03167524 0.046395004 -0.015751237 0.05857138 -0.0018691515 -0.01403579 -0.010096655
0.017844478 0.08295609 0.06440752 0.030352134 0.014861487 -0.17094907 -0.0161475 0.043627854
0.036619794 0.03645603 0.055757694 -0.09135632 0.044103004 -0.06276223 0.058477584 -0.100097686
0.049219996 -0.07756615 -0.056226175 -0.1754586 0.017004589 0.024885552 -0.012439974 -0.13926063
0.037380513 0.053933818 -0.15981469 0.011420458 0.056119654 -0.002803511 0.002727982 0.08533958
0.011078553 -0.050333254 -0.05651998 -0.045340642 -0.15755098 -0.14618732 0.019313535 -0.14090395
0.0021191605 -0.0378137 0.020711059 0.048246413 0.057731505 0.0075950157 -0.038343236 0.0346472
-0.034827735 0.050955303 -0.0041492125 -0.07815608 -0.1228495 0.041929655 -0.07323394 0.04452581
0.014580956 -0.092006385 -0.059503913 -0.09253374 0.04558788 -0.12362056 0.010265658 0.026157305
0.053435788 -0.004505477 0.011822004 0.03254941 0.032875825 0.011581211 0.046576306 0.08392536

action_model._continuous_distribution.mu.bias f4 [2]
00000000: e3d8 963d 741b 013c
0.073655866 0.0078800805

action_model._discrete_distribution.branches.0.weight f4 [2, 256]
00000000: 8697 f6bb 2ccc 533b 5b86 57bd 245a 74bc
00000010: 4d59 493d 45fa 013c 7742 02bc ebb3 ffbc
00000020: 5a60 f1bb a89f 30bb 0632 17bc ec4c 663d
00000030: 0dd1 9f3d 9e99 343c 37c1 2ebd 4cd5 353d
00000040: 1cc2 253c 2c3d 113d ff47 fdbb 6813 8cbb
00000050: f57f d33b dad1 c13d db50 c3bc e556 343d
00000060: a635 063e 67ca dc3d f2be 6cbc e3c6 f0bb
00000070: 2cc1 f9bb 6c74 2ebb e960 053b be78 253c
00000080: 0af5 da3c 55fe 1e3c 5d8c 9d3c fff9 203d
00000090: 8394 dd3b 1b94 99bc d8b5 c5bc a712 1dbd
000000a0: 6b51 493c c48c 3cbd 701f 45bd e8e7 10bd
000000b0: 5ed2 e73b 6929 2dbc b79f 583c 480a 4cbc
000000c0: 8cc4 4fbc cf20 bcbd 5545 9a3c a382 bf3d
000000d0: 44bf af3c 9f30 a0bc 8e4d c73c 6ba5 b53d
000000e0: b700 dbbc 7cd8 483d 9052 173c 04d9 b0bc
000000f0: 0126 1c3d 832f 9d3c a012 ac3c 9941 4d3d
00000100: e06b bd3c f784 db3c a9bb 7d3c aeba 293d
00000110: fe0f e23b 66e5 453d 06d4 873d 344f b23c
00000120: 13eb b63c 8e2a 333d 8afd 773d 82c1 cd3b
00000130: 7ed6 1cbc 0b76 96bc e73d b53d f318 37b9
00000140: db39 a1bb 4e0b 54bd 6478 193d 8de6 0f3a
00000150: b50d 4e39 253d 22bb 49e0 da3c 8424 9bbc
00000160: 65f3 0bbd dee7 d73d 1a9b e0bc b502 393b
00000170: e71d ea3d 820e 39bd f21f a53d 88fc 77bc
00000180: 93b3 3b3d 3fed c7bc e621 a6bc 2bb4 bfbc
00000190: 7e60 983d 7d4b bbbb e144 0dbd 87ed b43b
000001a0: 3462 023d b65b 8e3d 4659 bf3b 5063 103e
000001b0: ee3c 023d 7cb5 8c3d d5b3 b53d 1649 cb3c
000001c0: 415e 6bbd 67aa c9bc e915 37bc 49d7 b8bc
000001d0: c4d6 223c a572 dfbd 3c94 d7bc 02db 33bb
000001e0: 8999 be3c d06b 053d d030 3c3d e2b9 f0bc
000001f0: 8404 723d b2f9 7abc 355f 32bd 8028 083e
00000200: 4153 d03c c510 80bc 711b 1a3d 02a2 4c3c
00000210: 7865 45bd 8e00 9dbc b8d6 91bc 98de a03d
00000220: 9820 a93b c323 0d3d 0231 2d3c d00c 11bc
00000230: d746 8f3b f8f7 5f3c 59bd 0f3d aca5 893b
00000240: cca8 513c 0f66 153d 6995 073c 3e90 f2bb
00000250: 0992 cabc cb1b f03b b1d9 ae3d d73f d63c
00000260: d2e1 6e3b 3404 7c3c d492 23bd f20a 01bd
00000270: 4efd 3ebd e95c 3b3d 8c9a a03c 4ea1 263d
00000280: c788 363d 9c47 4e3d 9920 35bc 670e a5bd
00000290: fea0 9bbb 2fdf 3ebd 8721 c1bd 02fc 6cbd
000002a0: a572 9bbc 87f6 3cbd 0b36 243d 7139 143c
000002b0: e2ab 643d 6e56 34bc 98bd 233a a3d4 233c
000002c0: b3f9 41bc a397 e6bb 2780 aebc 31ca 86bb
000002d0: 6354 84bc fa87 5ebd 200c c73d 42a4 cd3c
000002e0: c7ed 2bbd b19c 84bc 1a8d b9bc d5be 253d
000002f0: 52f2 f73c 723b 01b9 119d cd3c aaec 57bd
00000300: 8dc2 343d 394b 37bd a3d9 a4bc 6c0b e03b
00000310: 6167 e33b 5cf6 b43c 5d0b bcbc 7f90 df3c
00000320: b070 903d ab71 22bd 4b46 143d d64d 61bc
00000330: fb51 8e3c 12b0 8bbc 825b ad3d 21b4 0bbc
00000340: abd8 403d 5809 e2bc aaf0 c4bc 84b3 053d
00000350: ea85 d63c f650 c7bd 3c9a 6b3c b251 90bc
00000360: e35c 083e d04c 2fbd 7ca9 763c f92d d63d
00000370: c3fb d93b 7319 a1bc e25a a63d e1f7 913c
00000380: 933d ce3c eaa1 923c 6f17 b83d d3e7 04bc
00000390: 269b 92bc d663 d83c af0a 153d d584 b83b
000003a0: 5329 b53d 8f76 a4bc cf68 6fba 3bd1 6f3c
000003b0: 9616 b53b 193d 8dbc 5bab 703d e138 02bd
000003c0: 535f 9e3d 4138 61bd af68 cc3c c332 f33c
000003d0: 3dd1 003c 0d0e 45bb a3c1 06bb 3e3f cb3c
000003e0: 183b 11bd 80c2 8d3c b2d5 e0bc e9df 9fbc
000003f0: ea6a 5b3d d2fa 66bd 88e3 383d d189 75bc
-0.007525387 0.003231774 -0.052618366 -0.014914069 0.04915743 0.007933204 -0.007950417 -0.031213721
-0.0073662223 -0.0026950631 -0.009228235 0.056225702 0.07803545 0.011022953 -0.042664733 0.04439287
0.01011708 0.03545873 -0.00772953 -0.0042747743 0.0064544627 0.09463854 -0.023842266 0.04402818
0.13106403 0.10780793 -0.014449822 -0.007347928 -0.007621905 -0.0026619686 0.0020351952 0.010099588
0.026728172 0.009704192 0.01923197 0.039300915 0.0067620887 -0.01874738 -0.024134561 -0.038347866
0.012287478 -0.046032682 -0.048125684 -0.035377413 0.0070746383 -0.010568955 0.013221673 -0.012453623
-0.012681138 -0.09185945 0.018831888 0.09351089 0.021453507 -0.019554434 0.024328973 0.088694416
-0.02673374 0.04903458 0.009235993 -0.021587856 0.03812218 0.019187694 0.021004975 0.050111387
0.023122728 0.026796801 0.015486636 0.041437797 0.006898879 0.048314475 0.06632237 0.021766283
0.022328889 0.043741755 0.060544528 0.0062791714 -0.009572623 -0.018366834 0.088496976 -0.00017461534
-0.004920227 -0.051768593 0.03746833 0.0005489372 0.00019650797 -0.0024755683 0.026718276 -0.01893831
-0.034167666 0.10542272 -0.027417708 0.0028230373 0.11431485 -0.04517985 0.08062734 -0.015135892
0.045825552 -0.02440512 -0.020279836 -0.02340134 0.074402794 -0.005715786 -0.034489516 0.0055214795
0.031831935 0.06951086 0.0058394996 0.14100385 0.03179639 0.06870553 0.08872191 0.024815124
-0.057462934 -0.024617387 -0.011174657 -0.022563593 0.009938899 -0.109105386 -0.0263158 -0.0027443771
0.02326657 0.03257352 0.04594499 -0.02938551 0.059086338 -0.015318321 -0.043547828 0.132967
0.025430324 -0.015632996 0.037623826 0.012489798 -0.04819247 -0.019165304 -0.017802581 0.078549564
0.005161356 0.034457933 0.010570766 -0.008853152 0.0043724584 0.01366996 0.035092685 0.004200658
0.012796592 0.036474284 0.008275368 -0.007402449 -0.024727838 0.007327532 0.08537615 0.026153488
0.0036450517 0.0153818615 -0.039934948 -0.03150458 -0.04662829 0.045742903 0.019604944 0.040681176
0.044564035 0.05036126 -0.011055135 -0.08059388 -0.0047494164 -0.046599563 -0.09430223 -0.05785752
-0.018975565 -0.046133544 0.040090602 0.009046898 0.055827983 -0.011006935 0.0006246208 0.009999427
-0.011839318 -0.0070371195 -0.021301342 -0.0041134586 -0.01615352 -0.054328896 0.097191095 0.025102738
-0.04197481 -0.016187998 -0.02265029 0.040465195 0.030266915 -0.00012324544 0.02509931 -0.052715935
0.04413085 -0.044749472 -0.020123309 0.006837299 0.006939814 0.02209013 -0.022954637 0.02729058
0.070527434 -0.039659183 0.03619985 -0.013751468 0.017373076 -0.01705173 0.08464719 -0.008526833
0.04708163 -0.027592346 -0.024040539 0.032641903 0.026186902 -0.09732239 0.014380034 -0.01761708
0.13316683 -0.042797863 0.015055057 0.10457987 0.006652327 -0.019665455 0.08122803 0.017818393
0.025175845 0.017899472 0.089888446 -0.008111912 -0.017896246 0.026414793 0.03638714 0.005631069
0.088457726 -0.020076064 -0.0009132744 0.014637287 0.005526374 -0.017241048 0.058757167 -0.031792525
0.077330254 -0.05498529 0.02495226 0.029687291 0.007862386 -0.003006819 -0.0020562194 0.02481043
-0.035456747 0.017304659 -0.027445648 -0.019515948 0.053568758 -0.056391545 0.045138866 -0.014986471

action_model._discrete_distribution.branches.0.bias f4 [2]
00000000: 7488 f63a 4388 f6ba
0.0018808977 -0.001880892
