Assets/ML-Models/AirPlatfromerPlus.onnx (onnx, 387039 bytes, 9 tensors)

network_body._body_endoder.seq_layers.0.weight f4 [256, 109]
-0.09354675 0.07989795 -0.033823512 -0.02317413 -0.21200408 0.035338074 -0.033426262 0.054777548
0.06571201 -0.08375795 -0.076403625 0.082588375 -0.08524911 -0.14343281 0.050139822 0.020509977
0.12931144 0.121029235 0.009653949 -0.0069222343 0.10117798 -0.22465035 0.093513854 0.1658563
0.24628755 0.13225593 -0.09369761 0.031542398 0.02149474 -0.21160674 0.021321464 -0.05399804
0.14437178 -0.014911804 0.072446585 0.029277792 -0.02256631 -0.009309687 -0.0015822453 -0.06695583
0.16111207 0.15043125 -0.09519897 -0.057531014 -0.05870679 -0.36318225 -0.037781846 0.30328694
0.009314523 0.17102957 -0.05555834 -0.020568771 0.06478698 0.08078533 -0.08313821 0.036138054
-0.041501038 0.17983584 0.05104374 0.071049266 0.13472605 0.1665753 -0.034425262 0.03942275
0.050117023 0.2547428 0.016346611 0.13707367 -0.034198955 0.111220874 -0.025794633 -0.05845547
0.11934454 0.07760272 0.037908163 0.046805765 -0.17843257 0.023562778 0.0005104692 0.13191265
0.07723056 0.016962927 -0.030614773 0.03878247 -0.047022786 0.12792079 -0.042101994 0.015167334
0.1501115 0.14649528 -0.12928405 0.095197186 -0.020258568 -0.010153248 0.16573033 -0.17882065
-0.074627765 0.1309004 -0.09307897 0.024523608 0.09915151 -0.06952612 -0.21895057 0.04130361
-0.11383782 0.019766044 0.012326214 0.030517047 0.139203 0.028210826 -0.009052138 0.14303777
0.02126053 -0.17770717 -0.0011057383 -0.029366387 0.16304673 0.11527193 -0.014736687 -0.11601695
0.10817474 -0.17447895 0.18990263 -0.13172975 -0.03711367 0.1384574 0.1430023 -0.12414799
-0.10821586 -0.16796693 0.08541583 0.036354702 -0.064151116 0.095144995 -0.11251566 -0.16274944
-0.2519398 -0.045791525 0.15160412 -0.037954357 0.09576082 0.3238209 -0.0066590975 -0.031127255
-0.15952311 0.07458838 0.16295676 -0.05508945 -0.05087114 0.0956228 -0.04116734 0.059844386
-0.2991804 0.042446412 0.030953865 0.12901613 0.015473637 0.09796878 0.025995737 -0.050538223
-0.08452814 0.087587796 0.025570214 -0.13587724 -0.10617266 -0.022910401 -0.073771186 0.1283616
0.057112914 -0.011616137 0.06177631 -0.16826102 -0.07199316 -0.07992021 0.015819607 0.014467221
-0.013002604 0.020448085 -0.2254203 0.094719194 -0.110066585 0.021121299 0.087612435 0.14881688
-0.20548202 0.089014 -0.0006570522 -0.27869976 -0.09740286 -0.10529159 -0.06377166 0.02794516
-0.041913904 0.08465119 -0.050314672 -0.12187973 -0.106532335 0.21306664 -0.036601078 0.028785802
0.02300255 0.11951235 0.1578984 -0.14473295 -0.20376113 0.13640675 0.09230075 0.026397098
-0.06487146 0.15134533 0.14268076 -0.12870921 -0.13472477 -0.053092357 0.18834844 -0.1378946
-0.082800046 0.01018674 0.046848252 -0.07702801 -0.029409058 -0.0024087038 0.05175954 0.17248558
0.072350234 -0.002125933 0.048498552 -0.07959654 -0.22323838 -0.011238988 0.18738185 0.0734738
-0.017091718 -0.009520544 -0.13894092 0.001151302 0.093257934 -0.04342888 0.060466625 0.102384
0.03411335 0.010635653 0.1294297 -0.097814955 -0.017319018 -0.14724675 0.011214331 0.1045129
0.15936452 0.027057702 0.26718864 0.21084751 0.009295974 -0.07725631 0.13843422 -0.08166278
00000000: 7095 bfbd 89a1 a33d 868a 0abd acd7 bdbc
00000010: 9917 59be a8be 103d fae9 08bd 6c5e 603d
00000020: 0594 863d 4a89 abbd 8179 9cbd 1824 a93d
00000030: 1697 aebd 0de0 12be 6a5f 4d3d 8a04 a83c
00000040: 386a 043e 2dde f73d 992b 1e3c e9d3 e2bb
00000050: 6736 cf3d be0a 66be 3184 bf3d 3cd6 293e
00000060: ce32 7c3e 196e 073e 88e4 bfbd 9a32 013d
00000070: bd15 b03c 70af 58be 5aaa ae3c 0c2d 5dbd
00000080: 32d6 133e a450 74bc e05e 943d fbd7 ef3c
00000090: fbdc b8bc a887 18bc 5863 cfba 2320 89bd
000000a0: 90fa 243e a60a 1a3e adf7 c2bd a4a5 6bbd
000000b0: 8876 70bd 06f3 b9be 23c1 1abd 6d48 9b3e
000000c0: f19b 183c 6022 2f3e 2491 63bd d77f a8bc
000000d0: 09af 843d c772 a53d 5e44 aabd 7f05 143d
000000e0: fefc 29bd e326 383e 3e13 513d 4782 913d
000000f0: a0f5 093e b792 2a3e 8101 0dbd c079 213d
00000100: 8247 4d3d a66d 823e 54e9 853c 0a5d 0c3e
00000110: 3414 0cbd c5c7 e33d 444f d3bc 016f 6fbd
00000120: e96a f43d 2dee 9e3d 9745 1b3d 67b7 3f3d
00000130: 07b7 36be ba06 c13c 02d1 053a 1c14 073e
00000140: 0e2b 9e3d d6f5 8a3c d5cb fabc 5eda 1e3d
00000150: f79a 40bd abfd 023e 2473 2cbd 6980 783c
00000160: d4b6 193e dc02 163e 0a63 04be bef6 c23d
00000170: 4cf5 a5bc cf59 26bc 36b5 293e c31c 37be
00000180: 71d6 98bd c10a 063e 30a0 bebd bce5 c83c
00000190: f20f cb3d b663 8ebd 9434 60be f92d 293d
000001a0: ce23 e9bd 66ec a13c e4f3 493c e3fe f93c
000001b0: 3b8b 0e3e 641a e73c 6b4f 14bc 7e78 123e
000001c0: 902a ae3c def8 35be 6cee 90ba c791 f0bc
000001d0: b9f5 263e b113 ec3d 2572 71bc 4b9a edbd
000001e0: b88a dd3d 9caa 32be d675 423e 2ae4 06be
000001f0: 8104 18bd c7c7 0d3e 326f 123e 4d41 febd
00000200: 47a0 ddbd 86ff 2bbe 7fee ae3d abe8 143d
00000210: a961 83bd 61db c23d 9c6e e6bd caa7 26be
00000220: 41fe 80be e58f 3bbd 1c3e 1b3e 0776 1bbd
00000230: 401e c43d dacb a53e 8f34 dabb 96fe febc
00000240: 075a 23be cbc1 983d 23de 263e 7aa5 61bd
00000250: 425e 50bd e3d5 c33d 169f 28bd 631f 753d
00000260: 2c2e 99be 4adc 2d3d f692 fd3c ce1c 043e
00000270: 2385 7d3c dba3 c83d 03f5 d43c 2b01 4fbd
00000280: 171d adbd 3b61 b33d a078 d13c 6723 0bbe
00000290: 0d71 d9bd 98ae bbbc 5915 97bd 3971 033e
000002a0: 3bef 693d 9c51 3ebc 2809 7d3d 9e4c 2cbe
000002b0: 2671 93bd 35ad a3bd 1f98 813c ec07 6d3c
000002c0: e008 55bc be82 a73c 94d4 66be 23fc c13d
000002d0: 976a e1bd 9306 ad3c 266e b33d 7463 183e
000002e0: e169 52be f94c b63d 073e 2cba bcb1 8ebe
000002f0: 277b c7bd 1ea3 d7bd b79a 82bd 40ed e43c
00000300: eaad 2bbd 9a5d ad3d c216 4ebd 149c f9bd
00000310: a02d dabd 242e 5a3e 03eb 15bd 34d0 eb3c
00000320: d86f bc3c e4c2 f43d 1eb0 213e e034 14be
00000330: c2a6 50be 36ae 0b3e 2d08 bd3d ba3e d83c
00000340: 54db 84bd 45fa 1a3e e81a 123e 59cc 03be
00000350: 4af5 09be 5f77 59bd 6ade 403e 3e34 0dbe
00000360: 1293 a9bd 49e6 263c f4e3 3f3d dcc0 9dbd
00000370: 44eb f0bc 58db 1dbb d001 543d 0fa0 303e
00000380: 5c2c 943d 3d53 0bbb 6ba6 463d 8303 a3bd
00000390: 9a98 64be bb23 38bc 07e1 3f3e 6f79 963d
000003a0: ee03 8cbc 0efc 1bbc 8746 0ebe 49e7 963a
000003b0: 04fe be3d 7be2 31bd daab 773d b4ae d13d
000003c0: 71ba 0b3d 2941 2e3c 3889 043e 3553 c8bd
000003d0: 9de0 8dbc dac7 16be 50bc 373c dc0a d63d
000003e0: 7430 233e 1da8 dd3c f3cc 883e 69e8 573e
000003f0: 244e 183c 8e38 9ebd b3c1 0d3e d13e a7bd

network_body._body_endoder.seq_layers.0.bias f4 [256]
0.008540062 0.0048415484 -0.014435896 -0.011038696 -0.01790311 -0.011362664 -0.007710142 0.0148887355
0.029573973 -0.0119548235 0.02129519 0.0131621 0.009287498 -0.002374681 -0.038946077 0.038235977
0.0055833515 0.012386271 0.02710715 -0.013954531 -0.04280668 -0.0035235025 -0.007100814 0.007980377
0.021724682 -0.004185839 -0.0029284155 0.007838719 -0.0046386044 0.008585402 8.1760656e-05 -0.0016983355
0.005631263 -0.0040206686 -0.0056076013 -0.00960811 0.0009695167 -0.00051523425 0.011711109 -0.016957335
0.0014342677 0.0055508544 -0.0673481 0.0029763943 0.0039391457 -0.0019837674 -0.01095858 -0.0028157302
-0.055616863 0.0023693815 0.0045349044 0.006934272 -0.019470988 0.0022954412 0.0006664764 0.0036624894
0.0017562599 -0.00078906753 0.012259609 -0.020866083 -0.009659616 0.030635206 -0.027381545 -0.0036773607
0.0053373068 0.01303011 -0.00810782 -0.08207702 0.016457077 0.0077790986 -0.0041992757 0.003291243
0.008877941 0.011088098 0.011640634 0.010263476 -0.0340531 0.0017309443 0.016305266 0.011903248
-0.004667757 -0.00978004 -0.0065011275 0.011759273 0.024369942 0.0072294036 -0.03800309 0.018775256
-0.0106883515 -0.01486601 -0.0072373124 -0.020313818 0.0065717646 0.005434078 0.00793682 -0.0066118315
-0.00795258 -0.013991806 -0.012222751 -0.0063334415 -0.0048168264 0.012106675 0.017991161 0.0035590844
-0.0010262923 -0.0018069032 -0.010769612 -0.00076684344 -0.024085209 0.0014200557 0.0057997853 -0.0382318
0.0040382366 0.0043957466 0.014366388 0.0020737976 0.0038128744 -0.013259749 0.003296713 0.032615222
-0.021968476 0.0031320334 -0.028931553 -0.0057075117 0.00081662583 -0.0046695573 0.0062139034 0.0022865697
-0.0005164455 -0.012302775 0.023940362 -0.0018499315 -0.016411096 0.009119875 0.008643206 -0.00716168
0.006503027 -0.0015931762 -0.004915607 0.021258803 0.0124681 0.013326943 0.013507537 0.0011566918
-0.00015072324 -0.014563774 -0.02318593 0.02975023 -0.0050951163 -0.021890147 0.00599265 0.011792662
-0.005267219 0.0065290765 -0.007497077 0.009776736 0.012686237 0.007378892 0.017119814 0.003965043
0.004017944 -0.013208288 -0.0014098972 -0.05797804 -0.011008138 0.003931645 0.009784897 0.010057264
0.008625801 -0.009891485 0.015707105 0.007434526 -0.012684011 -0.014653007 0.007452737 -0.025786484
0.0025736336 0.007672364 -0.0040785917 -0.02291208 0.015847214 -0.026712513 -0.01584244 -0.04291876
0.0046249996 0.005663796 -0.030431988 0.0022251785 -0.017076999 -0.025381336 -0.008503639 0.005269085
-0.010126294 0.001448927 0.013736148 0.011336144 0.0023847502 0.005926399 0.0065298085 0.006434392
0.011459176 -0.06350516 -0.010512665 0.008275368 0.008816941 0.0032458822 -0.026432917 -0.010712
-0.0021264444 0.023220124 -0.00013706394 0.020918481 0.0113288 -0.002087205 0.011653346 0.0021189142
-0.006368698 0.0022321318 -0.014259948 0.019000748 -0.005473897 -0.02229175 -0.011673141 0.0060009896
0.015273411 0.00050999457 0.014873009 0.001483184 0.012557066 -0.009260555 -0.0070813047 -0.018771408
-0.038874324 -0.0073659285 0.015079753 0.019345978 0.00043144854 0.006625574 0.015381625 0.009738779
-0.0029323786 -0.0018275941 0.00022344015 0.0012450367 -0.0016661705 0.0123047065 -0.00630501 -0.019696092
-0.00050003827 -0.0053213537 -0.018187577 -0.020065114 -0.0092673795 0.00042313672 -0.012994038 0.009700515
00000000: 9eeb 0b3c daa5 9e3b 8984 6cbc a6db 34bc
00000010: 8ba9 92bc 782a 3abc 5ca5 fcbb e2ef 733c
00000020: 1e45 f23c 2ade 43bc 4073 ae3c d9a5 573c
00000030: 972a 183c 89a0 1bbb ec85 1fbd 549d 1c3d
00000040: 8cf4 b63b c9ef 4a3c d00f de3c 8ca1 64bc
00000050: 0f56 2fbd 90ea 66bb f2ad e8bb 21c0 023c
00000060: f6f7 b13c 5d29 89bb a9ea 3fbb f86d 003c
00000070: 6fff 97bb c9a9 0c3c eb76 ab38 af9a deba
00000080: 7586 b83b d0bf 83bb f8bf b7bb 566b 1dbc
00000090: 2a27 7e3a c910 07ba f4df 3f3c 1cea 8abc
000000a0: 0afe bb3a f1e3 b53b cded 89bd 9c0f 433b
000000b0: f313 813b 1802 02bb 9e8b 33bc 1d88 38bb
000000c0: 82ce 63bd a047 1b3b 8999 943b e438 e33b
000000d0: 9f81 9fbc 1d6f 163b 79b6 2e3a 6006 703b
000000e0: 4e32 e63a 6dd9 4eba 87dc 483c 59ef aabc
000000f0: 5e43 1ebc aff6 fa3c 434f e0bc e0ff 70bb
00000100: 93e4 ae3b 3e7c 553c a9d6 04bc ff17 a8bd
00000110: fed0 863c cfe7 fe3b 149a 89bb e5b1 573b
00000120: c974 113c dbaa 353c 5cb8 3e3c 2328 283c
00000130: 437b 0bbd dae0 e23a 9f92 853c d705 433c
00000140: fcf3 98bb 763c 20bc 6907 d5bb f7a9 403c
00000150: 79a3 c73c a2e4 ec3b 21a9 1bbd 91ce 993c
00000160: 321e 2fbc 9190 73bc fa26 edbb 2a69 a6bc
00000170: f557 d73b 5a10 b23b 7009 023c 10a8 d8bb
00000180: 8a4b 02bc e33d 65bc ef41 48bc c288 cfbb
00000190: 78d6 9dbb 135b 463c 3362 933c 873f 693b
000001a0: a884 86ba 9cd5 ecba 0773 30bc fe05 49ba
000001b0: 584e c5bc 2a21 ba3a 200c be3b f398 1cbd
000001c0: 2f53 843b 320a 903b 0061 6b3c 8de8 073b
000001d0: 6be1 793b 6b3f 59bc ab0d 583b 8a97 053d
000001e0: 3cf7 b3bc cd42 4d3b dd01 edbc 1406 bbbb
000001f0: d512 563a 1603 99bb 009e cb3b 46da 153b
00000200: 1262 07ba 9491 49bc 941e c43c 6779 f2ba
00000210: 9070 86bc 876b 153c 3c9c 0d3c 87ac eabb
00000220: 5817 d53b 1fd2 d0ba 1a13 a1bb f126 ae3c
00000230: 0047 4c3c 4059 5a3c b74e 5d3c 239c 973a
00000240: 760b 1eb9 e59c 6ebc 6bf0 bdbc c1b6 f33c
00000250: eff4 a6bb f752 b3bc fe5d c43b 0236 413c
00000260: a398 acbb ddf1 d53b 0aaa f5bb 9a2e 203c
00000270: efd9 4f3c a2ca f13b da3e 8c3c 31ed 813b
00000280: f5a8 833b 9367 58bc 4dcc b8ba 627a 6dbd
00000290: 7a5b 34bc 07d5 803b d550 203c 39c7 243c
000002a0: 3b53 0d3c e50f 22bc 30ac 803c 539d f33b
000002b0: 99d0 4fbc 2a13 70bc 1736 f43b 2d3e d3bc
000002c0: 68aa 283b 7468 fb3b b5a5 85bb 1db2 bbbc
000002d0: 04d2 813c 33d4 dabc 01c8 81bc 95cb 2fbd
000002e0: 4f8d 973b 5d97 b93b 814c f9bc 4dd4 113b
000002f0: 10e5 8bbc 85ec cfbc d952 0bbc 4aa8 ac3b
00000300: c1e8 25bc ece9 bd3a 950d 613c 3cbb 393c
00000310: 7849 1c3b 3d32 c23b 01f8 d53b 98d7 d23b
00000320: 45bf 3b3c fe0e 82bd 503d 2cbc 6995 073c
00000330: ee74 103c deb8 543b d889 d8bc 6281 2fbc
00000340: d15b 0bbb 2138 be3c d2b8 0fb9 3c5d ab3c
00000350: 6e9c 393c 7dc9 08bb aded 3e3c 7bdd 0a3b
00000360: 83b0 d0bb f548 123b 8fa2 69bc 75a7 9b3c
00000370: 605e b3bb 309d b6bc b440 3fbc f3a3 c43b
00000380: 543d 7a3c 28b1 053a ecad 733c 6667 c23a
00000390: 27bc 4d3c 95b9 17bc 4a0a e8bb 7fc6 99bc
000003a0: af3a 1fbd e35d f1bb 1111 773c 757b 9e3c
000003b0: 0b34 e239 581b d93b 3603 7c3c 668f 1f3c
000003c0: 262d 40bb e28b efba 424b 6a39 8030 a33a
000003d0: 6863 daba ae99 493c 429a cebb b359 a1bc
000003e0: 0015 03ba c05e aebb 1dfe 94bc 985f a4bc
000003f0: 35d6 17bc 73d8 dd39 f2e4 54bc e9ee 1e3c

network_body._body_endoder.seq_layers.2.weight f4 [256, 256]
-0.1381921 -0.044676412 0.14214554 0.017197814 -0.09240457 0.030904623 -0.019966898 -0.08029023
-0.119334325 0.0023194693 -0.08142694 -0.19945487 0.027780622 -0.014899837 0.08024165 -0.105230205
-0.11847129 0.004179922 0.061150596 0.072869435 0.0033511333 0.08267327 -0.01706569 0.00599152
0.028653378 0.055120222 -0.03448613 -0.026682615 0.100343436 -0.02880784 0.076415464 -0.09343615
-0.06619991 0.000391403 0.026818767 -0.050509572 0.07915207 0.04859687 -0.031536743 0.062414546
-0.09465644 -0.05418883 -0.0011565719 0.0059320233 -0.1410792 -0.10411194 -0.095888406 -0.10151921
0.07351732 -0.050209183 0.014305399 -0.02587922 0.056073513 -0.07866983 -0.046989806 -0.16550098
-0.1073279 0.016923463 0.0777921 -0.005733831 -0.058576826 -0.0021193724 0.14167945 0.03119827
-0.04648767 0.062128466 -0.09308636 0.11254718 0.04370131 -0.0017088205 -0.05495085 -0.117639765
-0.047416348 -0.121122286 -0.14353156 0.117039636 0.079497956 0.10769787 -0.15753618 -0.091151945
-0.033115864 0.012825827 -0.0943934 -0.048883386 -0.14316413 -0.09949029 -0.06617747 -0.13619219
-0.046661407 -0.0031286525 0.06369589 0.01733634 -0.10008248 0.07632394 -0.10832385 -0.07143637
-0.0028102312 -0.04317567 -0.07434003 0.052661233 -0.091587864 -0.16192111 -0.026732517 0.04646547
0.019648451 -0.13412297 0.039190594 -0.029812466 0.027860202 -0.016132724 -0.050027438 0.008812982
-0.07681691 0.021199273 -0.10062011 -0.0014717804 0.02121169 0.019875495 -0.08432883 -0.11247611
0.023524895 -0.09429269 0.043374334 -0.046111483 -0.049643513 0.046702906 0.035035793 0.04467981
0.015730074 0.12489253 -0.077755 0.0101336185 -0.0015079954 -0.10295865 -0.0063853115 0.16424514
0.050771143 0.0145878345 -0.05980892 -0.11213841 0.1742841 0.021861576 -0.20709483 0.055678584
0.013120244 -0.03867738 0.23551676 0.0561842 0.04611541 0.10435645 -0.09344223 0.0802026
0.11554154 -0.043779794 -0.06557015 -0.03254633 0.04377483 0.05228902 -0.07268815 -0.006847387
0.050538316 0.15902308 0.12279828 0.035131883 0.011008143 -0.092172116 -0.013625246 0.15422659
0.15014674 0.08366783 -0.03913881 -0.019261075 -0.11882734 0.07222178 0.028332561 0.1044141
-0.005194361 -0.008359128 -0.039532907 -0.0061794207 -0.056862067 -0.0134415375 0.034250654 0.04012502
-0.08774631 0.0027399585 -0.028853772 -0.16003846 -0.043482043 -0.021803875 -0.04251189 -0.015693685
-0.10948932 0.1852172 -0.18179145 -0.084041424 -0.09287651 -0.018590895 -0.026884776 -0.023569832
-0.05202565 0.0043528946 0.031235196 -0.051239718 -0.06337481 -0.065885685 0.028762536 0.15134156
-0.026054328 0.03689547 -0.057394736 -0.0019701605 -0.18695523 0.055331696 0.014950259 0.015218084
0.017983444 0.00092475506 -0.15486059 0.0013238747 -0.009251484 -0.017435817 -0.005829421 -0.018355105
0.02106331 -0.024552193 -0.017193936 -0.09989794 -0.06765501 -0.06703852 0.018163877 0.08721425
0.01775195 -0.15858324 -0.07304764 -0.1471324 0.05743378 -0.19877194 0.015785899 -0.08737338
-0.042824175 0.024726449 -0.10562891 -0.052251372 0.023711517 0.0028404307 -0.048713073 -0.046274778
-0.08703582 -0.034417514 -0.08273534 0.013945587 0.022560697 -0.09372236 0.012204223 -0.09965263
00000000: 3b82 0dbe 9dfe 36bd 9a8e 113e 6ee2 8c3c
00000010: 9b3e bdbd b12b fd3c 9f91 a3bc 346f a4bd
00000020: 8e65 f4bd 3d02 183b 2bc3 a6bd e63d 4cbe
00000030: 3094 e33c 721e 74bc bc55 a43d ef82 d7bd
00000040: 13a1 f2bd baf7 883b 0c79 7a3d 923c 953d
00000050: b09e 5b3b 9a50 a93d 59cd 8bbc 8354 c43b
00000060: 7dba ea3c bec5 613d 5441 0dbd 8095 dabc
00000070: dc80 cd3d 6bfe ebbc b67f 9c3d 745b bfbd
00000080: d293 87bd 3935 cd39 08b3 db3c 20e3 4ebd
00000090: 7b1a a23d 830d 473d ac2c 01bd 65a6 7f3d
000000a0: 3cdb c1bd 1bf5 5dbd 1d98 97ba 6b61 c23b
000000b0: 1177 10be a438 d5bd 2461 c4bd 4ee9 cfbd
000000c0: 4090 963d 25a8 4dbd 3161 6a3c a800 d4bc
000000d0: 57ad 653d a61d a1bd 6278 40bd 1779 29be
000000e0: bbce dbbd 13a3 8a3c 7751 9f3d dce2 bbbb
000000f0: 41ee 6fbd 2be5 0abb 6b14 113e 8493 ff3c
00000100: db69 3ebd 6b7a 7e3d 10a4 bebd 237f e63d
00000110: 2500 333d 80fa dfba 2414 61bd 1eed f0bd
00000120: a537 42bd f60e f8bd f0f9 12be 7ab2 ef3d
00000130: d3cf a23d b390 dc3d 2a51 21be dfad babd
00000140: 80a4 07bd 6b23 523c 5451 c1bd f239 48bd
00000150: 9e99 12be 91c1 cbbd 0e88 87bd f775 0bbe
00000160: 0820 3fbd 140a 4dbb fe72 823d f104 8e3c
00000170: 0bf8 ccbd ba4f 9c3d e5d8 ddbd 3b4d 92bd
00000180: db2b 38bb f9d8 30bd 963f 98bd 4eb3 573d
00000190: 6b92 bbbd a6ce 25be 27fe dabc 9452 3e3d
000001a0: caf5 a03c 8857 09be 5186 203d 4639 f4bc
000001b0: 143b e43c c628 84bc 92e9 4cbd 5364 103c
000001c0: 2f52 9dbd 19aa ad3c eb11 cebd c1e8 c0ba
000001d0: 23c4 ad3c efd1 a23c 98b4 acbd e059 e6bd
000001e0: 48b7 c03c 871c c1bd 49a9 313d 65df 3cbd
000001f0: ff56 4bbd 8c4b 3f3d b181 0f3d 2d02 373d
00000200: 5bdc 803c a8c7 ff3d 033e 9fbd 7a07 263c
00000210: eea7 c5ba fcdb d2bd e03b d1bb e12f 283e
00000220: 67f5 4f3d d001 6f3c 33fa 74bd d3a8 e5bd
00000230: 8877 323e 0c17 b33c ab10 54be 3a0f 643d
00000240: 4bf6 563c 2c6c 1ebd 4e2b 713e 6721 663d
00000250: 83e3 3c3d d6b8 d53d a45e bfbd 4341 a43d
00000260: 0ba1 ec3d 7152 33bd a549 86bd 4d4f 05bd
00000270: 3c4d 333d 032d 563d 86dd 94bd 0c60 e0bb
00000280: 4401 4f3d f2d6 223e aa7d fb3d 73e6 0f3d
00000290: 805b 343c bcc4 bcbd 6c3c 5fbc 93ed 1d3e
000002a0: 11c0 193e 0a5a ab3d 0450 20bd 67c9 9dbc
000002b0: c05b f3bd 03e9 933d b019 e83c 0fd7 d53d
000002c0: 7535 aabb b9f4 08bc 42ed 21bd bd7c cabb
000002d0: 33e8 68bd e539 5cbc 6a4a 0c3d 225a 243d
000002e0: 56b4 b3bd e090 333b bf5e ecbc 1fe1 23be
000002f0: 3a1a 32bd 0a9e b2bc f320 2ebd 0b90 80bc
00000300: f03b e0bd 94a9 3d3e 8a27 3abe e91d acbd
00000310: 0a36 bebd ef4b 98bc 763d dcbc 8515 c1bc
00000320: d918 55bd baa2 8e3b f4e0 ff3c bde0 51bd
00000330: a7ca 81bd 13ef 86bd 699f eb3c 48f9 1a3e
00000340: e36f d5bc b41f 173d be16 6bbd cf1d 01bb
00000350: 3171 3fbe 7da3 623d eef1 743c 4555 793c
00000360: 0452 933c 436b 723a c693 1ebe dd85 ad3a
00000370: 8993 17bc 8fd5 8ebc ba04 bfbb 725d 96bc
00000380: f68c ac3c ae21 c9bc 4cda 8cbc 4b97 ccbd
00000390: b68e 8abd 7e4b 89bd 69cc 943c 629d b23d
000003a0: 8a6c 913c a563 22be 009a 95bd e0a9 16be
000003b0: af3f 6b3d df8a 4bbe 6e51 813c d1f0 b2bd
000003c0: 6768 2fbd 1f8f ca3c f853 d8bd 8905 56bd
000003d0: a83e c23c 8526 3a3b 5c87 47bd 9f8a 3dbd
000003e0: d63f b2bd 61f9 0cbd 2571 a9bd 087c 643c
000003f0: 36d1 b83c 82f1 bfbd 39f4 473c ae16 ccbd

network_body._body_endoder.seq_layers.2.bias f4 [256]
-0.04583587 -0.014742207 0.030169705 -0.046292838 0.045166865 -0.04799591 0.015848685 -0.05150026
0.036928017 -0.04032085 0.0099555245 0.02196823 0.00066900154 -0.048209637 -0.04328554 -0.007726286
-0.0571286 0.024367185 -0.05068786 0.016590666 -5.9880826e-05 0.02028944 0.0018655774 0.042827778
-0.054525577 -0.041049942 0.019726135 0.021180484 -0.056630258 -0.004078202 -0.008273784 -0.0334649
0.021384038 0.025660858 -0.007677958 -0.0069530657 -0.021556653 -0.0023622743 -0.045569614 0.0061403946
0.003449053 -0.028277885 -0.056502506 -0.04516003 0.0111823175 0.015326481 -0.032096226 0.058726016
0.034108665 0.029136945 -0.0006040019 -0.047896713 -0.05264918 -0.058233835 -0.008277519 -0.05338905
0.03563269 0.028395152 -0.041792564 0.01377459 -0.035152715 -0.024479864 -0.009154875 -0.05114715
-0.017685406 -0.028968478 0.01829239 0.046148553 -0.048482668 0.057465326 -0.017415661 -0.01453258
-0.032425486 0.00010983001 -0.009051315 -0.039624967 -0.04933538 -0.029863462 -0.04502476 -0.013259645
0.013533961 0.017406302 0.030084329 0.005243366 -0.025704095 0.0052643213 -0.05993946 -0.04769145
0.01361309 -0.022589562 -0.028538741 -0.020814834 -0.039768916 0.020678535 -0.046023507 0.0022397875
-0.048371803 -0.0046835253 0.008729305 -0.033008493 0.05238171 0.028221244 0.004757563 -0.044653334
-0.01655586 -0.041236166 -0.055950794 0.0021854495 0.03511036 0.03726141 -0.022360409 0.020138636
0.03102695 -0.0049447874 -0.03587777 0.013280636 -0.025577428 -0.008169044 -0.055466384 -0.05101391
0.037613377 -0.033570938 -0.008275844 -0.034247085 0.022551319 0.011705857 0.030189693 -0.019105308
-0.016488941 -0.012359505 -0.031583495 0.01635513 -0.009884286 0.028908089 -0.0349968 -0.04526991
0.011917742 -0.055558737 -0.049786758 0.05009088 -0.020840233 -0.04996376 -0.03447428 -0.03328419
0.021557083 -0.0075317486 0.033610985 -0.03993966 -0.049342368 -0.005765509 0.009594814 0.005073224
-0.055265512 -0.06840078 0.009375416 -0.033337004 0.029844591 0.023139076 0.034630068 0.025408309
-0.018805427 0.034421742 0.0029520523 -0.015216957 0.021067575 -0.022374341 -0.042813245 -0.023480851
0.010192006 -0.042418987 0.031084904 0.030935144 -0.05564271 -0.025847668 -0.00083890464 0.009023059
-0.006397914 -0.05278271 0.03041395 0.017287293 0.031669438 0.009455342 -0.04702001 0.009473666
0.003872243 0.026650272 -0.05668466 0.024458226 0.0012338589 0.05220777 0.009424396 -0.049779415
0.02219128 0.013292655 0.037761595 -0.046324503 -0.0209494 -0.018169105 0.020101579 0.016575066
-0.00569723 -0.043515902 -0.029716806 0.02552712 -0.05188508 -0.044983953 -0.06300146 0.020833079
-0.011244926 0.01082978 -0.003611005 0.0067074005 -0.013756322 0.026945082 -0.063359596 -0.0055537936
-0.043051388 0.010339564 0.033568285 -0.017571371 -0.05288729 0.01453451 -0.049148057 -0.04420188
0.03505775 0.018535769 0.014999738 0.041274894 -0.07104514 -0.033319075 0.0059160143 -0.045310576
-0.06719374 -0.041089933 0.023284156 -0.05393409 -0.046013795 0.02862772 0.029973837 0.024113772
-0.013041232 -0.041562427 -0.021435723 -0.028385505 0.005477283 0.034439128 -0.012218266 0.027093396
-0.008233001 0.0027313782 0.006905332 0.024483174 -0.032676972 0.04813616 0.023246098 -0.047993932
00000000: 65be 3bbd 4c89 71bc 7526 f73c 8f9d 3dbd
00000010: e400 393d 5c97 44bd 1ad5 813c f0f1 52bd
00000020: d541 173d 7a27 25bd 7f1c 233c b8f6 b33c
00000030: ef5f 2f3a 7877 45bd 2e4c 31bd c92c fdbb
00000040: aeff 69bd b19d c73c 139e 4fbd 26e9 873c
00000050: 8c28 7bb8 0a36 a63c 6486 f43a 2e6c 2f3d
00000060: 3656 5fbd fc23 28bd b498 a13c b282 ad3c
00000070: 21f5 67bd 70a2 85bb c48e 07bc 7e12 09bd
00000080: 942d af3c b836 d23c 6197 fbbb 8bd6 e3bb
00000090: 9497 b0bc 63d0 1abb 34a7 3abd 5d35 c93b
000000a0: 8209 623b 06a7 e7bc 2c6f 67bd b9f9 38bd
000000b0: 0a36 373c ec1b 7b3c 5577 03bd b18a 703d
000000c0: 87b5 0b3d 9ab0 ee3c e255 1eba 582f 44bd
000000d0: aba6 57bd 9a86 6ebd 6e9e 07bc 7aae 5abd
000000e0: 95f3 113d f39c e83c ae2e 2bbd d1ae 613c
000000f0: 4bfc 0fbd ff89 c8bc 54fe 15bc ad7f 51bd
00000100: fce0 90bc 4d4f edbc ecd9 953c 4406 3d3d
00000110: c395 46bd c360 6b3d 4aab 8ebc 0f1a 6ebc
00000120: 96d0 04bd 8a54 e638 f74b 14bc ca4d 22bd
00000130: e513 4abd 38a4 f4bc e26b 38bd fb3e 59bc
00000140: 8cbd 5d3c a997 8e3c 6973 f63c 8bd0 ab3b
00000150: 6591 d2bc 5480 ac3b 1483 75bd 1c58 43bd
00000160: 7009 5f3c bf0d b9bc 14ca e9bc df83 aabc
00000170: bbe4 22bd 0866 a93c 2583 3cbd 66c9 123b
00000180: 8321 46bd 4278 99bb 5c05 0f3c ea33 07bd
00000190: 348e 563d 3d30 e73c 55e5 9b3b 6ae6 36bd
000001a0: 28a0 87bc 41e7 28bd a92c 65bd c239 0f3b
000001b0: e1cf 0f3d 6c9f 183d 2d2d b7bc c8f9 a43c
000001c0: 3b2c fe3c e207 a2bb 92f4 12bd 0697 593c
000001d0: c187 d1bc 74d7 05bc b830 63bd f6f3 50bd
000001e0: 7c10 1a3d ae81 09bd 6897 07bc ac46 0cbd
000001f0: 8bbd b83c ecc9 3f3c 6050 f73c bc82 9cbc
00000200: d113 87bc 857f 4abc b25d 01bd 32fb 853c
00000210: b3f1 21bc a8d0 ec3c ce58 0fbd f16c 39bd
00000220: a242 433c 8f91 63bd 33ed 4bbd 182c 4d3d
00000230: 23b9 aabc cda6 4cbd e734 0dbd 0155 08bd
00000240: 7b98 b03c e3cc f6bb acab 093d c597 23bd
00000250: 391b 4abd 98ec bcbb 9133 1d3c 4a3d a63b
00000260: 175e 62bd b515 8cbd 589b 193c 628c 08bd
00000270: a57c f43c 298e bd3c 42d8 0d3d 1625 d03c
00000280: d70d 9abc d0fd 0c3d 3877 413b 8b50 79bc
00000290: e895 ac3c 654a b7bc f15c 2fbd ea5a c0bc
000002a0: 5ffc 263c 88bf 2dbd c5a5 fe3c b36b fd3c
000002b0: 9ce9 63bd 7dbe d3bc f0e9 5bba 74d5 133c
000002c0: 98a5 d1bb af32 58bd ad26 f93c 159e 8d3c
000002d0: d0b7 013d 94ea 1a3c 0e98 40bd 6f37 1b3c
000002e0: 75c5 7d3b ac51 da3c 2d2e 68bd 9e5c c83c
000002f0: 6fb9 a13a d1d7 553d c868 1a3c 80e5 4bbd
00000300: 7dca b53c 70c9 593c e7ab 1a3d c3be 3dbd
00000310: 139e abbc 60d7 94bc 11ac a43c 6fc8 873c
00000320: d4af babb bb3d 32bd a970 f3bc 401e d13c
00000330: 7385 54bd 1841 38bd e906 81bd 22aa aa3c
00000340: a33c 38bc 646f 313c 9ca6 6cbb c1c9 db3b
00000350: 3262 61bc efbb dc3c adc2 81bd 99fc b5bb
00000360: a756 30bd 4667 293c e67e 093d d6f1 8fbc
00000370: 58a0 58bd 2722 6e3c 794f 49bd 080d 35bd
00000380: b798 0f3d 53d8 973c 76c1 753c dd0f 293d
00000390: 1d80 91bd 9579 08bd 20db c13b 9597 39bd
000003a0: df9c 89bd eb4d 28bd 6abe be3c fee9 5cbd
000003b0: f678 3cbd ae84 ea3c b18b f53c 3f8a c53c
000003c0: e4aa 55bc 5d3d 2abd f899 afbc b888 e8bc
000003d0: c87a b33b 0b10 0d3d 1f2f 48bc f8f2 dd3c
000003e0: b6e3 06bc ec00 333b 2046 e23b f090 c83c
000003f0: 4ad8 05bd 6c2a 453d 9a6e be3c 4995 44bd

action_model._continuous_distribution.log_sigma f4 [1, 2]
-0.49832195 -0.86164314
00000000: 0e24 ffbe a594 5cbf

action_model._continuous_distribution.mu.weight f4 [2, 256]
-0.06541852 -0.036778092 0.025545321 -0.10607616 0.070493035 -0.08451393 0.025074407 -0.094767325
0.03227504 -0.084898286 0.0079785455 0.030812383 0.009142686 -0.050407663 -0.12251385 0.024867974
-0.106860526 0.04793021 -0.090222314 0.01527765 -0.028277822 0.045914527 0.021493081 0.062233303
-0.106398925 -0.08186001 0.05431746 0.0067473534 -0.10641598 -0.008277219 -0.0053986716 -0.076588385
0.05391048 0.06278703 -0.026247976 -0.006300385 -0.02964944 0.004423319 -0.087784424 0.018271849
0.004570505 -0.07327869 -0.0838118 -0.09277239 0.0103543345 0.032292537 -0.029629003 0.06879522
0.05440982 0.026279703 0.008031704 -0.110719904 -0.056185845 -0.086689256 -0.0023356834 -0.08338659
0.062522665 0.037492253 -0.11315821 0.021712821 -0.09955217 -0.07466393 -0.100746736 -0.082360506
-0.018867815 -0.101865254 0.019121313 0.04263589 -0.07391601 0.079790205 -0.08962335 -0.062145405
-0.02845092 -0.019172713 0.013571842 -0.10526633 -0.11062055 -0.021841584 -0.09966207 -0.04727222
0.016039714 0.027943777 0.051433332 -0.0002352605 -0.11051725 0.0180748 -0.08463229 -0.07116996
0.026312277 -0.06864202 -0.03419426 -0.010761128 -0.10017042 0.015544856 -0.085170634 0.007506357
-0.09488753 -0.09009481 0.006452817 -0.055737656 0.054379947 0.022991119 0.018208615 -0.10082312
-0.07357992 -0.045867536 -0.085827805 0.010727977 0.029932624 0.03227191 -0.075392425 0.022059603
0.043035425 -0.006738774 -0.09856239 0.0344625 -0.080137655 -0.004312812 -0.09892588 -0.06529324
0.041680336 -0.056997877 0.003614552 -0.09360955 0.0064554005 0.0035078246 0.015541315 0.02332587
0.00065512606 -0.0005367138 -0.020335231 0.010853422 -0.019280292 0.034869093 -0.10802393 -0.10732178
0.013975779 -0.07145978 -0.075082056 0.06113832 -0.07911174 -0.06914382 -0.009636908 -0.11291167
0.006956924 -0.10313542 0.039838493 -0.10677394 -0.106602795 0.0088472525 0.028866652 -0.0018400245
-0.09503188 -0.08534555 0.0042155734 -0.10596853 0.058933254 0.022475816 0.033587355 0.022748703
-0.042415883 0.03096184 0.028440986 -0.0012228173 0.035323445 -0.032202467 -0.12561661 -0.11552926
0.015410639 -0.08737688 0.062257566 0.04630026 -0.10640454 -0.0075750537 0.009476358 0.0023526775
-0.012042616 -0.06841429 0.032224607 0.006439373 0.03184009 0.029773649 -0.09394054 0.0022421472
-0.0011809943 0.026957383 -0.08362123 0.033422187 -0.04654498 0.056587357 0.019012885 -0.087477505
0.026988829 -0.004440436 0.024825444 -0.10033232 -0.009121883 -0.100173146 0.038055252 0.030457703
0.005541816 -0.088298656 -0.06593423 0.026198933 -0.084357895 -0.10487406 -0.106034026 0.035841204
-0.034062315 0.010922439 -0.029996118 -0.00791241 -0.05079384 0.022640962 -0.096997246 -0.012690641
-0.08898865 -0.0036239184 0.03131766 -0.051215075 -0.09981353 0.016982514 -0.07996933 -0.091450624
0.018009849 0.0034048774 0.015271207 0.04732726 -0.087022185 -0.078687586 -0.03673673 -0.05952665
-0.065668225 -0.08086115 0.03926736 -0.097124256 -0.08837373 0.02880224 0.029995345 0.03331078
-0.03714784 -0.09803814 -0.11714532 -0.036330808 0.02659064 0.051283583 -0.058013465 0.048196163
-0.010541988 0.008693789 0.0035908027 0.020565692 -0.04762601 0.06784773 0.03245573 -0.086644605
00000000: 25fa 85bd a0a4 16bd 6c44 d13c 753e d9bd
00000010: a75e 903d a415 adbd d868 cd3c 5f15 c2bd
00000020: d532 043d 27df adbd 72b8 023c 406a fc3c
00000030: 34cb 153c 4478 4ebd 8be8 fabd ecb7 cb3c
00000040: b1d9 dabd 7852 443d 7ac6 b8bd 1c4f 7a3c
00000050: e4a6 e7bc df10 3c3d 4212 b03c 59e8 7e3d
00000060: aee7 d9bd 39a6 a7bd fc7b 5e3d e718 dd3b
00000070: 9ff0 d9bd 2c9d 07bc 57e7 b0bb 5fda 9cbd
00000080: 3cd1 5c3d 7d96 803d ff05 d7bc 7673 cebb
00000090: 62e3 f2bc 7df1 903b 52c8 b3bd d8ae 953c
000000a0: 2dc4 953b 2313 96bd 85a5 abbd 73ff bdbd
000000b0: 3aa5 293c 2e45 043d 86b8 f2bc 82e4 8c3d
000000c0: d5dc 5e3d 8848 d73c 6997 033c 1ec1 e2bd
000000d0: 2123 66bd 238a b1bd 4412 19bb 97c6 aabd
000000e0: e20b 803d 7a91 193d 7ebf e7bd 16df b13c
000000f0: 02e2 cbbd 67e9 98bd 4e54 cebd a0ac a8bd
00000100: ad90 9abc bb9e d0bd 4da4 9c3c f9a2 2e3d
00000110: 4761 97bd 0c69 a33d 728c b7bd 2e8c 7ebd
00000120: e711 e9bc 1810 9dbc 6e5c 5e3c e095 d7bd
00000130: 078d e2bd 1fed b2bc a11b ccbd 84a0 41bd
00000140: b865 833c 59ea e43c c2ab 523d 42b0 76b9
00000150: de56 e2bd 9a11 943c b253 adbd 8ec1 91bd
00000160: d88c d73c 3094 8cbd 480f 0cbd 714f 30bc
00000170: 2626 cdbd daaf 7e3c f16d aebd e3f7 f53b
00000180: 6554 c2bd a183 b8bd 2772 d33b 2b4d 64bd
00000190: 82bd 5e3d df57 bc3c 3c2a 953c 5a7c cebd
000001a0: 12b1 96bd 99df 3bbd 7dc6 afbd 66c4 2f3c
000001b0: 4335 f53c 8d2f 043d 5867 9abd 57b6 b43c
000001c0: ea45 303d efd0 dcbb 14db c9bd 8d28 0d3d
000001d0: 361f a4bd 7d52 8dbb a799 cabd 76b8 85bd
000001e0: 00b9 2a3d 9b76 69bd 1fe2 6c3b 5db6 bfbd
000001f0: d387 d33b 88e3 653b 00a1 7e3c e515 bf3c
00000200: c4bc 2b3a 41b2 0cba 1296 a6bc 8dd2 313c
00000210: b4f1 9dbc e5d2 0e3d a63b ddbd 85cb dbbd
00000220: aafa 643c 8159 92bd 9fc4 99bd 2d6c 7a3d
00000230: 5605 a2bd 469b 8dbd 1fe4 1dbc 3c3e e7bd
00000240: e9f6 e33b aa38 d3bd b02d 233d 4cac dabd
00000250: 9152 dabd 11f4 103c c279 ec3c fa2c f1ba
00000260: 13a0 c2bd a6c9 aebd cb22 8a3b 0706 d9bd
00000270: ff63 713d 341f b83c e592 093d 7d5b ba3c
00000280: 47bc 2dbd afa3 fd3c 12fd e83c f146 a0ba
00000290: 51af 103d bce6 03bd a4a1 00be 9b9a ecbd
000002a0: e87c 7c3c a6f2 b2bd ca01 7f3d 57a5 3d3d
000002b0: a0ea d9bd 2838 f8bb ba42 1b3c 612f 1a3b
000002c0: 644e 45bc cb1c 8cbd f3fd 033d 6001 d33b
000002d0: c16a 023d dee7 f33c e663 c0bd fdf0 123b
000002e0: 98cb 9aba bbd5 dc3c 9c41 abbd b4e5 083d
000002f0: f3a5 3ebd 25c8 673d e9c0 9b3c 6827 b3bd
00000300: ad17 dd3c 1481 91bb bb5e cb3c 087b cdbd
00000310: f373 15bc 9427 cdbd d3df 1b3d 6f82 f93c
00000320: 1f98 b53b edd5 b4bd 8708 87bd 259f d63c
00000330: d5c3 acbd 36c8 d6bd 5e28 d9bd 3ace 123d
00000340: ed84 0bbd 08f4 323c 6bba f5bc 0ea3 01bc
00000350: 340d 50bd 8a79 b93c 7ea6 c6bd 68ec 4fbc
00000360: ae3f b6bd 437f 6dbb f246 003d e6c6 51bd
00000370: 096b ccbd ea1e 8b3c f6c6 a3bd 774a bbbd
00000380: 6489 933c 5d24 5f3b 1634 7a3c 3bda 413d
00000390: b038 b2bd f526 a1bd 4179 16bd 37d2 73bd
000003a0: 107d 86bd 889a a5bd d0d6 203d 15e9 c6bd
000003b0: 49fd b4bd adf2 eb3c ccb8 f53c e270 083d
000003c0: 5528 18bd 38c8 c8bd e3e9 efbd 9dcf 14bd
000003d0: 9dd4 d93c bc0e 523d 879f 6dbd 5769 453d
000003e0: 4db8 2cbc 6570 0e3c ac53 6b3b 6279 a83c
000003f0: 7e13 43bd c0f3 8a3d 4df0 043d ba72 b1bd

action_model._continuous_distribution.mu.bias f4 [2]
0.082411245 0.006335676
00000000: 3ac7 a83d 819b cf3b

action_model._discrete_distribution.branches.0.weight f4 [2, 256]
-0.019139187 0.1366267 0.077278994 -0.05325033 -0.04673474 -0.03355097 0.037768643 -0.032625005
0.06691802 -0.037012346 0.011473503 0.045566134 0.103746526 -0.008530351 -0.0063238814 0.017557928
-0.016261032 0.004782007 -0.039354198 -0.0705223 0.14427802 -0.015803885 0.009291087 0.0047261943
-0.023496434 -0.022662992 0.0022688126 0.026134895 -0.047247738 -0.089405335 0.082823224 0.04847515
0.04517782 0.014690486 0.01312119 0.1409486 0.06638922 -0.15780333 -0.029424852 0.06032354
-0.08644531 0.032130428 -0.0014140692 -0.043794528 0.08052208 0.004329596 0.017331103 0.020931244
-0.003831949 0.054595564 0.010330011 -0.05307345 -0.05396178 -0.04837658 0.047144562 -0.040353045
0.02876672 -0.003667373 -0.024999086 0.013649421 -0.022708593 -0.0009924147 -0.01212048 -0.037436154
0.0005912524 -0.010621609 -0.0005580306 0.060510512 -0.037245136 0.006236926 -0.04726086 -0.0031389443
-0.014792906 0.17529452 0.055924732 -0.042715773 -0.03245717 -0.03152701 -0.026407255 0.056677263
0.024659224 -0.028482545 -0.015233715 0.07026121 -0.03773817 -0.14692944 -0.11736313 -0.023453107
-0.011394211 0.06265562 0.0938936 0.073132254 -0.031758092 0.05206057 -0.031295467 0.046456948
-0.034483843 0.06669859 0.07526144 0.026563345 0.028730059 0.030718617 -0.012636559 -0.019988837
0.0046872804 -0.03527047 -0.0323628 0.088628 0.06571404 0.07327743 0.14693785 -0.094865985
0.0067374157 -0.044447802 -0.036991417 -0.00161113 0.041554652 0.05676185 -0.019072784 -0.013979142
0.04571972 -0.10982937 -0.21871038 -0.030708484 0.0152561525 0.13967015 0.10842311 0.07003458
-0.19912072 -0.022096023 0.08779539 -0.027448993 0.055855714 -0.03104244 -0.0128880525 -0.04865401
0.136782 -0.026189107 -0.005901211 -0.03489876 0.09400246 -0.03169721 -0.13246447 -0.026317675
-0.021823369 -0.0066445926 -0.006123747 -0.031642597 -0.021739202 0.07628023 -0.20586817 -0.03424002
-0.03732718 -0.013270696 0.05865675 -0.048283 -0.021035412 0.058224194 0.061829936 -0.020197555
0.048005763 0.022393933 -0.12249474 -0.04464309 -0.11136026 0.043872736 -0.012982287 -0.041744206
0.099278085 -0.03292291 -0.00056371506 -0.118617125 -0.030255437 0.046752468 -0.0023792656 -0.04287722
-0.013815104 -0.051526766 0.0353036 0.1344151 0.043099467 -0.003002467 -0.027112473 0.024597326
0.026413495 0.06975308 -0.015217991 -0.0035901605 0.15814576 0.047591355 -0.007696592 -0.041569762
-0.02915129 0.17253953 0.06976696 -0.015441869 -0.08985416 0.0101134 -0.028631067 0.018364752
0.029105775 -0.02837081 0.06605245 -0.026735801 -0.045986425 -0.027159588 -0.04606058 0.014519084
0.13117209 -0.02696541 0.036343627 0.10199465 0.17119011 0.1796178 -0.046034474 -0.098838486
-0.025924992 -0.1451801 0.070274316 0.035885103 -0.047733128 -0.08504306 -0.02780656 -0.0036416992
0.11394257 0.021508902 -0.08118259 0.016011713 -0.04686325 -0.026124379 0.2587254 -0.012064768
-0.031070212 -0.053235162 -0.13511638 -0.028011039 -0.02814733 0.08717313 -0.014185165 -0.06833922
-0.027434606 -0.022110585 -0.052077327 -0.013661022 0.014499295 -0.03942656 0.27270046 0.023801161
0.06730243 0.042872205 0.03444032 0.0071163806 0.02125829 0.011681782 -0.011496011 -0.030161202
00000000: c9c9 9cbc dfe7 0b3e 7344 9e3d 051d 5abd
00000010: ed6c 3fbd be6c 09bd 4bb3 1a3d cca1 05bd
00000020: 510c 893d 429a 17bd 5cfb 3b3c 8ea3 3a3d
00000030: 0f79 d43d e3c2 0bbc 9038 cfbb a5d5 8f3c
00000040: db35 85bc 62b2 9c3b de31 21bd ff6d 90bd
00000050: 9ebd 133e 2677 81bc a539 183c 31de 9a3b
00000060: 987b c0bc bda7 b9bc 5cb0 143b d918 d63c
00000070: d886 41bd 251a b7bd 399f a93d e18d 463d
00000080: 610c 393d 5db0 703c 42fa 563c d454 103e
00000090: 12f7 873d 3297 21be 630c f1bc d115 773d
000000a0: 3d0a b1bd 329b 033d 4a58 b9ba e461 33bd
000000b0: c3e8 a43d 49df 8d3b f5f9 8d3c 0078 ab3c
000000c0: 7021 7bbb 999f 5f3d 353f 293c 8c63 59bd
000000d0: 0707 5dbd 8526 46bd a81a 413d 3c49 25bd
000000e0: 2fa8 eb3c 4f58 70bb e2ca ccbc d2a1 5f3c
000000f0: 5f07 babc e913 82ba fa94 46bc a756 19bd
00000100: 47fe 1a3a 4206 2ebc cd48 12ba dfd9 773d
00000110: 5b8e 18bd 215f cc3b 9b94 41bd bfb6 4dbb
00000120: f25d 72bc 6880 333e 5511 653d bcf6 2ebd
00000130: cff1 04bd 7722 01bd 0754 d8bc 6b26 683d
00000140: 2402 ca3c 3a54 e9bc d596 79bc 1ce5 8f3d
00000150: 5793 1abd ac74 16be 155c f0bd bb20 c0bc
00000160: c9ae 3abc 9751 803d 4a4b c03d 5dc6 953d
00000170: c614 02bd 773d 553d ad2f 00bd a449 3e3d
00000180: ee3e 0dbd 4599 883d ab22 9a3d 5f9b d93c
00000190: 4d5b eb3c 9ca5 fb3c 9209 4fbc a1bf a3bc
000001a0: c297 993b c577 10bd db8e 04bd 9982 b53d
000001b0: 1595 863d 7a12 963d e076 163e 1949 c2bd
000001c0: 8ac5 dc3b e60e 36bd 5084 17bd 8d2c d3ba
000001d0: 3635 2a3d 1d7f 683d 873e 9cbc c508 65bc
000001e0: 9a44 3b3d 39ee e0bd 9df5 5fbe 5c90 fbbc
000001f0: f1f4 793c b105 0f3e ef0c de3d 4a6e 8f3d
00000200: 4de6 4bbe b802 b5bc 12ce b33d b6dc e0bc
00000210: f6c8 643d b74c febc 6928 53bc 6d49 47bd
00000220: 9510 0c3e 8a8a d6bc f25e c1bb 01f2 0ebd
00000230: 5d84 c03d efd4 01bd c4a4 07be 2a98 d7bc
00000240: ecc6 b2bc e2ba d9bb b7a9 c8bb ab9b 01bd
00000250: 6916 b2bc cf38 9c3d 1bcf 52be 433f 0cbd
00000260: 63e4 18bd 556d 59bc 0f42 703d 65c4 45bd
00000270: 7552 acbc 7e7c 6e3d 6341 7d3d 5875 a5bc
00000280: b1a1 443d 7b73 b73c 86de fabd acdb 36bd
00000290: d910 e4bd e6b3 333d a9b3 54bc f9fb 2abd
000002a0: 4f52 cb3d 2cda 06bd 47c6 13ba 89ed f2bd
000002b0: 40da f7bc 847f 3f3d 74ed 1bbb 06a0 2fbd
000002c0: bf58 62bc bb0d 53bd 829a 103d 1da4 093e
000002d0: 1189 303d 0ac5 44bb fa1a debc 5580 c93c
000002e0: 1d61 d83c b4da 8e3d e154 79bc e648 6bbb
000002f0: f6f0 213e 27ef 423d b133 fcbb 0e45 2abd
00000300: b0ce eebc 34ae 303e fbe1 8e3d e5ff 7cbc
00000310: 7505 b8bd adb2 253c b38b eabc ad71 963c
00000320: 3c6f ee3c e769 e8bc 8246 873d 0a05 dbbc
00000330: 435c 3cbd c97d debc 05aa 3cbd 74e1 6d3c
00000340: fa51 063e 90e6 dcbc 0edd 143d 92e2 d03d
00000350: 764c 2f3e bbed 373e a58e 3cbd d56b cabd
00000360: a660 d4bc 18aa 14be fbeb 8f3d 42fc 123d
00000370: d083 43bd 0e2b aebd 95ca e3bc 93a9 6ebb
00000380: b95a e93d 7033 b03c 0f43 a6bd ff2a 833c
00000390: aef3 3fbd cb02 d6bc a877 843e 4eab 45bc
000003a0: f586 febc 1d0d 5abd f35b 0abe 6877 e5bc
000003b0: 3b95 e6bc d387 b23d e568 68bc 6ff5 8bbd
000003c0: 8abe e0bc 4221 b5bc 094f 55bd 7bd2 5fbc
000003d0: 738e 6d3c bf7d 21bd 659f 8b3e a7fa c23c
000003e0: dbd5 893d c49a 2f3d 4b11 0d3d 8730 e93b
000003f0: de25 ae3c f264 3f3c c459 3cbc a014 f7bc

action_model._discrete_distribution.branches.0.bias f4 [2]
0.035126355 -0.0351263
00000000: a7e0 0f3d 98e0 0fbd
