Assets/ML-Models/SimpleCollector 1.onnx (onnx, 387039 bytes, 9 tensors)

network_body._body_endoder.seq_layers.0.weight f4 [256, 109]
000000 d4 4b bb 3c fa 24 0d be ed dc 13 be 9f 99 6b bd
       0.022863306 -0.13783637 -0.14439745 -0.05751955
000010 16 35 3c 3e 85 29 ef 3d 73 f7 7c bb 15 a9 b3 bd
       0.18379626 0.11677841 -0.003859964 -0.08772484
000020 20 f8 ad ba 4e 4b 7c bd ed d1 95 bd 0a 3f b0 3d
       -0.00132728 -0.061595254 -0.07315431 0.08605774
000030 68 ef d6 3d 9a 9e 11 3e 7c 1a 8b bd 15 ec 2f 3d
       0.10494882 0.14220658 -0.06792161 0.042949755
000040 16 8a ea 3d c6 5e c2 3d a4 8e b4 3b 37 e8 ba 3d
       0.11452119 0.09490733 0.005510168 0.09126323
000050 41 be b8 bc 72 e5 98 3c ba a2 f9 bc c5 fe 16 3d
       -0.022551658 0.018664096 -0.030473102 0.03686406
000060 44 54 3e 3c 2d 3c 8b 3d bb d7 8f 3c 4c 97 8a 3d
       0.01161677 0.06798587 0.017558923 0.06767139
000070 28 e7 13 be b7 a3 bd 3d f6 76 ae 3d a9 2a c0 bd
       -0.14443648 0.09259742 0.08518784 -0.09383137
000080 9d 48 f0 3d 3b f4 f1 3c 4b 7a 2e 3d 40 63 2f 3e
       0.117326 0.029535403 0.042597096 0.17127705
000090 ab 19 6f bd ce 65 65 3d 36 8d bf 3d fa 0b bf 3d
       -0.05837409 0.05600529 0.09353106 0.09328456
0000a0 6c fe 2e 3e 03 16 40 3e 7c b8 8d 3d f2 e7 38 bd
       0.17089242 0.18758397 0.06919953 -0.045143075
0000b0 10 52 bc be 02 46 4e ba 67 e5 0d 3d a8 b0 42 3d
       -0.3678136 -0.00078687083 0.034642603 0.047531754
0000c0 8c 8f a6 3d 7f c4 2b be 7c 08 10 be 40 28 c2 bd
       0.08132848 -0.16774176 -0.14065737 -0.09480333
0000d0 da f1 00 be 37 86 bd bd e9 84 e2 bc 15 d6 37 3d
       -0.12592259 -0.09254115 -0.027651267 0.0448819
0000e0 53 62 b0 3d aa 31 dc 3d 03 f4 b7 bc d3 9a 1e 3d
       0.08612504 0.1075166 -0.022455221 0.03872187
0000f0 1d 03 d9 3d f9 bf 6d 3c 42 69 b2 bc 31 c9 6d bc
       0.10596297 0.014511102 -0.021778706 -0.0145133
000100 a3 b7 eb 3c ca 6e 40 3d e6 a8 13 3e 80 78 3d bd
       0.028774088 0.046980657 0.14419898 -0.046257496
000110 41 db 34 3e 6a 11 c5 3d 8b 2e 57 be 88 ea 36 bd
       0.17661764 0.09622462 -0.21013848 -0.04465726
000120 27 7a 9b bc 7f 3d 1c 3c 91 f4 a8 bd ba f0 f7 bc
       -0.018979145 0.009536146 -0.08249772 -0.030266155
000130 4d a6 8b bc c0 61 d0 ba 8c 01 c4 3d 29 69 91 bd
       -0.017047072 -0.0015898272 0.095706075 -0.07100136
000140 18 fd e8 bd 9f 8d 8b 3d ce 51 99 3d a6 32 ca 3d
       -0.11376399 0.068141215 0.07486306 0.09872942
000150 88 3a 18 3e 0d 53 c2 3d f3 97 0e 3e 67 8b 87 3d
       0.14866078 0.09488497 0.13925152 0.06618386
000160 d4 cd 98 bd f2 2e ad 3d 2f bf a8 bd 9e 6a b7 bd
       -0.074611336 0.0845622 -0.082395904 -0.089558825
000170 8a c2 bb 3d a5 9e a6 bd 1a f5 c3 bd 15 65 a3 bc
       0.09167965 -0.08135728 -0.09568234 -0.01994566
000180 b9 4c 2f bd 45 6e 0d bd d3 1f 7a 3e f1 4c 6f 3d
       -0.042797778 -0.03452899 0.24426202 0.058422986
000190 13 b8 10 3e a3 14 07 be 04 07 1c bd ff 9e dd 3d
       0.14132719 -0.13191466 -0.038092628 0.10821342
0001a0 bb 98 99 bd 06 d1 a0 bd 13 75 f5 bd d2 22 2b be
       -0.07499834 -0.07852368 -0.11985221 -0.16712502
0001b0 d8 43 86 be 3c 3e 87 3e 17 14 16 bd 59 61 ee bb
       -0.26223636 0.2641467 -0.036640253 -0.0072747883
0001c0 44 55 e3 3c fc c3 5d 3e f3 15 58 3e 0c 98 f2 bc
       0.027750619 0.21656793 0.21102123 -0.029613517
0001d0 11 c6 ae bd a5 fa 41 3e 46 19 a3 bd c1 1a 2d 3d
       -0.08533872 0.1894327 -0.07963805 0.042261843
0001e0 c4 7e c5 3d 19 db b0 bd ad 6f a3 bd 5d 06 ec 3d
       0.09643319 -0.086355396 -0.07980285 0.11524651
0001f0 b6 19 c2 bc c9 7f 67 3d 82 c6 4f 3e ee 7e 23 be
       -0.0236939 0.05651835 0.20290568 -0.15966389
000200 49 ee 02 bd d2 86 f4 3d 17 47 f6 bc 95 de a5 3c
       -0.031965528 0.119397774 -0.030063195 0.020247737
000210 76 8c a2 bc 0f f4 29 bd 75 01 bd bc 38 ea 9d bd
       -0.019842368 -0.041492518 -0.023071984 -0.07710689
000220 57 d8 04 3e 07 77 05 3e 84 00 b9 bd 20 9a 2d 3c
       0.12973152 0.13033687 -0.090333015 0.010595828
000230 e2 d4 ce bd b0 de c4 bc 98 4b 17 be 42 be 3b bd
       -0.10099198 -0.024031967 -0.1477493 -0.04583574
000240 92 a8 16 3d 2e 18 9c bd 65 2e 05 3e 2b b4 aa 3d
       0.036781855 -0.076217994 0.1300598 0.083351456
000250 63 2a bc 3c 2d a7 06 be dc 82 c5 3d c4 31 1e 3d
       0.02296943 -0.1314971 0.096441 0.03862168
000260 d9 f4 eb 3d 23 75 78 3d c5 2d ab bd 4c 3d 89 bd
       0.1152131 0.060658585 -0.08358339 -0.067011446
000270 19 c4 ad bd 39 aa 2c be 01 c5 24 be 55 54 e3 bd
       -0.08484668 -0.1686181 -0.16090776 -0.111000694
000280 d3 db d9 3b c2 09 19 3c e8 88 6f bd 8f 07 2c bd
       0.0066485195 0.009340705 -0.058480173 -0.041999396
000290 59 be da 3d 95 d3 22 be ed 14 ae 3d f2 d9 00 3d
       0.10680837 -0.15901025 0.08500085 0.03145785
0002a0 d1 85 1d 3e 65 c9 4f 3c 9c 15 60 bc 41 80 14 bd
       0.15383078 0.012682294 -0.013677027 -0.036255125
0002b0 e4 74 b2 3c 88 fe d2 3d c9 27 36 3e 61 5e 91 3b
       0.021784253 0.10302454 0.17788614 0.0044362997
0002c0 97 0d b6 bd 3c f2 f3 bd ce 1a 1e bd 94 9e 29 bd
       -0.08889311 -0.11911437 -0.03859978 -0.041410998
0002d0 04 0c 7f bc 4b 87 6d bc c2 55 bc bd 0b 08 d0 3d
       -0.01556683 -0.014497588 -0.091960445 0.10157784
0002e0 8d f9 37 3c 6e 62 80 3d 97 9c 86 bd 6c 5f ad 3b
       0.011228931 0.06268774 -0.06572836 0.005290916
0002f0 fb 14 f6 3d 80 77 09 3d a1 25 93 3d b0 db 9b 3d
       0.120157205 0.03356123 0.071849115 0.076102614
000300 04 f8 5b 3e 64 63 17 3d 30 ed ab 3c e6 94 d8 b9
       0.21481329 0.03696002 0.020987123 -0.00041309668
000310 e2 fa 8f 3c f4 27 1e bd 39 6d 85 bd b9 d4 50 be
       0.017575685 -0.03861232 -0.06514973 -0.20393647
000320 3c 89 54 3e 6e 8f 16 3d f4 3c 98 bd 73 9d 9f bd
       0.20755476 0.03675788 -0.07433501 -0.07793703
000330 63 3e 0e 3e 0d 35 40 bb 74 ba 34 be f8 f4 7a 3d
       0.13890986 -0.0029328496 -0.17649251 0.061268777
000340 25 9b 91 bc f2 2c bc bc 25 7f 66 3d 90 d0 d5 3c
       -0.017774174 -0.02297065 0.0562736 0.026100427
000350 39 5a bf 3d 45 f6 01 bd 5d cf 80 bd 93 29 87 3d
       0.093433805 -0.031729 -0.062895514 0.065997265
000360 9b 3d 0a bd 58 c2 05 be 56 9e 4d be 72 09 7a bc
       -0.033750158 -0.13062418 -0.20079932 -0.015261041
000370 4e 39 af 3d d4 0a 4a 3e 7e 66 7d 3c 71 31 a0 3d
       0.08555852 0.19730693 0.015466331 0.0782193
000380 65 1b 01 bd 87 0e b6 3d 01 3a af bd 00 45 10 3e
       -0.031520266 0.088894896 -0.08555985 0.14088821
000390 e5 47 0e 3d 08 73 1c bd 7f 4a ea bd 94 4d 1a 3c
       0.034736533 -0.03819564 -0.1143999 0.00941791
0003a0 2d ff f1 bd e4 ca 52 be 7c 3a e6 bd 09 85 bb bd
       -0.11816249 -0.20585209 -0.11241624 -0.09156234
0003b0 02 63 e2 3d 75 2e a1 bc 95 3c 7b 3d bf 2a 46 bd
       0.110540405 -0.019675473 0.061337072 -0.04838061
0003c0 2b df 6b 3b cd 62 85 3b c6 e2 07 be dc 72 ad 3d
       0.0035991173 0.004070616 -0.13270101 0.08469173
0003d0 77 8c 26 3d 0a 4d 92 3c a0 91 fb 3c fb 38 b8 bd
       0.0406613 0.017859 0.030709088 -0.08995243
0003e0 9c fd 8a bd b3 35 17 bc 3c 1a 36 be 73 16 8a 3d
       -0.067866534 -0.0092291115 -0.17783445 0.06742563
0003f0 67 80 cb bc 70 bc 06 bd 4c ed 5d 3c 6f 65 09 3e
       -0.0248415 -0.03289455 0.0135453455 0.134176

network_body._body_endoder.seq_layers.0.bias f4 [256]
000000 f9 dd f7 bb b5 f0 7c bc 61 c3 3a bc 49 7b a5 3c
       -0.007564303 -0.015438248 -0.011399121 0.020200389
000010 22 44 8d bb 8a cb e6 bb cd 69 eb bb c6 47 af 3c
       -0.0043111006 -0.0070433067 -0.0071842433 0.021396529
000020 a9 cd 88 3c 34 4d d0 bb ae 4f d2 3c ba 04 5a 3c
       0.016699629 -0.0063568596 0.02567276 0.013306791
000030 ac 59 28 bc 93 9f cb 3b b8 ab bc ba 0f c0 05 bd
       -0.010275286 0.006214091 -0.0014394438 -0.032653864
000040 03 fd 2c 3d d8 c7 28 bc 05 6e 62 3b 3f a2 3d 3c
       0.04223348 -0.010301553 0.003455044 0.011574327
000050 2f 3d 19 3c 41 4e 07 3b 85 a0 ba ba be ee 42 bc
       0.009352966 0.0020646008 -0.0014238512 -0.011897741
000060 0c 87 b2 bc 3d b6 82 bc de 88 03 bc 72 0f 3c bb
       -0.021792911 -0.015956039 -0.008028237 -0.002869573
000070 ec 62 e4 3c af fd 2f 3c 99 24 0c bb 9d 0d 76 3c
       0.0278792 0.010741635 -0.0021384119 0.015017894
000080 47 8c 42 bb 5a 29 4b bc e1 05 a2 3c 9b cb af bb
       -0.0029685663 -0.012399996 0.019778194 -0.005364848
000090 e0 94 b4 bc 33 0d 8d 3c d7 4e 48 3c 21 40 d2 3c
       -0.022043645 0.017218208 0.012225828 0.025665345
0000a0 40 55 5c bc ae 99 83 3c 6a d4 01 3c e9 15 0c bc
       -0.01344806 0.016064491 0.007924179 -0.008550146
0000b0 0f 3c 1c bd 3e 6d 04 3b 92 85 4a bc fd 77 7b bb
       -0.038143214 0.0020206715 -0.012360947 -0.003837108
0000c0 4f 49 20 3d 26 ff 93 bb ee d8 6c bb 2c 49 9b 3b
       0.039132413 -0.0045165 -0.0036140042 0.0047389474
0000d0 09 2a b8 ba 06 e9 86 3c 9a ab d5 3c 53 d1 00 3d
       -0.0014050613 0.016468536 0.026082803 0.031449627
0000e0 36 4c 1f 3c 7f 98 86 3a 08 be 9f bb 12 e5 84 bc
       0.00972276 0.0010268836 -0.0048749484 -0.01622251
0000f0 55 3b 8c 3c d7 15 74 3a d1 9d cc 3b c1 2e 91 3c
       0.017118135 0.0009311116 0.006244399 0.01772249
000100 9b 37 0d bc bd 70 b0 bb 1c 0a 05 b9 87 ec 98 bb
       -0.008619214 -0.005384533 -0.00012687634 -0.004666868
000110 0a 1b 29 bb 44 a5 a2 b9 34 e1 1b bc 71 60 0f 3c
       -0.002580347 -0.0003102218 -0.009514142 0.008751021
000120 d6 07 18 bb 0a 6a 13 3c 12 38 6c bc 85 26 8b bc
       -0.002319803 0.00899745 -0.014417665 -0.016986141
000130 f9 0a 36 3c 9d fc 9e 3b ff 90 d9 39 20 2a 9d 3a
       0.0111110145 0.004851891 0.00041497496 0.0011990704
000140 86 82 ab bb 57 09 9e 3c 6f 07 65 bc 37 67 82 bb
       -0.0052340655 0.019291563 -0.013978823 -0.0039795893
000150 fe 60 73 3a 2d b1 19 3c 17 2a b6 bc cc 30 1b 3c
       0.00092841673 0.009380621 -0.022236867 0.009472083
000160 f7 6f 52 bb 47 cc 6f 3c 86 2b e2 3b b5 40 94 bb
       -0.0032110193 0.014636106 0.006902161 -0.0045243152
000170 f2 8d 88 bc 90 36 6e 3c 1d ee 55 3c d9 90 9a 3c
       -0.016669247 0.014539376 0.013057259 0.018867897
000180 2c 85 58 ba 06 b2 32 bb 60 25 04 3c 0e 52 e8 bc
       -0.000825959 -0.0027266755 0.0080655515 -0.02835944
000190 23 b7 3c 3c ea 06 d4 ba 70 01 a6 bb c0 fd e6 bc
       0.011518273 -0.0016176377 -0.0050660893 -0.02819717
0001a0 28 ff a4 3b e6 5e b2 bb 42 ad bd 3c 05 c3 a9 bb
       0.0050353 -0.0054434417 0.023153905 -0.005180719
0001b0 1d 56 72 bc 6a 11 f6 bb 29 a2 a9 bc 7f 86 f1 bb
       -0.014791039 -0.0075094 -0.020707207 -0.0073707695
0001c0 8b e7 fd 3c 68 02 d1 3b 52 55 90 bc 3e 17 26 bc
       0.030994197 0.0063784607 -0.017618809 -0.010137377
0001d0 1b 1a 93 ba 91 0e 82 3b c0 84 09 3c 48 54 33 3c
       -0.001122299 0.0039690216 0.0083934665 0.010945387
0001e0 cd 3f cd bb e1 9d 6a 3c 96 64 e7 39 b3 99 22 3c
       -0.006263709 0.014319868 0.00044134696 0.00992434
0001f0 e8 c7 56 3c 7e 02 59 3c 62 d5 ae 3c 4d ec 67 3c
       0.013109185 0.013245223 0.021341983 0.01415546
000200 b8 d8 41 bc c4 f5 38 3c 46 47 16 3c a7 e9 71 3c
       -0.011831455 0.011289064 0.009172266 0.01476518
000210 0a aa 1a bc 7a c2 1e bd 86 19 47 bd a8 a7 1f bd
       -0.0094399545 -0.038759686 -0.048608325 -0.03897825
000220 b2 02 7e bc 47 cf c6 3b d1 d5 6f bb 1f 0e 68 3c
       -0.015503572 0.00606719 -0.003659595 0.014163523
000230 b2 28 c9 b9 26 7e 05 3c ce ff 9d b8 37 4b ef 3c
       -0.00038368028 0.008147752 -7.533991e-05 0.02921067
000240 5e 25 5e 3c a4 6b 01 3c da 7f 36 3c 8d 3c 9b ba
       0.013558714 0.007899199 0.011138881 -0.0011843607
000250 89 17 06 bb 68 b4 b2 3b cc cd 2b 3c f8 42 99 bc
       -0.0020460805 0.005453635 0.0104860775 -0.018708691
000260 33 ff b1 3c 9b d6 d3 bb 1c 1c 8d bc 5a 9a 5c 3c
       0.021728134 -0.006464792 -0.017225318 0.013464535
000270 71 fc 34 3c 29 15 0c 3c 88 87 b8 3c 91 42 c7 b8
       0.011046515 0.008549967 0.022525564 -9.5014584e-05
000280 fc 7e 92 3b c1 97 20 bc 10 ff 2c bc 84 85 2c 3b
       0.004470704 -0.009801806 -0.0105588585 0.0026324699
000290 46 6f d3 bb aa 1b 87 bb 37 13 92 3b da 6e c6 3a
       -0.006452474 -0.004123171 0.004457857 0.0015139238
0002a0 1e 5f b9 bb 03 a2 e2 3c ec 77 fa 3a 21 cb eb 3b
       -0.005657091 0.027665144 0.0019109226 0.0071958457
0002b0 7d 40 68 bc ba 7d d9 3b 24 f0 ca bc 09 9a a4 3c
       -0.014175531 0.006637302 -0.024772711 0.020092981
0002c0 6a f4 88 3c 07 4c f1 3a 28 d3 75 3c 48 bf 74 3c
       0.016718108 0.0018409499 0.015003957 0.014938183
0002d0 1c 70 0f 3b 0d d2 4e bb 1c 64 82 3a 9b 60 69 3b
       0.002188689 -0.0031558305 0.0009948048 0.003561056
0002e0 ed f4 81 3c fb 46 d5 3b 14 8c 07 bc bb 5d 84 bc
       0.01586386 0.0065087057 -0.008273143 -0.016157975
0002f0 34 ad 8c 3b fb 06 8e 3c f7 31 0d 3d 95 b7 bb bb
       0.0042931084 0.017337313 0.03447148 -0.005728672
000300 b6 e6 a1 3b 4c 5c 54 3c 76 80 fe 3c 56 a5 31 bd
       0.004940833 0.012961458 0.031067114 -0.043370567
000310 0f dd 09 3c 9c f0 f0 bc 48 b5 35 bc bf ed 9d bc
       0.008414521 -0.029411606 -0.011090584 -0.019278405
000320 e4 1e 95 3c 14 84 96 3b 5b 58 11 ba 1d 0f 17 3c
       0.018203206 0.0045933817 -0.0005544477 0.009219912
000330 c3 6a 40 ba df 04 79 3c 8b 16 8e bc 6e 94 fb 3b
       -0.00073401275 0.015198915 -0.017344734 0.0076776063
000340 a2 99 c0 3b 08 44 56 3c ca 76 f7 bb a4 d2 dc 3c
       0.0058776895 0.013077743 -0.0075520026 0.02695591
000350 e1 6e f7 bc d1 40 31 3b 1d 19 c7 3b 71 8e f6 ba
       -0.030204238 0.002704669 0.006075992 -0.0018810761
000360 da 15 45 bc f9 4e 33 3b c9 fe 21 bc 66 d8 b9 39
       -0.012029136 0.0027360304 -0.009887406 0.0003544718
000370 01 ba be 3a ee 72 ac bc 18 26 23 bc d7 e7 39 3c
       0.0014551283 -0.021050896 -0.009957813 0.011346779
000380 7c 7f 03 3b 3a 5f 98 39 ce fc f5 3b 46 31 d7 3a
       0.0020065 0.00029062649 0.0075069433 0.0016417883
000390 e8 ec d3 bc f2 a1 62 3c 5a 2f 6f 3c bb 7a 91 3c
       -0.025869802 0.013832556 0.014598692 0.017758718
0003a0 aa a7 a0 3b c6 f9 6a ba 1c a4 d9 3c db 73 23 bc
       0.0049027996 -0.0008963611 0.026567511 -0.009976353
0003b0 6d 3f 43 3c b8 e9 1a bb 6e f9 54 3b 69 c8 cb 3c
       0.011916977 -0.0023637842 0.0032497304 0.024875836
0003c0 5a f4 fa bc 77 b0 6b bb f3 46 b1 3c d2 c4 25 bb
       -0.030634094 -0.0035963336 0.021640277 -0.0025294316
0003d0 93 cf b3 3c 38 6f 26 bc 39 5d 91 3c 66 1d 36 3c
       0.021949565 -0.010158353 0.017744647 0.011115408
0003e0 55 70 26 bb d2 91 ba 3c 08 79 88 b8 22 41 96 3c
       -0.0025396545 0.02277461 -6.507529e-05 0.018341605
0003f0 bc 6a 8f 3c ef cd 31 bc 9a 68 88 3c 67 4f ee ba
       0.01750695 -0.010852321 0.01665144 -0.0018181623

network_body._body_endoder.seq_layers.2.weight f4 [256, 256]
000000 76 67 85 bc a1 68 67 b7 1d 6a 40 bd ea 83 98 bd
       -0.016284686 -1.3793034e-05 -0.046976198 -0.074470356
000010 1e 51 c3 bd 13 8f 8f bd eb 49 07 3d a3 ef 84 bc
       -0.09536956 -0.07009711 0.033029478 -0.016227549
000020 ce d9 e1 b9 cf fe 46 bc 75 3d 1f bd 02 0a 7b bd
       -0.0004307762 -0.012145712 -0.03887697 -0.06128884
000030 a5 12 ed 3d d4 f7 32 3d 0a 5b de bd 69 d4 97 bd
       0.11575822 0.04369338 -0.10857208 -0.07413561
000040 2d fb c0 bd 90 6c f4 3d 72 ac 36 bd 65 37 4a bc
       -0.09422908 0.11934769 -0.04459805 -0.012342309
000050 40 ee 51 bc 6e 06 1b bd 01 4e 1f 3d 69 9a ef 3d
       -0.012813151 -0.03784793 0.03889275 0.11699373
000060 81 c4 0c 3d 9b 36 b4 bb 5c 6a 30 be e5 89 57 bd
       0.03436709 -0.0054996735 -0.17228073 -0.05262174
000070 a9 e4 7b bd 86 88 76 bd f6 05 10 3d c2 24 77 3d
       -0.061497364 -0.060188793 0.035161935 0.06033779
000080 f7 2c 83 3d 6d 90 c2 bc d3 ef 81 3d a2 4c 29 3d
       0.06405061 -0.023750508 0.06344571 0.04133285
000090 67 77 5a 3c 03 78 5f be c8 6c 99 bd c2 f0 f1 3d
       0.013334132 -0.21823125 -0.074914515 0.11813499
0000a0 24 17 91 3c f1 9e d2 3c 00 95 1d bc 50 b1 f4 3b
       0.01771123 0.025710555 -0.009618044 0.0074674264
0000b0 b2 e0 5c 3d c5 3c bb bc 11 44 14 3e 6e c1 f2 3a
       0.053925224 -0.022856126 0.1447909 0.0018520781
0000c0 e5 b9 39 bd 61 09 91 ba 93 01 5e bc 42 bb 9d 3d
       -0.0453433 -0.0011065417 -0.01355018 0.07701732
0000d0 15 b1 94 3d 93 01 6f bd b2 0c 1e be 9c e3 06 be
       0.07260338 -0.05835111 -0.1543453 -0.13172764
0000e0 7f 6e 04 bb 86 b9 12 3e 66 a6 88 bd 61 1f c5 bd
       -0.0020207462 0.14328584 -0.06672363 -0.09625126
0000f0 57 0b 39 be 65 64 5e 3d a3 35 b2 3d 00 84 9d bd
       -0.18070732 0.054294962 0.08701637 -0.076911926
000100 d3 03 3e 3c dc cd 46 bd b4 ef 23 bd 08 c9 9a 3d
       0.011597591 -0.048536167 -0.04002352 0.07557875
000110 5a 45 be 3d 0a cb 3b 3d 57 4b 4f bc 15 05 24 3e
       0.092905715 0.04584793 -0.01265224 0.16017564
000120 ba b5 87 3d 2c df b1 3c 8c aa 8b 3d 65 78 ef bd
       0.066264585 0.021712862 0.068196386 -0.11692885
000130 29 5a 98 bd bb 2c 3f bd 9b 71 18 3d 6b 53 49 3d
       -0.07439072 -0.046673518 0.037217718 0.04915182
000140 07 30 c3 bc 4a 12 13 be 69 b8 f3 3d 14 37 be 3d
       -0.023826612 -0.14362445 0.11900408 0.09287849
000150 ca b2 04 3d 55 4c 5d 3c 16 ce 0a bd 14 1a bf 3d
       0.03239707 0.0135069685 -0.033887945 0.09331146
000160 9e e0 47 3d 7f 61 09 be ee 1d 09 bb d2 ca 6a 3c
       0.048798196 -0.13416098 -0.002092238 0.014330583
000170 f7 a2 0e bd 94 72 51 bd 2c 8a 1a 3e 3b f4 20 be
       -0.034823384 -0.05113466 0.15091771 -0.15718167
000180 4a aa e9 bd ae 06 8c bc 44 18 19 bd 92 0f a4 bb
       -0.11409433 -0.017093029 -0.037376657 -0.005006739
000190 27 95 38 3e 83 86 98 3c 9f 18 01 3d e7 dd c7 3d
       0.18025647 0.018618828 0.03151762 0.097591214
0001a0 41 31 ba 3d 55 34 5d bc f0 ff 24 bc 85 61 8c 3b
       0.09091426 -0.013501246 -0.010070786 0.004284086
0001b0 b7 20 86 3d 3b 18 86 be 44 48 3b 3c 57 45 9f 3d
       0.065492086 -0.2619036 0.011430804 0.077768974
0001c0 36 1c 75 3c 52 9c 91 bc 03 51 b6 bd 6a ef d5 bc
       0.014960339 -0.017774735 -0.089021705 -0.026115138
0001d0 d2 6f 8c 3d 40 27 e2 bd 9f 8c 88 3d fb cf 44 3d
       0.068572655 -0.110426426 0.06667446 0.048049908
0001e0 a9 c6 04 be 3d 94 84 bc 32 72 0c be f1 a6 4a 3d
       -0.12966408 -0.016183967 -0.13715437 0.049475614
0001f0 e3 0e 1f bd 9a 2b 21 3d 36 9d 83 bd a9 e1 0b bd
       -0.038832556 0.039348222 -0.0642647 -0.034150753
000200 79 43 c4 bc 81 c3 10 bd 95 67 24 bd ab 82 fb bd
       -0.023957955 -0.035342697 -0.040137846 -0.12280782
000210 1b 1a d0 3c 58 cd 36 bd cb 91 df 3d 63 26 8a 3d
       0.025403073 -0.044629425 0.1091648 0.06745603
000220 67 c6 f8 bd 00 e7 95 bd 43 e1 49 3d 7a dd d5 bd
       -0.12147217 -0.073194504 0.049287092 -0.10442634
000230 72 f5 55 3d 75 86 d1 bb e8 42 06 bd 62 3a 2a be
       0.052236028 -0.0063942024 -0.03277865 -0.16623834
000240 c5 54 c0 3d b3 98 f5 bd cc 31 be bc dc b0 b4 bd
       0.093911685 -0.11992016 -0.023217104 -0.08822796
000250 42 a2 61 3c a1 d7 21 3d 51 e8 3a 3d 62 86 13 3d
       0.013771595 0.03951228 0.04563171 0.03601683
000260 ce c8 8d bd ae 26 29 be 9f 3f 20 3d 9f 77 91 be
       -0.06923066 -0.16518661 0.039123174 -0.28411576
000270 62 ec b6 3c 1d ed 11 3e a7 f5 27 be fe c0 f9 bc
       0.022329513 0.14250608 -0.16402303 -0.030487534
000280 58 aa d7 3c dd 84 89 bc 84 3b 02 3e c3 da c0 bd
       0.026326343 -0.016786987 0.12718016 -0.094167255
000290 86 9c 02 3e b2 33 18 3d d5 f5 41 bd 50 55 c7 3c
       0.12755021 0.037158675 -0.047353584 0.024332672
0002a0 4b 9c 26 be 09 9b 33 bb 9f 60 a7 3c 63 52 53 3d
       -0.16270559 -0.002740564 0.020431815 0.051592242
0002b0 58 38 26 ba a0 90 7d bd 8e dd d5 bb 60 57 a1 bd
       -0.00063407933 -0.061905503 -0.0065266555 -0.078779936
0002c0 78 59 78 bd b2 23 2c bc 8e 26 79 3c 2d 5a a9 3d
       -0.0606322 -0.010506557 0.015206946 0.08269153
0002d0 d5 5f 20 3d f6 1e 95 3d 2d 8a b9 3d f3 68 19 bc
       0.039153893 0.07281296 0.09059558 -0.009363401
0002e0 c6 ac 8a 3d 99 53 12 bd 98 20 fb 3c 9a ce d3 3c
       0.06771235 -0.035724256 0.03065519 0.025855351
0002f0 c9 38 a7 3d 70 8a 1c bd ea de 0b be 1f d6 95 bd
       0.08165128 -0.03821796 -0.13659254 -0.07316231
000300 82 1e 45 3c ef 55 16 3d 58 ba ca bd 82 16 bc 3c
       0.012031199 0.036703046 -0.098988235 0.022959951
000310 39 ce eb bd 9c d7 c4 3d 82 6e 0a be 22 8d 1a 3d
       -0.11513943 0.09611437 -0.13518718 0.03773225
000320 de 4b 89 3d a3 0a bb 3c 08 83 1f 3d 78 78 02 3b
       0.06703924 0.02283222 0.03894332 0.001990823
000330 d5 fd bd bd 1c c4 26 3c 3b ec b8 3c b9 0a 5d bc
       -0.0927693 0.010178592 0.022573581 -0.013491326
000340 7a 0a 1d 3d f7 6d 2e bd da a7 8c 3b ad 3a 24 3d
       0.03834007 -0.04258534 0.0042924704 0.04009502
000350 80 df 92 3d 19 13 37 3d 09 e1 36 bd ec e1 ab bd
       0.071715355 0.044695947 -0.044648204 -0.083927006
000360 00 05 bc bd bb 48 b2 3d 21 a1 be bd 7b 52 9e bc
       -0.09180641 0.087052785 -0.09308077 -0.01932644
000370 03 12 07 3e 95 24 0f 3e 30 b4 43 3c 52 b2 63 be
       0.13190465 0.13978799 0.0119448155 -0.22235993
000380 78 78 9d 3d 43 d0 34 3d 03 19 73 3c 21 3a 1e bd
       0.07688993 0.044143926 0.014837506 -0.038629655
000390 02 88 da 3d 7e aa 18 be 7c d6 da bd 57 89 31 be
       0.10670473 -0.14908788 -0.10685441 -0.17337547
0003a0 d9 ce 17 3d 7f 4c 9c bc 15 02 1f 3d 69 cb f0 bc
       0.0370625 -0.019079445 0.038820345 -0.029393869
0003b0 70 15 c9 bd 47 e1 cd 3b 80 e8 1c 3e 72 e6 2f be
       -0.09818542 0.0062829587 0.15323067 -0.17177752
0003c0 90 b0 81 3d 19 e7 fe 39 41 af a7 bc 4b 5c 5b bc
       0.06332505 0.00048618836 -0.02046931 -0.013388704
0003d0 d3 26 39 be fa 75 07 3d 9f a6 82 3c 96 ae c4 bc
       -0.18081217 0.033071496 0.015948592 -0.02400903
0003e0 b7 3d fd bc a4 74 07 3e 80 74 5b 3e e5 59 78 bd
       -0.030913217 0.13228089 0.2143116 -0.060632605
0003f0 2e bb 88 bd 92 7c d9 3c e7 c2 d2 bd 71 a5 56 3d
       -0.06676327 0.026548658 -0.10291081 0.05240387

network_body._body_endoder.seq_layers.2.bias f4 [256]
000000 f0 fd 07 bd be ca 37 bc c4 1d d2 3b 6b ad 86 bd
       -0.033201158 -0.011217771 0.0064122397 -0.065760456
000010 07 db ae 3c c1 08 7f 3b a3 00 49 3c 3b 53 02 bc
       0.021344675 0.003891513 0.012268218 -0.007954414
000020 37 31 7e bd f6 fe 14 3c 35 8d 10 3d 44 45 1a bd
       -0.062058654 0.009093991 0.035290916 -0.037663713
000030 f9 73 ba ba c8 08 46 bd 0e b4 82 bb 2f c7 a0 3c
       -0.0014225236 -0.04834822 -0.0039887493 0.019626228
000040 5e a0 90 3c c4 24 18 3c fa a7 6f bc a5 24 69 bd
       0.017654594 0.009286109 -0.014627451 -0.056919713
000050 a6 4c 00 bc f5 42 f3 bb 99 6d 2e bb ae 88 5e bc
       -0.007830774 -0.0074237534 -0.0026615618 -0.013582392
000060 25 db 09 bc ce c2 88 3c 97 1b a5 3c ca 57 ec bb
       -0.0084140645 0.016694453 0.020154757 -0.0072126137
000070 a4 5e 7b bc c0 06 9d 3c 88 94 58 bb 64 f1 5c bd
       -0.015342388 0.019168258 -0.0033047516 -0.053941146
000080 d0 45 13 3c 79 e5 34 bd 1e 5b d9 3c 84 da 34 bd
       0.008988813 -0.044164155 0.026532706 -0.044153705
000090 20 a6 1d bc ed 6b 71 3b fc 60 97 bc 4f 37 74 bb
       -0.009622127 0.003683801 -0.018478863 -0.0037264412
0000a0 b1 5a ba bc 1e 2d 56 bc 16 3e d7 bc 55 02 b3 bc
       -0.022748323 -0.01307228 -0.026274722 -0.021851698
0000b0 ec 04 29 bd 9a a8 17 3d 18 68 26 3b a1 d6 d5 3c
       -0.04126446 0.037026025 0.0025391635 0.02610332
0000c0 ea a0 69 bd fb cb 18 3c 11 e3 84 bd 01 75 7c bd
       -0.057038225 0.0093259765 -0.06488622 -0.06163502
0000d0 d7 bd 4a bc 9f 51 7b bc 23 e0 d6 ba 8d f1 0f bd
       -0.012374363 -0.015339284 -0.0016393702 -0.03514247
0000e0 cc 17 bc 3c a8 7b 8e bc a2 44 2a 3d 11 a3 18 3d
       0.022960566 -0.017392948 0.04156936 0.037264887
0000f0 56 46 94 ba 7f 1c 32 3b b2 7f c4 3c 3c f0 8d bd
       -0.0011312466 0.002717763 0.023986671 -0.06930587
000100 e5 05 23 bd c9 ba 3f bc dd 79 19 3d f6 c3 aa bb
       -0.039800543 -0.011702248 0.037469734 -0.0052113486
000110 2c 77 7c bd ae 64 95 bb d1 2b b4 bc 60 de 7f bd
       -0.06163709 -0.004559121 -0.02199355 -0.062467933
000120 a8 6f ea b9 5d 0f 40 3c d4 5a 32 3d 7f a7 36 3d
       -0.00044715148 0.011722413 0.04354365 0.04459333
000130 84 7d b8 3c 72 02 72 bd b4 6a 9e bb c4 39 37 3b
       0.022520788 -0.059084363 -0.0048344973 0.0027958015
000140 d6 34 23 bc 07 02 b9 3b ee 1a bb 3b 67 e3 ed bc
       -0.009961328 0.0056459936 0.0057099974 -0.029039098
000150 70 5f 9c 3c 52 d0 9b bc fe b3 83 bc f9 6f 3c 3c
       0.019088477 -0.019020233 -0.016077038 0.011501306
000160 49 0a 88 3b 25 f2 c0 3c 96 61 92 bd a1 06 28 bc
       0.0041516167 0.023552964 -0.07147519 -0.010255487
000170 53 46 f7 3b 72 36 a0 bd b0 f3 95 3c 20 d0 27 3d
       0.007546225 -0.078228846 0.018304676 0.040969968
000180 e2 d0 05 bb a2 2f 1e bd 43 e7 34 bc c1 14 95 3a
       -0.0020418693 -0.038619645 -0.011041465 0.0011373983
000190 d6 46 00 3c 67 af da bb 3e ef d5 3c f0 20 56 bc
       0.007829389 -0.0066737416 0.026115056 -0.013069376
0001a0 46 7e 16 3b b4 3b cf bb 41 3c f0 3c f2 09 e5 3c
       0.0022963448 -0.006324256 0.029325606 0.027958844
0001b0 7e 80 06 3c 38 0a 24 bc 7f dd 8f 3c 5e 84 c4 bc
       0.008209346 -0.010012202 0.017561672 -0.023988899
0001c0 ff 3b 17 bc 8f 59 81 b9 b7 b9 28 3d 49 3b 19 3c
       -0.009230613 -0.00024671524 0.041192736 0.009352514
0001d0 b1 1b 48 3c d7 6b 2b 3c c6 74 e2 bc c4 08 37 3d
       0.012213633 0.010462723 -0.027643573 0.044686094
0001e0 d7 94 99 bb ca 59 81 bd 54 96 d8 bb ec 0d b7 3c
       -0.0046869325 -0.06315954 -0.0066097174 0.022345506
0001f0 bb 81 61 bc d9 ad d1 3c d7 18 06 bd 24 84 8c 3c
       -0.01376384 0.025595592 -0.032738533 0.017152853
000200 b7 e9 c1 3b 33 a7 a0 3c 7d 2c 89 3b 67 54 29 3c
       0.0059177536 0.019610977 0.0041862116 0.0103350645
000210 26 96 bb 3c 0f 95 17 3c cc 24 28 bb 69 b7 91 bc
       0.022898745 0.009251847 -0.0025656698 -0.017787652
000220 a9 df 35 3c c9 8a 14 bc c1 61 13 3d ed 43 89 3c
       0.011100688 -0.009066292 0.035981897 0.016756022
000230 cc a9 6d 3b 9b ea a1 bb 71 81 9a bc d8 e1 c2 3c
       0.0036264537 -0.004941297 -0.01886055 0.023789331
000240 1e c4 ae bb 29 28 a1 3c b5 59 da bb 7e 00 87 bd
       -0.0053334376 0.01967247 -0.006663526 -0.06591891
000250 46 dc 3d bc 0d b7 91 3c 6d 8d 74 bd e0 58 db 3b
       -0.011588162 0.01778748 -0.059705187 0.0066939443
000260 f0 7b f6 3c 3f 34 4d 3c 30 d7 ad 3b 5e 8c e7 3b
       0.030088395 0.0125246635 0.0053051934 0.0070662936
000270 62 f0 5c 3b ec 46 c8 3c 7f 67 1d 3c ae 21 96 3b
       0.0033712615 0.02444788 0.009607195 0.0045816517
000280 d5 de 4b 3d 6b 99 92 bb bd 02 2e 3c 3c 3f fc 3b
       0.049773056 -0.0044738553 0.01062077 0.007697968
000290 bd 4a 32 bb f7 6b 78 3b f8 66 02 bc 3d c8 63 3b
       -0.0027205192 0.003790615 -0.00795912 0.0034756802
0002a0 40 62 bf bc 47 86 d0 3b c4 ea 2e bd d3 4a cd 3b
       -0.023362279 0.0063636634 -0.04270436 0.0062650233
0002b0 1c bb e1 bb db 47 18 bb d3 17 14 bc a1 f1 ac 3a
       -0.0068887603 -0.0023236189 -0.009038883 0.001319457
0002c0 0f c6 63 bd 98 77 11 3d 25 79 3f 3d 97 56 51 3c
       -0.055608805 0.035514444 0.04674639 0.012776992
0002d0 63 f9 34 bd e3 7a 3a bc 75 b8 9f 3c f2 d6 c4 bb
       -0.044183146 -0.011381838 0.019497136 -0.006007069
0002e0 0f 7b 1a 39 9e 75 6d bd 8a 26 84 3c 7f 97 c1 3b
       0.00014732427 -0.057973497 0.016131658 0.0059079523
0002f0 87 40 d1 3c c6 5c 2b bd d1 33 3a ba e8 f1 3e 3d
       0.025543464 -0.041836523 -0.0007103058 0.04661742
000300 9a e9 52 3c 72 dc 82 bd ab 06 d2 3c 59 68 81 bc
       0.012873078 -0.06389703 0.025637945 -0.015796827
000310 e1 34 34 bd a2 2d 01 bd b9 05 74 3c 74 fa f1 3b
       -0.04399574 -0.03153766 0.0148939425 0.0073845927
000320 59 1a a8 3c d0 10 b9 bb 43 38 b3 3b 10 65 cf 3b
       0.020520376 -0.005647756 0.0054693534 0.0063291863
000330 f6 02 6f 3c 21 54 0d 3c 49 b7 3f 3c a1 aa 1f 3d
       0.014588108 0.008626015 0.011701413 0.038981084
000340 55 c1 d4 bc d7 96 bc 3b 66 62 90 bc 75 46 92 bc
       -0.025971094 0.005755286 -0.017625045 -0.017855862
000350 b8 8d ee bc 6c ba 74 bc e9 1e 8f bc 49 a3 7e bd
       -0.029120311 -0.014937025 -0.017470794 -0.06216744
000360 d9 ec df bb 17 5a 82 bd 29 b9 4e 3c bc 7a 28 bc
       -0.0068336544 -0.063648395 0.012617388 -0.010283168
000370 08 72 4d bb d2 10 6e bc 57 a7 c6 3c 72 dd df 3b
       -0.0031348485 -0.014530377 0.024249716 0.0068318183
000380 2c 56 cc 3b 37 b0 f6 3c 56 a8 ad bb e1 02 36 b9
       0.0062358584 0.030113323 -0.005299608 -0.00017357945
000390 de aa 91 3c d2 c4 8a 3c 0c 72 e1 3b 9e d2 04 3d
       0.017781671 0.016939554 0.0068800505 0.032427423
0003a0 5b 4b eb bc e0 c1 08 3a 50 99 d2 3a 95 2e 08 3d
       -0.028722456 0.0005216878 0.0016067419 0.03324755
0003b0 79 7a 9e 3b 2b ce 1c 3d 91 3a cd 3c 05 25 4a bc
       0.004836377 0.038282555 0.02505234 -0.012337928
0003c0 41 de a5 bc 72 3e 2a bd 73 67 8c bd e7 f7 bb 3c
       -0.02024758 -0.04156346 -0.06855669 0.022945357
0003d0 24 3b c9 3b 1b b5 8f bd e5 b6 e2 3b 34 d8 18 bc
       0.0061410833 -0.07016965 0.0069187754 -0.009328891
0003e0 4b 54 89 bc 36 43 db 3a 81 d8 c2 3b 09 f4 40 3b
       -0.016763827 0.0016728404 0.0059462194 0.0029442331
0003f0 a6 c2 b6 3c 59 7d 6f 3c b8 34 e4 3b 6e 31 3b 3c
       0.022309612 0.014617288 0.0069642924 0.011425359

action_model._continuous_distribution.log_sigma f4 [1, 2]
000000 38 e4 be be bb dd 09 bf
       -0.37283492 -0.5385396

action_model._continuous_distribution.mu.weight f4 [2, 256]
000000 2d b4 d4 bd bb 43 b9 3b 81 f2 b4 bc cd 3e 5e bd
       -0.10385928 0.005653826 -0.022088291 -0.05425911
000010 cf 09 14 3d 84 80 14 bd ce 66 fe 3c 37 f3 8b bc
       0.036142167 -0.036255375 0.03105488 -0.017083747
000020 d1 62 9a bd f7 93 02 3d 7b d3 6c 3d 44 06 c6 bd
       -0.07538379 0.03187939 0.05781887 -0.09669164
000030 33 f3 e2 3b e5 da cd bd 92 bd 67 3c 15 a6 1c 3d
       0.0069259643 -0.100515164 0.014144318 0.038244326
000040 04 e5 ae 3c 01 63 7a 3c d2 09 f2 3b d0 42 ae bd
       0.021349438 0.015282393 0.0073864246 -0.08508837
000050 0f 65 ad 3b 83 96 2b 3b 72 8c 85 bd 1b c3 4a bd
       0.005291588 0.0026182241 -0.065209284 -0.049502473
000060 22 39 3d bd b1 78 7b 3c b4 fd 00 3d 33 c3 1d bc
       -0.046197064 0.015348599 0.03149195 -0.009629059
000070 ba 07 a1 3b 06 1d 05 3d 06 ae 79 3c ff 69 d6 bd
       0.004914251 0.032498382 0.015239244 -0.10469436
000080 9d f9 12 3c 18 ec 5b bd c1 ea f2 3c 59 94 eb bd
       0.008970645 -0.053691953 0.029652955 -0.115029044
000090 0f 56 06 bc 6c d5 2b 3d df 23 ea bc 16 a3 ce 3b
       -0.008199229 0.04195158 -0.028581558 0.0063060625
0000a0 76 17 b1 bc 72 21 ac 3b 44 44 80 bd 15 3c 28 bd
       -0.021617632 0.0052530104 -0.06263021 -0.041072924
0000b0 d5 97 b5 bd a0 eb 43 3d 8d cb ae 3b a3 c9 0f 3d
       -0.0886685 0.04783213 0.0053343237 0.035104405
0000c0 fd c0 bf bd e9 fa cf 3c 8f d5 a4 bd 10 34 c9 bd
       -0.093629815 0.025388198 -0.080485456 -0.09824383
0000d0 6b a1 f7 bb b8 49 e3 bc a3 63 72 bb 67 1a 66 bd
       -0.0075570843 -0.027745113 -0.0036985658 -0.056177523
0000e0 34 e6 04 3d 0c ce a3 bc 23 ce 79 3d af 7f 71 3d
       0.0324461 -0.019995712 0.060987603 0.05895966
0000f0 bb 5f 7b 3c ee ba 6f bc df b0 3f 3d 90 4c a9 bd
       0.015342648 -0.01463197 0.046799537 -0.08266556
000100 8d df 29 bd 32 9d 53 3c 14 f3 69 3d e0 84 92 bb
       -0.04147296 0.012915896 0.057116583 -0.0044714063
000110 a9 79 20 bd b4 08 94 3b 96 0d c6 bc a9 60 cb bd
       -0.039178524 0.004517639 -0.0241764 -0.09930546
000120 a2 8b 31 3c e0 25 52 3d 3b 41 92 3d 37 54 76 3d
       0.010836514 0.05130565 0.07141348 0.060138907
000130 79 fd da 3c 4b 2c b0 bd ea 4f cc bb e4 77 fd 3b
       0.026732193 -0.08602198 -0.0062351124 0.0077352393
000140 b4 70 58 bd 1b 8d 49 3c 47 21 7b 3c ca 7f a9 bd
       -0.052841857 0.012301709 0.015327758 -0.08276327
000150 58 9f b4 3c 63 9c 90 b9 88 4a b3 bc 17 d1 01 3d
       0.022048637 -0.00027582337 -0.021886125 0.031693544
000160 d9 72 a1 3c a8 d2 02 3d 64 42 dd bd 7c 16 53 bc
       0.019708084 0.03193918 -0.10803679 -0.012883779
000170 01 37 e7 3c bb be 93 bd 69 e0 1d 3d 37 39 79 3d
       0.02822447 -0.07214113 0.038544092 0.06084558
000180 95 a6 19 3a 5c 62 8f bd a6 68 33 bb 7b 02 f1 3b
       0.00058613095 -0.070011824 -0.0027375608 0.007355032
000190 7c 65 2d 3c e2 84 59 bc 22 0c 1a 3d 3f ec f8 bb
       0.010583278 -0.013276311 0.037609227 -0.007596522
0001a0 3c ab 8b bb 5c 3c a1 bc 3b 41 7b 3d 82 bc b5 3c
       -0.004262356 -0.019682102 0.061341505 0.022184614
0001b0 ea 33 96 3c 25 b7 54 bc eb ea 4a 3d cd 54 8f bd
       0.018335301 -0.012983118 0.04954044 -0.06998596
0001c0 94 31 3f bc 6a f1 dd 3b 30 15 7e 3d d0 95 9a 3b
       -0.011669535 0.0067731636 0.062031925 0.004717566
0001d0 9f 74 a9 3c 7e 1b a6 3c 66 b5 a3 bc e1 58 78 3d
       0.020685492 0.020276781 -0.019983958 0.060631637
0001e0 81 05 0a 3c 53 72 ab bd e2 12 0b bd 56 29 1b 3d
       0.008424164 -0.08371415 -0.033953555 0.037881218
0001f0 eb d6 92 bc 22 60 06 3d 1f a0 7d bd 50 ed c5 3c
       -0.017924746 0.032806523 -0.06192028 0.024161011
000200 41 a5 04 3a 8c a3 1e 3d 72 f6 1c 3c 5a 1e 11 3d
       0.0005060025 0.03873019 0.0095802415 0.035429336
000210 35 79 0c 3d 2e fe 12 3c 2f 34 b9 3b cf f6 10 3c
       0.03429528 0.008971734 0.0056519727 0.008847906
000220 73 41 de 3c 8f de a9 bb 60 76 61 3d 35 23 1b 3d
       0.027130818 -0.0051840018 0.05504453 0.037875373
000230 80 e2 bb 3c 02 6c 54 bc d6 69 11 3c ac 30 00 3d
       0.022935152 -0.012965204 0.008875331 0.031296417
000240 01 ac b8 3c 26 ab 50 bd 84 0d a4 3c 0e 50 a0 bd
       0.022542955 -0.05094447 0.020025976 -0.07827769
000250 e1 c3 01 bd 04 6c d7 b9 c6 5f 76 bd 07 a7 1e 3c
       -0.031680945 -0.00041088474 -0.06014993 0.009683377
000260 9b 85 60 3d a0 86 99 bc 2a 16 b0 3c 30 0d cd 3c
       0.054814916 -0.018740952 0.021494944 0.025030702
000270 b6 ea 0d 3c e0 87 09 3d db a7 f1 3c e0 8c 45 3b
       0.0086619165 0.033576846 0.029498985 0.0030143782
000280 c9 ec 8e 3d f5 18 76 3c 52 78 5a 3c 03 c5 55 3c
       0.06978757 0.015020599 0.013334351 0.01304746
000290 5d cc c5 3c 06 56 99 3c 42 da 10 bc 59 b7 8a bb
       0.0241453 0.018717777 -0.008841099 -0.0042332825
0002a0 a6 67 83 bc 4c bc 84 3c b6 18 98 bd a6 5d 20 bd
       -0.016040634 0.016203068 -0.07426588 -0.03915181
0002b0 56 73 1f bd c6 21 ac 3c 2a 30 84 bb ff 01 77 3c
       -0.038928352 0.021012198 -0.004034062 0.0150761595
0002c0 d5 38 e5 bd 67 1c 39 3d bd 7e 7f 3d 4c 62 86 3c
       -0.111924805 0.045193102 0.062376726 0.016404293
0002d0 6c 72 2d bd 55 22 ae 3b 54 4f 31 3d b0 28 e7 bc
       -0.04234545 0.0053141513 0.043288544 -0.028217643
0002e0 d0 45 8a bb ba 0c ab bd 08 7c 4d 3d 5b 8b 2e 3c
       -0.004219748 -0.08352037 0.050167114 0.010653342
0002f0 b8 ec 39 3d 89 8a 3c bd 80 19 4b 3c 01 03 96 3d
       0.04539177 -0.046030555 0.012396216 0.07324792
000300 cf b7 19 3d 6e 81 68 bd bc b5 31 3d ff 3d 98 bc
       0.03752881 -0.05676406 0.043386206 -0.01858425
000310 29 e3 ed bd 1b 0d 9d bd 8e 4f 21 3d 48 5c e2 3c
       -0.11615593 -0.07668515 0.03938251 0.027631894
000320 af be b3 3c 17 a5 ef bb 50 6a 49 bd ee 00 87 3b
       0.021941511 -0.0073133814 -0.049173653 0.004119984
000330 6c c3 45 3b 56 8a 09 bc 08 00 ba bb b9 db 5b 3d
       0.0030176295 -0.008394798 -0.0056762733 0.05367634
000340 cc b4 02 be 75 0d 3c 3c fd 9d 02 3b fa 3d b0 bb
       -0.12764281 0.011477818 0.0019930594 -0.005378482
000350 de 3f b5 bc 4c 28 bf 3b 5b b8 e6 bc 39 5d ba bd
       -0.02212518 0.005833661 -0.02816408 -0.09099812
000360 63 80 85 3c 2b 75 d1 bd d7 96 28 3c 7b 81 80 bd
       0.016296571 -0.10227426 0.010289869 -0.062746964
000370 1c 39 84 bd bc 5d 26 bd 1b 70 0c 3d 08 ab c3 3c
       -0.06456205 -0.040616736 0.0342866 0.023885265
000380 5a 23 05 3d 94 3c 5a 3d 19 af da 3a f6 0a ab 3b
       0.032504417 0.053280428 0.0016684263 0.0052198125
000390 4a 22 57 3d ec f5 19 3d cd 74 10 3d a9 f9 36 3d
       0.052522935 0.037588045 0.03526764 0.04467169
0003a0 8d e4 29 bd e3 9f 38 3c f6 2b 24 3a dc de 49 3d
       -0.04147773 0.011268589 0.0006262654 0.0492848
0003b0 fe ee 0d 3b 96 a9 6a 3d 4b f7 26 3d cd 9b 68 3c
       0.0021657343 0.057290636 0.04076318 0.014197302
0003c0 12 ed 4b bb f2 74 a4 bd 64 40 7e bd f1 82 1e 3d
       -0.0031116647 -0.08030118 -0.062073126 0.038699094
0003d0 ee f7 ee bb 8f 93 cc bd 7d 9a 47 3d 2d b8 20 3c
       -0.007292739 -0.09989082 0.048731316 0.009809536
0003e0 5c 56 62 bd 58 64 39 3c 74 ca 0a 3d 59 9f 10 bc
       -0.05525814 0.011315428 0.03388448 -0.008827054
0003f0 70 d8 1d 3d a1 dd 27 3d e2 73 cd bb 63 54 a1 3c
       0.03853649 0.040982846 -0.006269918 0.019693559

action_model._continuous_distribution.mu.bias f4 [2]
000000 f0 e0 9e 3d 0c ea 37 3c
       0.07757747 0.011225235

action_model._discrete_distribution.branches.0.weight f4 [2, 256]
000000 f1 fd 4b 3d 9c 43 5d 3d b4 fa 76 bc a0 48 87 3c
       0.049802724 0.054019555 -0.015074421 0.016514122
000010 b5 d2 12 bc 13 ca fe 3d 60 a3 9f 3c 7e b7 8e 3d
       -0.008961369 0.12440886 0.019487083 0.06968592
000020 ee 52 03 bb 0e 90 64 bd f0 2f b3 3a b5 46 46 3d
       -0.0020038444 -0.055801444 0.0013670903 0.048407275
000030 9a e2 37 3b 2c 69 87 3c 30 63 78 3d d5 14 6d 3c
       0.002805865 0.016529642 0.060641468 0.014470299
000040 8e f8 a7 bd 72 d9 a0 3c 31 d5 f6 3c 3b 17 76 3b
       -0.08201705 0.019634936 0.030130954 0.0037550468
000050 92 01 21 3d 0e 69 8d 3d e2 d4 1d 3e 6b 0c 97 3d
       0.03930814 0.06904803 0.1541324 0.073754154
000060 7d 2d 10 3e 17 68 25 3b fc e3 2e bc 91 99 da 3c
       0.14079852 0.0025239044 -0.010674473 0.026684554
000070 3a ca b7 3d 47 93 2d 3d f6 74 09 3d 16 7d b3 bc
       0.089741185 0.042376783 0.03355881 -0.021910232
000080 b3 b9 fa bc 4b 51 11 3d 0f 87 8f bb fa cc 2a bc
       -0.030606126 0.035477918 -0.004380114 -0.010424847
000090 ea a4 1f 3d 49 ea b3 3c 22 57 37 3d 2e 32 84 bb
       0.038975634 0.021962302 0.04476083 -0.004034302
0000a0 92 30 28 3d 26 e1 ba 3d 26 b7 77 3d af 7b 27 3d
       0.041061945 0.09124975 0.0604774 0.04088944
0000b0 fb a7 eb 3c bd eb 17 bc 5b c3 bb bc 5d ec 3e bb
       0.028766623 -0.009272513 -0.022920301 -0.0029132583
0000c0 45 f5 71 3c 35 94 09 3d c7 8a 21 bb c6 69 b8 3c
       0.0147679495 0.033588607 -0.0024649368 0.022511374
0000d0 cc 36 f8 3c a5 78 24 3e e0 f1 a0 3c 41 c3 1d 3c
       0.030299567 0.16061647 0.019646585 0.009629072
0000e0 d1 71 8b 3c 27 8b 35 3d d6 76 6e 3a c8 fe e5 b9
       0.017022045 0.04432216 0.00090966874 -0.0004386811
0000f0 61 92 c7 3c fe 17 39 3d 5e c2 5d bc fd fe 99 bb
       0.024361791 0.045188896 -0.01353511 -0.0046995864
000100 91 b4 49 3d 68 5c 3b bd 51 e7 0b 3a f1 2a 5f 3d
       0.049244467 -0.045742422 0.0005336898 0.05448431
000110 e3 70 e9 3c d4 69 c9 3c 5d 54 65 3c d6 17 8b 3b
       0.028496211 0.024586596 0.013997165 0.004244785
000120 dd 05 54 bd 43 65 4f 3c 1d dd 9f 3c a9 e2 1d 3c
       -0.051763404 0.01265842 0.019514615 0.0096365595
000130 8b 47 a2 3d 68 22 11 39 fe bc 9a 3c ca 0b 5b bd
       0.07923802 0.00013841095 0.018888947 -0.05347804
000140 a5 3e 02 3e ee c2 65 bb 41 6e bf bd e5 8d a4 3d
       0.1271921 -0.0035058814 -0.09347201 0.08034877
000150 25 22 f3 3b 8a fe c2 bc 1a 56 89 3b 8d ef 93 bd
       0.007419842 -0.023803014 0.0041911723 -0.07223425
000160 cf 0b c9 bc ec 42 6d 3c 6a 88 a5 3a 74 09 43 3d
       -0.024541764 0.014481287 0.0012629156 0.047616437
000170 e7 86 a8 3c 55 d6 8a 3c 4b e5 c2 3c da d5 d7 3b
       0.020572139 0.016947905 0.023790976 0.0065867724
000180 37 b8 4c 3b 98 45 ad 3d 70 fb 24 bd 3a d3 d7 3c
       0.003123773 0.084605396 -0.040278852 0.026345838
000190 d8 a5 da bb 36 f6 02 3e a4 6f b6 3c c6 05 63 3c
       -0.006672602 0.12789235 0.022270031 0.013856357
0001a0 a2 b8 85 bc 40 e9 82 3d 09 ce b8 bc d7 46 15 3d
       -0.016323391 0.06392145 -0.022559183 0.03644451
0001b0 fd ff 00 3d 2f 8c 08 3e a8 ec b6 bb d7 ac 7a 3d
       0.03149413 0.13334726 -0.005582411 0.06119999
0001c0 e9 92 8e 3b b8 ee d2 3c e7 78 99 bb df 07 61 3c
       0.004351009 0.025748596 -0.004683602 0.013734787
0001d0 23 ed 1d bd 8a 0d f4 3c 3d dc 38 3d 8f a3 9a ba
       -0.03855623 0.029791612 0.04513191 -0.0011798012
0001e0 a7 44 f5 3c b6 67 58 bb 21 06 81 3d d0 e8 93 bc
       0.029939963 -0.00330208 0.06299997 -0.01805535
0001f0 d9 2c c6 3d 5c bf b1 bd ba a0 b8 3c f1 1b c0 bb
       0.09676523 -0.08679077 0.022537578 -0.005862706
000200 e6 44 35 bc 93 5d b5 bb da 57 9a bc 59 84 77 bc
       -0.01106379 -0.0055348366 -0.018840719 -0.015107238
000210 99 60 43 bd 03 96 61 bd 1d 5c 63 3d 99 a9 b7 3d
       -0.047699545 -0.055074703 0.055507768 0.08967895
000220 4d 8b 44 3d 88 1f 91 bb 9b 83 c6 3b cb 42 38 bb
       0.04798441 -0.0044288076 0.006058169 -0.0028115984
000230 7c 6f 12 3c 8b a2 21 3e 41 54 2d 3d 9b b5 8f 3c
       0.008937713 0.15784661 0.04231668 0.01754265
000240 c5 cc 57 3d 3b d5 31 3e 38 f6 29 bc 42 21 13 3c
       0.052685518 0.17366497 -0.0103736445 0.008980097
000250 8f 26 4e 3e d7 9c 22 bd a6 13 f6 3c ce 5c ff 3b
       0.20131896 -0.039700355 0.030038666 0.0077930456
000260 cd 8d ee 3c 2b e4 f7 3d 0f a0 47 3c b5 e5 88 3b
       0.02912035 0.121040665 0.012184157 0.004177774
000270 01 22 81 bc b6 a4 5f bd 53 a9 42 bc a6 2b b8 bd
       -0.015763285 -0.05460044 -0.01188119 -0.089927
000280 d4 7d a1 bb a3 d7 7e 3d 2f 16 f7 3d b8 eb 65 3b
       -0.00492833 0.062217366 0.12064778 0.0035083126
000290 9f ae 06 3d 47 d9 d2 3c 3c 3e 18 3e fb fe 0f 3d
       0.032881375 0.025738372 0.1486749 0.035155278
0002a0 ad 0f ab 3d 5e 5e 9c 3c a3 0b 65 bb df 30 2d 3e
       0.08352599 0.019087967 -0.0034949563 0.16913174
0002b0 a7 15 c2 3d 3e 8e b6 bd ce 6d 17 3b 27 2a df 3b
       0.09476786 -0.08913849 0.002310622 0.006810445
0002c0 1b d9 8b 3c 31 d8 3a ba 5a c8 92 3c a9 9c 23 ba
       0.017071297 -0.0007127552 0.0179178 -0.0006241301
0002d0 0c ad e3 3c b9 24 35 3e f2 f9 cd bc ff a9 0c 3e
       0.027792476 0.1768979 -0.025143597 0.13736723
0002e0 63 58 fd 3c 9e 4d 59 bc 85 a1 3a bd 5e 73 88 3b
       0.030925935 -0.013263134 -0.045564193 0.0041641435
0002f0 c1 f0 8b 3c 24 79 b0 bb 38 26 1c 3e 33 42 d0 3b
       0.017082574 -0.005385535 0.15248954 0.006355548
000300 4f ca 03 3d e6 25 9a 3b 29 a9 2f bd 4a de 08 3d
       0.03217536 0.004704225 -0.042885933 0.033415116
000310 ec 0f ad 3c 2a e2 8e 3d a4 4d 18 3d 0d 26 52 bd
       0.021125756 0.06976731 0.03718342 -0.05130582
000320 68 1e 15 bd 8f 13 bb bb aa 65 17 3e af 6a f0 3c
       -0.03640595 -0.0057091187 0.14784876 0.029347746
000330 8b 2f 1f 3d c2 1b 37 bd bc f5 ab 3b 70 5a 84 3c
       0.0388637 -0.044704206 0.0052477997 0.016156405
000340 b1 0c 0f 3d 8b 45 6a 3d cd d1 82 bc 80 fa a7 3c
       0.034924213 0.057195228 -0.015969181 0.02050519
000350 a9 a8 9f 3c 2f ac 12 3d be 82 3c 3e ef 73 f8 3c
       0.019489603 0.03580874 0.18409249 0.030328719
000360 4a bf 17 3d 47 94 6e 3c 8f 5f 36 3c 18 1d 11 3e
       0.03704766 0.014561719 0.011131181 0.14171255
000370 24 8e fb 3d 38 a1 d1 3d 23 d6 91 ba fd e1 a7 3c
       0.122829705 0.10235828 -0.001112644 0.020493502
000380 65 8b 7b 3c a5 74 8d bd f0 b1 34 bd 75 49 89 3c
       0.015353058 -0.06907014 -0.044115007 0.01675866
000390 a0 e3 8d 3b 4b f9 1f bd 11 7c c9 3b a8 f9 83 bc
       0.0043301135 -0.039056104 0.006148823 -0.016110256
0003a0 84 a1 b9 3c ca 5f 26 3e 36 d1 0f bc d5 9e 64 bb
       0.022660024 0.16247478 -0.008777907 -0.003488471
0003b0 7d cb d4 ba db 8d 23 ba 38 3a 94 3c 1b 4a 71 3d
       -0.0016234961 -0.00062390947 0.018094167 0.058908563
0003c0 3c 14 d6 bb 68 a7 af 3c 3d 05 0f 3c 63 bf 78 bd
       -0.006533174 0.02144213 0.008729276 -0.060729396
0003d0 f5 04 88 3c 6c 1c 5f 3b a3 0f 79 bb 72 d2 38 3d
       0.016603926 0.003404404 -0.0038003705 0.04512257
0003e0 3f 17 c2 ba c9 d5 fb bb c7 0a 17 bc 84 51 8e 3d
       -0.0014807953 -0.0076853973 -0.009218878 0.069491416
0003f0 c2 89 00 3c 1c c4 f4 39 c4 30 2c bb 7b c9 8b bd
       0.007845344 0.0004668542 -0.0026274184 -0.06825539

action_model._discrete_distribution.branches.0.bias f4 [2]
000000 b3 b4 4e bb 00 b5 4e 3b
       -0.003154081 0.003154099
