Assets/ML-Models/SimpleCollector.onnx (onnx, 330983 bytes, 11 tensors)

discrete_act_size_vector f4 [1, 3]
000000 00 00 40 40 00 00 40 40 00 00 00 40
       3.0 3.0 2.0

network_body._body_endoder.seq_layers.0.weight f4 [256, 52]
000000 5b 51 5c 3e 8d c0 4c bd 27 80 93 3c eb de b5 bd
       0.2151541 -0.04998832 0.018005444 -0.08880409
000010 f3 b5 46 3e 3f ea c3 bb 2e 9b b9 bd c3 d5 6d bd
       0.19405346 -0.005978852 -0.09062801 -0.058065187
000020 67 b1 4a 3e 51 9a aa 3e b9 02 ba bd 1e 06 25 3e
       0.19794236 0.3332086 -0.090825506 0.16115615
000030 1c 59 19 3e ed 96 ca 3d 11 61 05 be 97 f4 3e 3e
       0.14975399 0.09892068 -0.13025309 0.18647991
000040 ca da 86 3e 20 a8 12 3e 09 c4 16 be 72 74 bf 3b
       0.26338798 0.14321947 -0.14723219 0.005842739
000050 ce 25 b8 bc c5 e7 c8 3d 95 8a 27 be ed 3d e2 bd
       -0.022478964 0.098098315 -0.16361459 -0.11046968
000060 10 b7 d4 bc 00 26 ad bd 9b d3 2f be 6e f9 06 3b
       -0.025966197 -0.084545135 -0.17170565 0.002059545
000070 6c c4 38 be 50 e5 4a 3d 09 d7 6d bc a0 21 c0 bc
       -0.18043679 0.049535096 -0.0145166 -0.023453534
000080 e1 94 33 be 91 97 bc 3e 99 5a 56 3e 77 90 44 3e
       -0.17537262 0.36834386 0.20932998 0.19195734
000090 3f 57 33 be 99 58 18 bd 21 d8 91 bd b2 99 f6 bc
       -0.1751375 -0.03719387 -0.071213014 -0.030102585
0000a0 77 21 03 3e 5f 9c 86 be b4 91 8d 3e 85 f6 0f 3e
       0.12805735 -0.26291177 0.27650225 0.14058883
0000b0 2d 4c a1 bd 79 4c f4 bd 80 75 01 3d e7 a5 9f 3d
       -0.078758575 -0.119286485 0.031606197 0.07795315
0000c0 a8 e6 7d 3e 27 30 b2 be 1b 25 17 be 54 bf 02 be
       0.2479502 -0.34802362 -0.14760248 -0.12768298
0000d0 2a c7 dd 3d cf 4d 16 be 7f 17 21 be 14 f0 71 3d
       0.10829003 -0.14678119 -0.1573162 0.059066847
0000e0 44 d9 56 3e 27 e7 bb 3d 74 6b 98 bd 04 94 c8 bd
       0.20981318 0.09174948 -0.0744237 -0.09793857
0000f0 37 f4 b6 be 6f d2 c6 bd fd a7 30 3e 85 01 ab 3e
       -0.35733196 -0.09708106 0.17251582 0.33399597
000100 58 a2 fc bd c3 38 2f 3d aa 90 87 3d 0b e1 45 bd
       -0.12335652 0.04277874 0.06619389 -0.04831032
000110 bf 47 42 3e d0 33 67 bd d1 cf c6 bb 59 1d 99 3e
       0.18972681 -0.056445897 -0.006067254 0.29905203
000120 a7 c7 ec 3d 2d ce 9b 3e 82 13 08 be ac 09 bd 3d
       0.11561518 0.30430737 -0.13288692 0.092303604
000130 47 80 8c be 75 40 ae bd aa 50 32 be 5a e3 db ba
       -0.27441618 -0.08508388 -0.17413583 -0.001677613
000140 c1 89 f1 3e 81 3b 74 bd 76 ef 74 be 8a f8 09 be
       0.4717541 -0.05962706 -0.23919472 -0.13473716
000150 74 3a 0d 3e 89 ec 92 3d dc 70 41 be 41 11 f7 3c
       0.1379183 0.07174022 -0.18890709 0.030159594
000160 3a 87 61 3e 73 96 2e bc 0a f5 2d 3e c4 9c 99 3d
       0.22024241 -0.010655987 0.16988006 0.07500604
000170 8a 2b fc bd db 2a b3 bd 67 d4 d3 bd bc 49 af 3d
       -0.12312992 -0.087484084 -0.10343247 0.085589856
000180 53 77 6c 3e 63 0e 43 be 58 58 03 3d 05 c6 92 3d
       0.23092394 -0.19048457 0.032066673 0.071666755
000190 1a 3c 88 3e 43 b3 15 be b7 d4 ae 3c ba 38 d5 3d
       0.26608354 -0.14619164 0.021341665 0.1041121
0001a0 85 68 4c 3e b3 c8 11 3e 44 0a 8f b9 d4 5f b0 bd
       0.19961746 0.14236717 -0.00027282734 -0.08612028
0001b0 f8 a1 46 3e ca 30 11 3e 84 ef 6b be fb 4d 58 be
       0.19397724 0.14178768 -0.23040587 -0.21123497
0001c0 25 0e 03 bd b5 57 36 be 36 ce 3f 3d a5 a4 39 bd
       -0.03199591 -0.17806895 0.046827517 -0.045323033
0001d0 f9 71 e2 3d 33 0c 0b 3e 34 29 ac bc 4f c8 9a 3b
       0.11056895 0.13578872 -0.02101574 0.0047235857
0001e0 10 93 de 3d 6a 32 61 bd 16 75 9c 3d 29 b8 70 3d
       0.10867894 -0.05497972 0.0763952 0.05876938
0001f0 61 52 17 3e 5f fc 80 3d f5 fd 95 bd 28 19 f2 bd
       0.14777519 0.06298136 -0.07323829 -0.118212044
000200 a6 fd 8d 3e 84 f5 c5 bd 01 0e 6b bd a8 af 3c 3e
       0.2773258 -0.09665969 -0.057386402 0.18426383
000210 a2 be 37 bb 2a cd ec 3d 5a 66 05 3e 3b e1 05 3e
       -0.002803721 0.115625694 0.13027325 0.130742
000220 45 c5 58 bd cd 48 dd 3c 74 38 70 bd 11 c4 49 3c
       -0.052922506 0.027012253 -0.058647588 0.012314812
000230 04 c2 8d 3d 6c 53 d1 bd 0e 35 e5 3c e8 79 f7 bd
       0.06921771 -0.102209896 0.0279794 -0.12083799
000240 a2 f1 40 be 49 96 9e be c4 fc 9b 3e 5a 7a 68 3d
       -0.18842176 -0.30974033 0.30466282 0.05675731
000250 55 65 c7 3d 38 64 6a be 3a 94 c3 bd f4 fe bc 3c
       0.097361244 -0.22889793 -0.09549756 0.02307079
000260 b2 72 f3 bd f3 f5 ed bd 63 16 b8 3c 5f 3e 48 be
       -0.11887111 -0.11619177 0.022471612 -0.19555043
000270 81 55 09 be 0a c6 da 3d b1 52 68 3d 8f 7e 8a bd
       -0.13411523 0.10682304 0.056719486 -0.067624204
000280 bb ff 00 be 9f 3e 40 3e b0 85 dc 3d 2b 88 cb 3d
       -0.12597553 0.18773888 0.10767686 0.09938081
000290 ed b5 8b be 96 5e 8e bd 79 5c 26 3e 35 2c 6b 3b
       -0.27287236 -0.069516346 0.16246213 0.0035884504
0002a0 56 ae 02 bf a6 62 2b 3e 6a b2 c0 bd 72 ca fb 3d
       -0.51047266 0.1673685 -0.0940903 0.12294473
0002b0 3f 24 5a be a5 88 ab bc 9b 5a 2d 3e 33 9a c2 3d
       -0.2130289 -0.02093918 0.16929094 0.095020674
0002c0 d9 60 52 bd 4e 27 b4 bd 75 2e 1e 3e a0 82 90 bb
       -0.051361892 -0.08796559 0.1544741 -0.004410103
0002d0 fd 4b 79 be 13 6c 85 be f3 e7 ce 3d 9e 02 9d 3d
       -0.24345393 -0.26059017 0.101028346 0.07666515
0002e0 ce 16 fb bc e8 c0 5f be 12 bd e7 bd bd 93 d2 bd
       -0.030650523 -0.21850932 -0.11315359 -0.10282085
0002f0 36 22 9b be 4e 50 8f be 79 27 80 bd 52 e0 3a 3e
       -0.30299538 -0.27990955 -0.06257529 0.18249634
000300 f6 01 fe 3d bb 02 cd 3d a9 3e ee 3d 4d d0 44 be
       0.12402718 0.100102864 0.11633045 -0.19220085
000310 fa bd ea be f3 fd a5 be d6 a7 a6 3d b8 d2 e9 bd
       -0.45848066 -0.3242031 0.08137481 -0.114171445
000320 4d 77 5a be b3 60 86 bd 75 0f c7 bd b5 9b 32 3d
       -0.21334572 -0.06561413 -0.09719745 0.043605525
000330 c7 f1 0c be 33 3d ba 3c b0 7a 16 3d 79 3d 98 3c
       -0.13764106 0.02273426 0.036738098 0.018584
000340 ae ad 21 3e e8 39 37 3e f0 e4 b2 be 79 c8 40 3e
       0.1578891 0.17893183 -0.3494029 0.18826474
000350 19 6a 9f 3e 44 7b ef bd 04 56 63 bd 09 09 0a bd
       0.31135634 -0.11693433 -0.055501953 -0.033700023
000360 85 55 5b bd 4e 32 6e 3e 7b ef ea 3c b6 f5 19 3e
       -0.053548355 0.23261377 0.028678646 0.15035138
000370 4c ab e1 3c 95 9d 40 3b fb f1 92 bd bf fb 43 be
       0.027547501 0.0029390801 -0.0717506 -0.19139002
000380 82 cd b6 bd e7 f0 76 3e a7 6a 94 3d d6 7c 17 ba
       -0.08925916 0.24115334 0.07246905 -0.0005778795
000390 61 6c 58 3d 19 0f 2b bc cc 95 3f be 69 fa 73 3d
       0.052837733 -0.010440611 -0.18709487 0.05956498
0003a0 be f5 bb 3c a7 6f 41 be 7d 87 07 3e 76 af d3 3c
       0.022944327 -0.18890248 0.13235278 0.025840502
0003b0 bc 62 6d 3e 51 68 db bc e1 c2 d5 bc 00 0b 07 3e
       0.23182195 -0.02678314 -0.026093902 0.1318779
0003c0 1f 2c 35 be d7 eb 8f bd 8b 19 b6 3e e0 77 c5 3c
       -0.17692612 -0.07027405 0.35566363 0.024105012
0003d0 47 0b 22 3e 54 f8 96 bc 22 e1 6b bd cd e9 19 3e
       0.15824614 -0.018428959 -0.05758775 0.15030594
0003e0 cf 3d 11 be 17 d2 4e be 5c f1 cd 3d 9f f9 71 3d
       -0.14183734 -0.2019733 0.10055801 0.059075948
0003f0 98 e1 45 3d cc 3f 74 be bd ec ec bd 52 f1 2e be
       0.048310846 -0.23852462 -0.11568592 -0.17084244

network_body._body_endoder.seq_layers.0.bias f4 [256]
000000 3f 8d 19 3d 2d e3 af 3b eb 56 ab 3c 71 26 03 bd
       0.03748822 0.0053676576 0.02091547 -0.032019082
000010 ed b1 1f 3d c8 e7 d0 3b ee 67 20 bc 28 c4 b4 3d
       0.038988043 0.0063752867 -0.009790404 0.08826476
000020 a0 ad 25 3c 0b 42 55 3c 72 34 27 bd 78 9c 08 bd
       0.010112196 0.013016234 -0.0408215 -0.033352345
000030 02 f9 a3 3c a0 13 ab bc 2d 49 87 ba 01 7b 88 bb
       0.020016197 -0.020883381 -0.0010321491 -0.004165054
000040 3a 7c 64 bc d0 55 14 bc 60 e0 45 ba 4d 59 94 3b
       -0.013945634 -0.009053662 -0.0007548388 0.004527247
000050 69 4f 26 3c 57 30 21 3c b4 50 a9 3c ea ae c6 3c
       0.010150769 0.009838185 0.020668365 0.024253327
000060 2c 7c 3d bc 3d 57 37 3c 8a ca 15 3d 44 1c 4c bc
       -0.011565249 0.011190233 0.03657011 -0.012457911
000070 cd 13 a4 3c 4b 9d 83 3c bb 53 a9 3c 40 97 d6 bc
       0.020028973 0.016066214 0.020669809 -0.026195168
000080 fe bc c0 3c 99 b7 96 bc 54 08 87 bb ad 04 ea 3c
       0.023527618 -0.018398093 -0.004120866 0.028566683
000090 ec 55 fc 3c 0a e5 28 3d 40 32 11 3d 06 08 4c 3c
       0.03080269 0.041234054 0.035448313 0.012453085
0000a0 0c 34 4e 3c b6 ef a5 3c b7 c6 14 3c 5b 79 c0 3d
       0.012585651 0.020255905 0.00908058 0.09398147
0000b0 fd b1 04 bd ca e9 da 3b fe e7 2f 3b f8 e5 4b 3c
       -0.032396305 0.006680702 0.002684116 0.012444966
0000c0 6e 11 74 3d 09 b9 2d 3d 64 e6 44 3b 62 f9 b9 3a
       0.059586935 0.04241279 0.003004455 0.0014188702
0000d0 93 4c 54 3d 1f 61 d8 bc 46 e6 25 3b e8 50 7f 3b
       0.05183084 -0.026413498 0.0025314256 0.0038958136
0000e0 9b a3 8c bb 08 5c 4c bb 20 f3 d0 bb ee 06 8c 3c
       -0.004291964 -0.0031182785 -0.006376639 0.017093148
0000f0 79 3f 0c 3d 54 13 f9 3b 0f 70 fa 3c 56 3f 26 3c
       0.03424022 0.007601181 0.030571012 0.010146936
000100 7b 6c a5 bc cb 56 26 3c b7 6c 81 3c fe 7a c8 3b
       -0.02019333 0.010152529 0.01579891 0.0061181774
000110 81 3f c6 3c 44 6d af 3c b4 8d 84 3c b9 de 03 bb
       0.024200203 0.021414407 0.01618085 -0.0020121767
000120 8f 18 38 bc e0 b2 3f bb 32 72 82 3c b7 36 56 3c
       -0.011236324 -0.0029250905 0.015923593 0.0130745685
000130 8f 82 f9 bb ea e1 0c bd ac e4 03 3c a7 3d 8d 3c
       -0.0076144408 -0.034395136 0.008050125 0.017241312
000140 7d 22 ce 3c c4 83 9f bc d9 9d e7 bb ff f3 e1 3c
       0.02516293 -0.01947201 -0.0070683775 0.027582167
000150 90 c9 d8 3c aa 0f 4e bc 71 f4 95 b9 87 68 21 3c
       0.0264633 -0.012576977 -0.00028601618 0.009851581
000160 27 b8 3c 3c 6c 91 88 bc 4c 86 80 3d 67 2d e1 3c
       0.011518515 -0.016670905 0.06275615 0.02748747
000170 b7 c2 2e 3a 57 26 cf 3c 9f a0 07 3d 12 75 9b bb
       0.0006666588 0.025286837 0.033112165 -0.0047441805
000180 66 6c 29 bd 75 b3 b7 3b d2 6a 2e 3c 94 f1 3a 3d
       -0.041363142 0.0056061097 0.010645585 0.045640543
000190 ea 70 b1 3b 06 43 0e bd 25 a6 54 3c d3 d0 90 3c
       0.0054150717 -0.034731887 0.012979065 0.0176777
0001a0 4c 36 e4 3c 7f cc 11 bd 93 f0 4b 3c 01 c6 ba bc
       0.027857922 -0.035595413 0.012447494 -0.022799494
0001b0 23 f3 44 bb 2b 09 9e bc a8 97 58 bb a7 d4 97 3c
       -0.0030052147 -0.019291481 -0.0033049379 0.018534018
0001c0 eb 9d 15 3d 58 fa 86 bc 7b 7a b9 bc be e5 4e bb
       0.036527555 -0.016476795 -0.022641411 -0.0031570042
0001d0 4e 5b 08 3d ab fe 7d 3c 45 b4 31 3d 52 14 d9 3c
       0.0332902 0.015502612 0.04338481 0.026498947
0001e0 84 41 64 3c 56 6d c3 3c e9 68 f1 3c e4 52 02 3d
       0.013931636 0.023855846 0.02946897 0.031817332
0001f0 32 ad d6 3c b5 80 46 3c ee 3e b8 3c d8 4e 97 bc
       0.026205633 0.012115647 0.022490945 -0.018470213
000200 70 0f 35 3d 2a 6b 22 bd 8d a6 24 3d e6 15 38 bc
       0.044204175 -0.03965298 0.040197898 -0.01123569
000210 fc 8f da 3c bb b8 83 bc 9d 72 a7 bb 90 47 0b 3d
       0.026679985 -0.016079297 -0.0051100985 0.034003794
000220 8b 80 23 3d 2d 5a 4a 3c b7 f6 83 3c 18 e4 9d 3c
       0.03991751 0.012350601 0.016108854 0.019273803
000230 de 6c 82 3b cd 2b 97 ba 2f 3c d4 3c e3 84 b5 3c
       0.003980263 -0.0011533439 0.025907604 0.022158092
000240 ea 9e a8 ba 60 92 6f bb 07 21 58 3d cb 26 e7 3b
       -0.0012864743 -0.0036555752 0.052765872 0.007054185
000250 be 78 f8 b9 58 d9 50 bd f5 d6 0e 3c 10 a8 29 bd
       -0.00047392206 -0.050988525 0.008718242 -0.041420043
000260 8a 6d af 3c 16 50 4f bc 1f 14 09 3c ad 2a be bc
       0.021414537 -0.012653371 0.008366614 -0.023213709
000270 14 f5 b8 3b 99 f1 4b bd 2b 57 a3 bc 5b 08 4a bd
       0.00564445 -0.049790952 -0.019939026 -0.049324375
000280 49 db b2 3c 60 a5 c2 bc 76 74 ec bc af 8a ba 3c
       0.021833079 -0.023760498 -0.028864127 0.022771208
000290 ad f0 59 bb 5e 47 01 3d f7 77 b7 3c 33 6c 26 3a
       -0.0033255026 0.0315622 0.02239607 0.00063485204
0002a0 e8 71 fc 3d ad 42 06 bc e3 fa d2 3d a3 0b e3 3c
       0.123264134 -0.008194608 0.10301759 0.02771551
0002b0 87 ab 6f 3b 13 f8 95 bc ca 78 9d 3c 1a 4c db bc
       0.0036570744 -0.018306768 0.019222636 -0.026769686
0002c0 08 5e 35 bd 18 3c 82 bd 64 87 b3 3c d3 82 e1 3b
       -0.04427913 -0.06359118 0.021915145 0.0068820505
0002d0 80 69 d2 3d 24 2e de bc 31 a8 ce 3b c6 3f 89 bc
       0.10274029 -0.027121611 0.006306671 -0.016754042
0002e0 92 a6 01 bd 74 48 d6 bb 76 39 0b 3d fa 76 aa ba
       -0.031652994 -0.006539399 0.033990346 -0.0013005428
0002f0 75 fb 22 3a 1e fc 03 3c 1a d9 11 bd 6a 90 3f bb
       0.00062172796 0.008055715 -0.035607435 -0.0029230365
000300 0c fb a2 3c bb 79 b6 3c 84 78 29 3c e6 d2 1b 3d
       0.0198951 0.022274842 0.010343675 0.038042925
000310 7a f0 30 ba 3e d9 43 3c 80 37 66 3c ed 2c d2 3a
       -0.0006749701 0.01195365 0.014051318 0.0016035117
000320 4d 84 a3 bb 8d 77 1e bc fc 35 36 3d 1c 34 04 bd
       -0.0049901367 -0.009672058 0.044485077 -0.032276258
000330 82 f6 8f 3c 5f 53 bb 3c 5d e0 8f 3c 09 0a 08 bb
       0.017573599 0.022866903 0.01756304 -0.0020757935
000340 0d b6 4d bc cb 95 ac 3c f4 b1 90 3b 08 85 a3 bc
       -0.012555611 0.02106752 0.004415745 -0.019960895
000350 e3 77 e7 bc fe 38 dd bb e7 0b e8 bb 44 e0 e5 bc
       -0.028255409 -0.0067511788 -0.007081497 -0.02806104
000360 f3 21 29 3c 88 1f 6a 3c 3d df 65 3d 09 09 3b 3a
       0.0103230355 0.014289744 0.0561211 0.000713483
000370 b6 27 51 bd eb df d2 bc 8f 53 93 3d f6 25 06 bd
       -0.051063262 -0.025741538 0.07193672 -0.032751046
000380 aa c0 8c bb 47 d9 cc 3b 70 24 83 3b 36 3b e8 3c
       -0.0042954283 0.0062514874 0.0040021464 0.028348546
000390 11 5f ee ba c4 74 87 bc 44 a1 d9 bb e9 cf 2c bd
       -0.0018186291 -0.01653517 -0.006641539 -0.042190466
0003a0 33 1a 17 3d 3a 6b 1a 3b 3b 07 b8 3c 53 44 40 bc
       0.03689022 0.0023562447 0.022464385 -0.01173504
0003b0 d5 d3 86 bc a5 a9 00 bc 4e 3d 97 bc ae 0e 10 3c
       -0.016458431 -0.007852946 -0.01846185 0.008792562
0003c0 f1 0d 28 3d f0 cc 8d 3c d3 85 3a 3c 3b 74 af 3c
       0.04102892 0.017309636 0.011384445 0.021417728
0003d0 73 5b ae bc 48 9a fa bc fd 40 13 bb cf bd 5a bb
       -0.02128384 -0.030591145 -0.0022469156 -0.0033377295
0003e0 d4 3b 88 bc 34 05 c1 3c c1 a8 59 bc 71 6a 06 bc
       -0.01663009 0.023562051 -0.013284863 -0.008204089
0003f0 6e f5 e8 3c 91 c7 07 bd 8c d6 e0 3d 54 ff 88 bb
       0.028437342 -0.033149306 0.109784216 -0.004180828

network_body._body_endoder.seq_layers.2.weight f4 [256, 256]
000000 30 c4 66 bd ca 0a 34 3d 91 be 04 be 4c b4 ea 3a
       -0.056339443 0.0439556 -0.1296332 0.0017906516
000010 b5 1c 90 3d c6 38 83 3d b6 7b 04 be ee f9 b1 bc
       0.070367254 0.06407313 -0.12937817 -0.021725621
000020 35 7e e4 bd b7 95 1c 3e ce a8 19 3d b5 e8 c5 bc
       -0.111568846 0.15291487 0.0375145 -0.024158815
000030 e8 80 ee 3c a6 ff cc 3d ba 31 6b 3d 8c 02 79 bc
       0.029114202 0.100096986 0.05742047 -0.015198361
000040 5f 2b cb bb d9 88 d3 bc 01 b4 84 bd 82 9b 5a 3d
       -0.0062002386 -0.02582209 -0.064796455 0.05337096
000050 aa b6 ad 3d f0 9a 6c 3d 83 f9 37 bd c8 b7 40 bd
       0.08482106 0.057764947 -0.044915687 -0.047050267
000060 e2 d7 c1 3b 70 bc e1 bd db 74 7f bd d1 9d 99 bd
       0.005915628 -0.1102227 -0.0623673 -0.07500804
000070 e5 0a a3 bd 22 de 2a 3d 39 8d a4 3d dd 3b 57 be
       -0.07961062 0.04171575 0.080347486 -0.2101893
000080 ba 36 a0 3d 7d f7 33 bd a7 6f 21 3d 59 18 1b 3d
       0.07822938 -0.043937195 0.03941312 0.037865017
000090 38 4c 8b 3c 60 50 28 3d d8 13 6e bd ae 9d 8a 3d
       0.017004117 0.041092277 -0.058124393 0.06768356
0000a0 52 23 5b bb 25 b7 07 be 48 69 d8 3d ee 18 aa bc
       -0.00334378 -0.13253458 0.10566956 -0.02076384
0000b0 90 8f d3 3c e6 9d 90 bd cc 02 29 3e d8 de 4d 3d
       0.025825292 -0.07061367 0.16504973 0.05026135
0000c0 7a 02 32 3e b4 fe 43 3d b1 22 e7 bd c7 79 a0 bd
       0.17383757 0.047850326 -0.11285914 -0.07835727
0000d0 0e 90 24 be 6b 12 7b 3d 47 a6 cd bd f8 05 cd 3c
       -0.16070578 0.06129686 -0.100414805 0.02502726
0000e0 ff 6b 64 bd 49 37 b0 bd eb 57 98 3b 1a c3 fd 3c
       -0.055767056 -0.08604295 0.0046491525 0.03097682
0000f0 db 7f 32 bc e4 b7 ee bb b6 42 90 bb c0 cb 3d bc
       -0.010894741 -0.007285105 -0.004402484 -0.011584222
000100 2a 9e 8c bd cc aa f5 3d 7c 6c 6b bd 33 af 49 bd
       -0.06866105 0.119954675 -0.057476506 -0.04923935
000110 10 cb a0 bd 91 32 bb 3d d2 fe c4 bd 36 9a e9 3c
       -0.07851231 0.09140504 -0.096189156 0.028515916
000120 d9 ef 34 3e b0 94 99 3d 59 f9 8c bd fd 30 94 bc
       0.1766962 0.07499063 -0.06883497 -0.018089766
000130 dd 97 f3 3c fe b6 f8 bc 30 36 99 bd 5a 55 b3 3b
       0.0297355 -0.030360695 -0.074810386 0.005472821
000140 ec 93 e4 3c 96 73 64 bd 47 34 5b 3d 03 01 27 bd
       0.027902566 -0.055774294 0.053516652 -0.04077245
000150 1e 0c cc bc 33 c1 2c 3d 85 c9 d4 3d da eb b2 3d
       -0.024908122 0.042176437 0.10389999 0.08736391
000160 ab b7 53 3d 2a 62 61 bd 85 c9 e4 3d d9 7b 1f bd
       0.05168883 -0.055025257 0.11171249 -0.03893647
000170 30 0d dc 3d ee ac 00 b9 c3 49 25 bc b0 89 b4 3d
       0.10744703 -0.00012271453 -0.010088387 0.08815324
000180 7e 00 1d 3e ba 88 1f 3d c8 5b da 3c 4d e2 53 3d
       0.15332219 0.038948752 0.026655093 0.05172949
000190 d0 98 2d 3d 3c 58 e5 3c 37 e7 25 3e fe 3e 78 bd
       0.04238206 0.027996175 0.16201483 -0.06060695
0001a0 ab e2 43 3c bd c3 3c bd c5 5c ee bc 6e 8c 99 bc
       0.011955897 -0.046085108 -0.02909697 -0.01874372
0001b0 a8 16 3b bd 71 18 2d bd 68 d7 57 3d 6f 15 96 bc
       -0.045675904 -0.042259637 0.05269566 -0.018320767
0001c0 2a ad 14 be 71 3d 48 bb 03 8b 60 3d 4a e4 f2 bd
       -0.14519182 -0.00305542 0.054820072 -0.11859949
0001d0 91 89 07 3e 8e 83 c9 bd 55 73 be bd f0 e3 b5 3d
       0.13236071 -0.09839545 -0.092993416 0.08881366
0001e0 c9 95 cf 3c d4 f7 03 3e 5e 16 13 3d 3b 0c c8 3c
       0.025339978 0.12887508 0.035910003 0.024419894
0001f0 21 1c 13 3c 4f 1e 15 3e b6 29 b4 bd 19 42 60 bc
       0.008978874 0.14562343 -0.08797018 -0.013687634
000200 ca 2b 5a 3d bc 2b 90 3d c6 5b bc bb e1 0a 43 3d
       0.053264417 0.07039592 -0.005748245 0.047617797
000210 63 46 11 3d a6 4e 51 bd 83 f3 2f 3c 9c c5 da bd
       0.035467517 -0.051100396 0.01073921 -0.10682222
000220 ca 35 89 bb 5e 40 59 3c 67 6a 0e 3c e4 49 4f 3d
       -0.0041873204 0.013259975 0.0086923605 0.050607577
000230 8e e9 58 bc 39 26 29 3e 68 70 47 3d 28 cd 1f 3d
       -0.0132392775 0.16518487 0.048691183 0.03901401
000240 4f 17 b0 bc 62 c0 92 bd e0 98 28 3d 6f 95 88 bc
       -0.02149549 -0.071656 0.041161418 -0.016672818
000250 c1 2e c7 bd 7a 75 a8 3c a4 1b 08 bd 40 93 31 bc
       -0.097257145 0.02056383 -0.033229485 -0.01083833
000260 ab a8 31 3e 22 fa 50 bd df d9 0b be c0 56 b0 bd
       0.17349498 -0.051019795 -0.1365733 -0.08610296
000270 18 b0 99 bd 82 d4 05 3e bf 9b 8c 3e f0 6d 7f bd
       -0.0750429 0.13069347 0.27462575 -0.062360704
000280 3e af f3 3d 8e 70 fa 3d 33 c9 8f 3d ca 15 6d ba
       0.11898659 0.12228499 0.070207976 -0.00090440793
000290 ba 50 8a 3d 7b 6c 6f 3c 86 5c 20 3e 10 15 90 3d
       0.067536786 0.014613266 0.15660295 0.07035267
0002a0 7f 21 9e bd be 91 8b bd aa b6 b1 bc 4d a1 d5 3d
       -0.077212326 -0.068149075 -0.021693546 0.10431156
0002b0 2e 48 d0 bd 71 88 ec bd 51 c2 ae 3c 83 87 9c bb
       -0.10170017 -0.11549462 0.021332892 -0.0047768964
0002c0 dd 3d f6 3a cb 60 e3 3d 71 ce d1 bc 39 5c d8 bd
       0.0018786747 0.11102446 -0.025611134 -0.10564465
0002d0 19 90 fb bd 3a b1 28 3d 05 c9 93 3c 14 b0 fa bb
       -0.12283344 0.04118464 0.01804019 -0.0076503847
0002e0 11 fe 7a ba de d2 82 bc 5a 13 9a 3b 44 94 f6 bd
       -0.0009574602 -0.01596969 0.004702014 -0.12039998
0002f0 1b f3 34 3d 6b 95 1c 3d 11 4c dc bd 53 c5 65 bd
       0.044177156 0.038228434 -0.10756696 -0.056096386
000300 a9 2e 91 bd 9a 38 c9 3d d9 51 23 3e 20 90 ac 3d
       -0.07088978 0.09825249 0.15949191 0.08425927
000310 d2 93 bb 3d 46 22 4c 3b 72 e2 1d 3e 22 2b a0 bb
       0.09159054 0.0031148358 0.15418413 -0.0048879543
000320 69 f6 14 3d e9 ea fc bc 10 03 ce 3d f3 0f 4e bd
       0.036367808 -0.030873733 0.10059178 -0.05030818
000330 e5 5f f3 bb 4b 98 bc 3d eb e3 e5 bc 75 83 8d 3b
       -0.007427203 0.09208735 -0.028062781 0.0043186494
000340 5a 64 0a 3e cd 2a 82 bd 90 b8 1b 3e 6f 98 d6 bc
       0.13514844 -0.0635582 0.15207124 -0.026195733
000350 0b 72 a0 bd 87 1f d9 bb 26 69 b8 bc 64 8f c8 bc
       -0.07834252 -0.006626073 -0.022511076 -0.024482436
000360 7e e8 87 bd ba a7 c7 bb 28 b1 a6 bc d6 02 11 be
       -0.06636141 -0.0060929926 -0.020348147 -0.14161238
000370 dd f7 04 bc 07 6f 9b 3b 8d 86 1e be 2c c1 b9 bd
       -0.008115736 0.00474346 -0.15481015 -0.09070048
000380 ac 08 ca 3c 09 c2 84 bc 54 e9 ac 3c 02 d3 99 bd
       0.024662338 -0.016205804 0.021107353 -0.0751095
000390 92 c4 25 3d 9e ed ce bd a8 40 36 3d c5 f4 d8 bc
       0.040470667 -0.10103916 0.044495255 -0.026483903
0003a0 11 47 56 3d 0e 45 89 bc 66 f9 37 3d 5e a8 e9 bc
       0.052313868 -0.01675656 0.04491558 -0.028522667
0003b0 9c 4e 46 3d 2d 2d c7 bd f8 ae e1 bc d6 55 de 3d
       0.04841481 -0.097254135 -0.027549252 0.10856216
0003c0 21 7f f5 bd c7 7c df 3c b4 f0 84 bc 3e fe 3d 3c
       -0.119871385 0.027281178 -0.016228057 0.011596261
0003d0 d8 ef 87 3d bb a9 9f bb 5f 72 81 bd 56 21 4f bd
       0.066375434 -0.0048725284 -0.06320643 -0.0505689
0003e0 cd b1 95 bd 4c 34 a3 bd 1a ca e9 bd f4 76 94 bc
       -0.073093034 -0.07968959 -0.11415501 -0.018123128
0003f0 8e 79 32 bd a1 32 4b 3c d0 de bd bb 5c 5c a4 bc
       -0.043572955 0.012402208 -0.0057943836 -0.020063572

network_body._body_endoder.seq_layers.2.bias f4 [256]
000000 9d c9 85 3c 66 a4 55 3b b1 87 e0 3b aa fe 53 bd
       0.016331488 0.003259921 0.006852113 -0.05175654
000010 80 1e 53 3c c4 c8 6c 3c 21 2e 49 bc da 20 25 3c
       0.01288569 0.014452163 -0.012279064 0.010078633
000020 19 26 0a 3c 86 43 17 3d d5 9c 8f bc d0 ed d2 3b
       0.008431935 0.03692963 -0.017530838 0.006437041
000030 dd 8f 32 b9 0f 5e 1e 3c 08 97 a8 3c b8 85 c2 3c
       -0.00017028996 0.00966598 0.02057983 0.023745403
000040 1d 3e b9 3c d3 07 d0 bb 92 bf 17 3c 01 41 d8 bc
       0.022612626 -0.006348589 0.0092619825 -0.026398184
000050 7d de 59 bc 10 90 9b 3c 85 88 b7 3c a1 09 59 3c
       -0.013297674 0.018989593 0.022403965 0.013246925
000060 41 77 29 3c 79 15 3a 3c 5e 7b 8c bb 62 e1 ff 3c
       0.010343374 0.011357659 -0.0042871675 0.0312354
000070 f3 f3 82 3c 4f 57 1f 3d 39 86 0b bb ee 23 e8 bc
       0.015985465 0.038901623 -0.002128972 -0.028337445
000080 17 41 e6 bb 85 17 98 3b 35 d6 e9 bc ec 7f 93 3a
       -0.0070268023 0.0046414756 -0.028544525 0.0011253334
000090 66 76 7e 3c b4 9c 9b 3b 01 8f 20 3b df 85 35 3b
       0.015531158 0.004748905 0.00244993 0.0027698202
0000a0 94 64 38 3b 2f d9 7f 3c 12 5d 9b 3c 62 06 75 3c
       0.002813612 0.015615745 0.018965278 0.014955135
0000b0 43 0e 03 3b dc fe aa bc 7c 2e ab bc a8 e0 a5 3b
       0.0019997514 -0.02087348 -0.020896189 0.0050621815
0000c0 2d 73 0e 3d 90 7c b3 3c ec 93 6f 3c 4b 62 d8 3c
       0.03477781 0.021909982 0.01462267 0.026414057
0000d0 5b bd 04 3c e8 02 71 3c c6 13 d3 3c d4 e0 72 3c
       0.0081017865 0.014710166 0.025766265 0.014824111
0000e0 ab c2 30 3c 1e 8f b8 bc a4 6d f3 bb fb 25 17 bc
       0.0107886 -0.022529181 -0.0074288417 -0.009225364
0000f0 22 3d f7 3c d0 59 b7 3b ca 89 c1 3c 4f f8 a0 3c
       0.030180518 0.0055954233 0.023625273 0.019649653
000100 c8 e4 3a 3b 54 3a 9f 3a fe 29 04 3b 2a 4d 3a 3c
       0.0028517712 0.001214812 0.002016663 0.011370936
000110 3d e8 4d 3c 86 43 61 3c fc 39 d1 3b 82 39 b4 bc
       0.012567577 0.013749009 0.006385086 -0.022000078
000120 fd 34 11 3c 9f c9 49 3c c0 a1 4c 3c 49 6c 87 ba
       0.008862731 0.012316137 0.012489736 -0.0010331954
000130 8d b9 19 bd 6b 2a 3e 3c df 15 29 3c e9 90 c1 3b
       -0.03753047 0.011606793 0.010320156 0.005907167
000140 35 05 02 3b 46 db c7 3c ec 4d 05 bd ed a5 ed 3c
       0.001983953 0.02439655 -0.032545015 0.029009784
000150 18 a7 a6 bc aa dc ca bc e4 87 3f bd bf 3c 23 3c
       -0.020343348 -0.024763424 -0.046760455 0.0099632135
000160 2b bb e4 3c d0 45 1e 3c 9d 84 35 bc e8 cc 83 3c
       0.02792128 0.009660199 -0.011078981 0.016088918
000170 7c 9e 03 bd c7 d3 4c bd 2f 4a 93 3c 14 1e 22 bd
       -0.032133564 -0.050006654 0.01797971 -0.039579466
000180 46 5b 08 3c 01 4a 30 3c 9e ca 72 bc ee 61 78 bc
       0.0083225425 0.010759831 -0.0148188155 -0.015160067
000190 e1 21 33 bd 0d 71 a9 bc d6 8e 4a bd 2b 19 61 bd
       -0.04373348 -0.02068379 -0.049452625 -0.054955643
0001a0 c2 3b 44 3c 1f 87 71 3c ff 0d 52 3b de 47 9e ba
       0.011977138 0.014741688 0.00320518 -0.0012075861
0001b0 ff 8b 73 3c bf a7 21 3c f9 23 46 bc 7b d1 2f bd
       0.014864921 0.009866654 -0.0120935375 -0.042924386
0001c0 77 8e 7e 3c f6 2d 96 3b 19 b0 c2 b9 88 5f 0d 3d
       0.015536896 0.0045831157 -0.00037133766 0.034514934
0001d0 a4 e0 cd 3c 48 4d 85 3c b4 a5 ae 3c ea 5c 24 3c
       0.025131531 0.016272202 0.021319248 0.010031918
0001e0 06 b3 8e 3c 44 e8 61 3c 84 6a 9b 3c cc 73 7a 3c
       0.01741935 0.013788287 0.018971689 0.015286397
0001f0 1c 00 38 3b e2 98 13 bd 3d dd 08 3d 22 db 5a 3c
       0.0028076237 -0.036034472 0.033414114 0.013357909
000200 64 af d8 3c dc 6e b4 3c fe 39 4e 3c 09 5d 98 3c
       0.02645082 0.022025518 0.012587069 0.01859905
000210 f6 ec 34 bd 27 bc fb 3a 74 33 c3 3c 7c 5a d6 bc
       -0.044171296 0.0019205854 0.023828246 -0.026166193
000220 50 3f e8 bc 46 95 87 3c 54 eb 12 3c 58 6d c5 3c
       -0.028350502 0.016550671 0.008967239 0.02409999
000230 0a 70 12 3b a6 97 5b bc 7a c3 34 3c 9b 0b 23 bc
       0.0022344613 -0.013402855 0.011032933 -0.009951497
000240 4e 2a 0e bd 7f 8f d8 3c 85 7c 09 3d 8d fc f5 3b
       -0.034708314 0.026435612 0.033566017 0.007506913
000250 da d0 43 3a 5f 71 68 bc 0b 81 5c bc 28 42 8a 3c
       0.0007469781 -0.014187186 -0.013458501 0.016877249
000260 80 4c 2e bc 45 92 e5 bc 0f 07 46 3c 9b 0f f4 3a
       -0.010638356 -0.028023848 0.012086644 0.0018620373
000270 6e 2e 02 3c f2 c8 67 3c 95 82 4e 3c b6 6e 3b bd
       0.00794564 0.01414703 0.012604375 -0.04575988
000280 d4 da 9a bb 18 44 8e 3b 9d ae 57 bc 40 44 78 bd
       -0.0047257934 0.0043416135 -0.01316419 -0.060611963
000290 f6 8a e2 bc f8 c9 33 bd 4e 5f e5 3c e1 67 60 bd
       -0.027654152 -0.043893784 0.027999546 -0.054786567
0002a0 51 0e d6 bc 46 22 25 3c 24 f1 a6 3c 61 a1 6e 3c
       -0.026129873 0.010078972 0.020378657 0.014564843
0002b0 f4 ee 8e 3c e7 5d 13 bc f9 d5 26 3b fa 69 29 3c
       0.017447926 -0.008994556 0.0025457127 0.010340208
0002c0 f6 50 6c bb d8 5f 85 bc 1e 8e 68 3a 77 5f 97 3c
       -0.0036058999 -0.016281053 0.0008871275 0.018478138
0002d0 a3 d9 7d 3c 68 6a 17 3b 1e 18 06 bc 79 99 b3 bc
       0.015493783 0.0023104195 -0.008184461 -0.021923767
0002e0 65 d8 0e 3c 48 2e 6e 3c 60 37 d5 bb ee 05 60 3c
       0.008718585 0.0145374015 -0.0065068454 0.013673289
0002f0 bf d7 21 bd 12 22 0e bb f9 80 35 bb 71 00 da 3b
       -0.039512392 -0.0021687788 -0.0027695282 0.0066528847
000300 fa 28 66 bc 20 79 8c 3b 34 8a 40 bd f8 4c 6f 3c
       -0.0140478555 0.0042869 -0.0470068 0.014605753
000310 27 12 08 3d 85 bd 18 3b 5c 41 36 3c 82 3d fb 3c
       0.033220436 0.0023306322 0.011123981 0.030668978
000320 e7 c5 16 bd ee 73 10 3c d1 bf 66 3c b0 3c 08 3d
       -0.036809828 0.008816702 0.0140838185 0.033261
000330 35 43 b0 3b c5 3f 6d bd 9e a5 fd bc ea 99 cf bb
       0.0053791055 -0.057922143 -0.030962761 -0.0063354867
000340 cf 76 9d 3c 95 fb 5c 3c da d5 09 bc b1 5a 15 3c
       0.019221691 0.013487716 -0.008412803 0.009115861
000350 cf c0 f1 bb 31 82 7c ba b6 a9 e6 b9 d6 c0 36 bc
       -0.007377721 -0.0009632437 -0.00043995463 -0.011154374
000360 fb f8 3c 3d 8d fb 0d 3c 3b bd 5a bb cc 03 d5 3c
       0.046135884 0.008665931 -0.003337695 0.026002787
000370 39 15 c7 bc 56 82 9c 3c 21 29 20 3c 30 4f e0 bb
       -0.024302112 0.019105118 0.009775431 -0.0068453774
000380 a6 38 c0 3b ef 2e 66 bd bf 23 d6 3c 8b 85 65 bb
       0.005866128 -0.056197103 0.026140092 -0.0035022225
000390 29 c1 62 3b 8c 2a 87 3c 53 49 64 3c c9 ba 61 bc
       0.0034599996 0.01649978 0.0139334975 -0.013777443
0003a0 a5 92 c1 3c 67 4f 4d 3c c7 8e e5 3b 91 13 64 bc
       0.023629496 0.012531138 0.007005546 -0.013920681
0003b0 52 0e 7a 3c 11 5e 99 3b d4 c2 7f 3c 17 7e 5c bb
       0.015262203 0.004680403 0.0156104155 -0.0033644491
0003c0 7e b3 8e 3c 13 32 46 bc c5 9f cd 3c 32 b5 94 3c
       0.017419573 -0.0120969 0.025100598 0.018152807
0003d0 f2 2d ac bb d1 88 8f bc 90 af aa bb d9 9a 01 3d
       -0.0052545005 -0.017521294 -0.005208917 0.031641815
0003e0 89 0a c7 3b b9 f2 aa bb 9f ce 0e bb cd f0 77 bb
       0.006074254 -0.005216923 -0.0021790636 -0.0037832737
0003f0 e8 b3 7a 3c 5c 97 bd bc ba de ce 3c ef ea 3f bd
       0.015301682 -0.023143463 0.025252689 -0.04685491

action_model._discrete_distribution.branches.0.weight f4 [3, 256]
000000 8d 74 76 bb 44 2b ce 3d 97 00 fc ba 73 23 db bc
       -0.003760609 0.10066846 -0.001922625 -0.026750302
000010 9e e5 a3 3d 56 8c e0 bc 40 97 a9 3d 8a c9 ae bb
       0.080027804 -0.027410667 0.08280802 -0.005334084
000020 08 33 2e 3c 6f 4c d1 ba b0 10 07 3d 2f 43 38 3d
       0.010632284 -0.0015968214 0.0329749 0.044985946
000030 92 eb 43 bd cd 77 68 ba ec 7a f9 ba 0b f4 22 bd
       -0.04783208 -0.00088679494 -0.0019033826 -0.03978352
000040 ca 3d 09 bd 00 2f 98 bd f0 41 1d 3d 66 7b 42 bb
       -0.033506192 -0.074308395 0.03839296 -0.0029675602
000050 a9 fa a3 3c 22 ee fb bc 30 82 d1 bc 85 db 23 bd
       0.020016985 -0.030753199 -0.025574774 -0.040004272
000060 22 b0 96 bc 8c f6 c8 3b 4b 04 85 3d 6d dd 6f 3d
       -0.018394534 0.0061329063 0.064949594 0.058560777
000070 d0 28 ba 3b 54 8a c1 bc c0 92 6c bb 8f 34 2c bc
       0.0056811348 -0.02362553 -0.0036098212 -0.010510578
000080 78 fb aa bb 9e e7 4b 3c c2 98 13 bd 26 c4 8c bc
       -0.0052179657 0.012445359 -0.036034353 -0.017183375
000090 76 11 10 3d 0e 3e 2e bd c5 2d 10 3b cc 77 01 bd
       0.035172902 -0.04253965 0.0021999937 -0.031608388
0000a0 9d a3 9c 3c c8 4a 96 bc 41 60 d8 bc c7 0e c3 3b
       0.019120986 -0.018346205 -0.026413085 0.0059526893
0000b0 6c ac 0b 3c 24 07 e2 bc 1b fc f9 bc 10 e7 9d 3d
       0.008524995 -0.027591296 -0.030515721 0.07710087
0000c0 e2 85 87 3c 44 60 78 3d 4a ae 7a 3b 65 ec 46 3b
       0.016543332 0.06063868 0.0038250857 0.0030353304
0000d0 04 ba 41 bc 3e a3 e9 bc 3b e8 ba bc 40 d5 d3 3a
       -0.011824135 -0.028520223 -0.022815814 0.0016161576
0000e0 e6 32 54 3d 72 ce 01 bd 07 06 37 3d df 72 83 bc
       0.051806353 -0.031691022 0.044683482 -0.016045986
0000f0 d0 ba 4d bd e8 94 9b 3b 46 2d 45 bc 80 ad f5 3c
       -0.050226986 0.0047479756 -0.01203472 0.029989958
000100 82 46 0b bc f5 6a ba 3c fd cb 23 3c 81 94 4a bd
       -0.008500697 0.02275608 0.009997365 -0.04945803
000110 a7 a0 34 3c 36 f2 c6 3b 81 a3 5e bd 24 e8 77 3b
       0.011024631 0.0060713543 -0.05435515 0.0037827576
000120 27 55 ca 3d 18 3d 15 bc da 00 39 3d 07 5d 75 3b
       0.09879523 -0.009108804 0.045166828 0.0037439482
000130 24 b6 e3 3b b9 29 6c 3c 8b 48 a1 bc 1f 75 d5 bc
       0.006949203 0.014414244 -0.019687911 -0.026056824
000140 83 6a 61 bc eb 65 44 bd f5 ee 16 bd 02 f3 4e bc
       -0.0137583045 -0.04794876 -0.03684898 -0.01263118
000150 93 9c 45 ba 11 78 ee 3c 00 ae 2d bd e8 0f ca ba
       -0.0007538285 0.029109986 -0.042402267 -0.0015416117
000160 c7 a0 3c bd 7c 14 85 3c dd e0 34 bd 31 3f cf 3c
       -0.046051767 0.01624512 -0.04415976 0.025298687
000170 86 e5 3d bd 2c 34 f3 bc 63 a4 d5 bb b0 29 c8 39
       -0.04636147 -0.029687963 -0.0065198406 0.00038178032
000180 09 2c 1f 3b 5b e1 fd 3d 91 51 9e 3c ee 13 9b 3c
       0.0024287722 0.12396499 0.019326003 0.018930402
000190 0d b8 a6 bc 65 fd cf bb 56 7f 26 bb e2 b7 ce bc
       -0.020351434 -0.0063473457 -0.0025405488 -0.025234167
0001a0 cd 7f 57 bc f2 11 bf bc bc d5 cd bc ff bc d5 3d
       -0.013153029 -0.023323987 -0.02512633 0.10436439
0001b0 64 72 07 3d fe 7a e0 3d fb 6a ab 3c e3 d9 c8 bc
       0.033068076 0.10960959 0.020925036 -0.024517959
0001c0 36 04 db bc e6 cd 57 3c 9e b0 ff ba e4 92 a6 3c
       -0.026735406 0.013171649 -0.0019507592 0.020333715
0001d0 3a 89 bc ba c1 b6 31 3c d8 4f 7a b8 fe ac 21 3d
       -0.0014384158 0.010846795 -5.9679005e-05 0.03947162
0001e0 2c 11 fc bb e4 b0 0f 3c 92 4e ad bc 6c 71 48 bc
       -0.0076924767 0.008770201 -0.02115563 -0.012234073
0001f0 4b e2 2f bd 60 13 1b bc 57 b5 91 bc 2f cf 20 3a
       -0.04294042 -0.009465069 -0.017786665 0.00061343884
000200 99 bb 89 3c 1e fd 9c bc 72 bd 08 bd 85 fd a8 bb
       0.016813086 -0.019163664 -0.033383794 -0.005157175
000210 d1 70 fa bb 68 e8 0a bd 64 c1 eb bb b8 86 71 bb
       -0.0076428433 -0.033913046 -0.007194685 -0.003685398
000220 c7 d3 2a 3d 27 97 c9 bc 03 ce 80 bc a1 41 8d 3d
       0.041705873 -0.024608208 -0.015723234 0.06897283
000230 07 85 a9 bc 79 e6 65 3c 96 95 99 bb cc f8 86 3c
       -0.020693315 0.014032 -0.0046870215 0.016476057
000240 92 e6 5e bd bc 30 06 bd 69 e3 38 3b de f7 85 3c
       -0.054419108 -0.03276132 0.002821172 0.016353544
000250 46 66 d2 bb ae 3e 79 3c 7d a5 7c bc 29 26 70 bc
       -0.0064208834 0.015212698 -0.015420315 -0.014657536
000260 39 aa 34 bc ce 49 75 bc 59 94 bf bb 8d 6b be 3c
       -0.011026912 -0.01497121 -0.005846542 0.023244644
000270 9c 06 f5 3c 47 e0 90 bc 9f 9c 9c bc dd ba 5e bd
       0.029910378 -0.017685069 -0.019117652 -0.054377425
000280 43 c2 51 3d 3b 89 c1 3c 85 b6 1e 3c b9 1f 30 bd
       0.051210653 0.023625007 0.009687071 -0.042999003
000290 d9 5c a5 3c db e8 93 bc 34 6c 6a bc 25 5f 8c bc
       0.020185875 -0.01805537 -0.014308024 -0.017135212
0002a0 75 86 d4 ba 3f 58 01 3c b5 3b ac bc 29 7a 3f 3d
       -0.0016214388 0.007894575 -0.021024564 0.04674736
0002b0 b4 a5 7a 3c 1d 1c 06 bd b6 28 4a 3d a3 62 d0 bc
       0.015298296 -0.032741655 0.04935523 -0.025437659
0002c0 2a 02 47 3d 10 2c 0d bc c5 71 42 bd 14 9a 59 bc
       0.04858605 -0.008616462 -0.04747178 -0.013281364
0002d0 fd c4 0c 3c 89 1b 82 3d a2 4c fd 3b 88 1c 97 3c
       0.008591888 0.06352908 0.0077300826 0.018446222
0002e0 de b6 99 bc 92 5a 35 bd 86 fd e5 3c 23 99 0a bd
       -0.018763956 -0.044275828 0.028074991 -0.03383745
0002f0 33 0d 3c 3c 4b bb a3 ba 06 cf 59 bc b2 12 42 3d
       0.011477756 -0.0012491731 -0.013293987 0.04738111
000300 d4 0b 07 3d 8a 58 05 bd 62 76 00 bd fc 68 a8 ba
       0.032970265 -0.03255514 -0.0313629 -0.0012848671
000310 49 0e 6a 3c 80 61 0d 3d f1 9b a2 bc 98 89 18 3d
       0.014285632 0.03451681 -0.01984975 0.037240595
000320 78 01 a9 bc c2 93 b2 bc 4f 4c f8 39 85 20 11 bd
       -0.020630583 -0.021798972 0.000473591 -0.035431404
000330 63 14 b7 3d 13 f6 0f bd 2a 2d 79 bc 66 be a7 3d
       0.08939435 -0.035146784 -0.015208522 0.081906125
000340 5f ef b4 3b 3d 1e 54 bc 42 ae 69 ba 1d fb 39 bd
       0.0055216993 -0.0129466625 -0.0008914211 -0.045405496
000350 37 f4 90 bc b6 eb d1 3c 11 66 75 bc ec 9e 4d 3c
       -0.017694576 0.025625091 -0.014977948 0.012550097
000360 cd f5 c8 bc b4 45 dd bc 4b ad 26 3c b0 c6 9c 3d
       -0.02453127 -0.027010776 0.010173152 0.07655084
000370 fb 14 bf 3b 00 a9 4a bb 36 77 99 bc 6b 8b 4f 3c
       0.0058313585 -0.0030923486 -0.018733602 0.012667517
000380 a3 63 29 bd 54 9a f0 bc c4 a5 e4 bb a6 26 89 bc
       -0.041354787 -0.029370464 -0.0069777686 -0.016742062
000390 93 e2 af 3c ea 89 4a 3b 61 ad ec 3c ee 0f 75 bc
       0.021470344 0.0030904957 0.028891267 -0.014957411
0003a0 6a 94 a4 ba 22 75 a6 bc 58 94 31 bd c4 b0 33 3c
       -0.0012556438 -0.020319525 -0.043354362 0.010967437
0003b0 fd 8e c0 bc dd 24 c7 ba 38 74 62 bd f2 e0 10 3d
       -0.023505682 -0.0015193481 -0.055286616 0.035370775
0003c0 1b 1d 98 3d de f9 53 bb 02 c0 50 bd 01 61 3d bd
       0.074274264 -0.0032344977 -0.050964363 -0.04623509
0003d0 07 6c 79 3d 72 85 74 bc 63 3d 39 3d bc 14 06 3d
       0.06089404 -0.014924394 0.04522456 0.032734618
0003e0 c4 ce 35 3d fb 6e 36 bd 94 58 8c 38 ef a6 b8 3c
       0.04438664 -0.044539433 6.692219e-05 0.022540538
0003f0 2d 2e 0b bb 26 28 81 3a ca d5 71 bd ca 0b 30 bc
       -0.002123724 0.0009853884 -0.059041776 -0.010744998

action_model._discrete_distribution.branches.0.bias f4 [3]
000000 d9 e2 0b 3d 86 9a fb ba 43 cf 06 bd
       0.034151886 -0.0019195832 -0.032912504

action_model._discrete_distribution.branches.1.weight f4 [3, 256]
000000 ee 72 dd 3c bf 1e aa bc c3 58 14 bd 4e 59 01 bc
       0.027032342 -0.020766614 -0.036217462 -0.007894827
000010 bf 94 96 bc 47 dc 7d 3d 69 79 a8 bc e3 ca 21 bd
       -0.018381475 0.06197765 -0.020565705 -0.03950013
000020 7f b4 4a 3d 32 e7 57 3c 47 88 f3 3c d2 cb ad bd
       0.04948854 0.01317768 0.029728068 -0.08486141
000030 85 8c b5 bd 05 43 94 3c 5d 87 30 3c 1e 7a 7c bc
       -0.088646926 0.018098364 0.010774461 -0.015409974
000040 08 3f 8d bc ce 10 65 bd 20 69 ba 3b d0 ff 9b 3b
       -0.01724197 -0.05592423 0.0056888014 0.00476072
000050 33 cf 85 bd ae 95 08 bc 5a 2f c6 ba 15 c1 9e bd
       -0.06533661 -0.008336468 -0.0015120313 -0.07751671
000060 da 79 87 bd 7f 1e d8 bd a1 2d 3d 3c 75 8b 8d bd
       -0.06615038 -0.10552692 0.011546523 -0.06911365
000070 d4 29 a2 bc 7c e9 ff 3c 41 e1 f0 3c 58 8f 9b bc
       -0.019795336 0.031239264 0.029404284 -0.01898925
000080 37 a1 6b bd 20 3a e2 bc 02 4e 15 bc b6 9e 42 3c
       -0.057526793 -0.027615607 -0.009112837 0.01187866
000090 39 bb 1b bc a6 4b 26 3d cf c7 f8 3c 19 02 39 3a
       -0.009505087 0.040599488 0.030368714 0.00070575025
0000a0 ee 56 e1 3c 42 85 81 bb b1 9d 74 3b df 9e 25 3d
       0.027507272 -0.003952653 0.0037325437 0.040434714
0000b0 ce 29 6c bc 39 a1 bd bc 39 86 8d bc 2b 05 c7 3b
       -0.014414264 -0.023148166 -0.017275916 0.006073614
0000c0 26 05 11 bd 46 c9 87 3d 80 88 01 3d 5b 05 19 3d
       -0.0354053 0.06630187 0.031624317 0.037358623
0000d0 8c 72 95 3b 59 41 a9 bd 59 3c a0 3c e0 7f 8f bd
       0.004560774 -0.08264417 0.019560026 -0.07006812
0000e0 2b 9b 9c 3c 3a 58 f9 bb b3 fa 37 3c 46 99 4f bc
       0.019116959 -0.0076093944 0.011229205 -0.012670821
0000f0 e5 47 e3 bc 57 7b 24 3d 5e de be 3a b8 ff 9c 3a
       -0.027744243 0.04015669 0.001456212 0.0011978066
000100 84 db c3 3c 6c fc ac bd fc 6e c3 bd 0b a4 b5 3c
       0.023908384 -0.08446583 -0.09542653 0.022172948
000110 91 d9 ba bc dc 7c a1 3c b4 28 83 3d 2e 79 00 3c
       -0.022808822 0.019712858 0.06404248 0.0078413915
000120 e1 c1 61 bd f9 83 ac 39 fe e8 ef bd a0 c9 c1 bd
       -0.055116538 0.00032904724 -0.117143616 -0.09462285
000130 63 c6 c8 3c 7f ed d2 3c ae 98 e4 bc f4 75 11 bd
       0.02450866 0.025748013 -0.027904835 -0.03551288
000140 e1 b1 97 3d 06 23 65 3c 31 ff 77 3b 68 0f c0 ba
       0.074069746 0.013985401 0.0037841315 -0.0014653029
000150 45 5d 2e bd 05 15 33 bd 28 fd 33 bc e4 fa 0b 3d
       -0.042569418 -0.043721218 -0.01098565 0.034174815
000160 29 f6 a6 3c 16 81 85 3d e1 d3 e8 bb 96 71 59 3d
       0.02038105 0.06518762 -0.007105336 0.05308684
000170 80 0c 6f bc 86 70 07 3c 1a f2 2d bc b6 bb a7 bb
       -0.014590383 0.008266574 -0.010616804 -0.0051188124
000180 58 a3 eb 3c 0c cb 70 bd f0 d0 5c bd 37 43 5c bd
       0.028764412 -0.05878739 -0.053910196 -0.05377504
000190 6f aa 68 bc b7 a0 81 3b 8f c7 da 3a a4 2a 37 ba
       -0.014200791 0.0039559263 0.0016691553 -0.000698725
0001a0 03 69 16 bd 6e 83 31 bd 27 bf 2d 3d 4e f3 d7 bd
       -0.03672124 -0.04333823 0.042418625 -0.105444536
0001b0 ff 91 ba bd e7 5b b0 bd a6 e5 fb 3c 90 d7 b2 bb
       -0.09109878 -0.08611279 0.030749153 -0.005457826
0001c0 65 28 03 be 02 d1 18 3d fc 3c de bd b6 3c 42 3d
       -0.12808378 0.0373087 -0.108514756 0.04742118
0001d0 ad bb 30 3b e3 88 a1 bd 3a da 39 3c ab 61 1a be
       0.0026967332 -0.07887437 0.011343533 -0.1507632
0001e0 fe da 91 bc 2a 8b 05 bd c2 82 92 bd af 95 d3 3c
       -0.017804619 -0.03260342 -0.07153846 0.02582821
0001f0 50 a5 15 bc d8 1b 18 bc c0 70 cd 3b f8 f4 7c 3b
       -0.009133652 -0.009283982 0.0062695444 0.0038598161
000200 6a 12 e1 bc 77 88 43 bd 86 ec 46 3d c4 7f a6 3c
       -0.0274746 -0.047737565 0.04856541 0.020324595
000210 8d 14 2b bc ff 60 3a bd 9c 84 86 3c 7a 3d aa bc
       -0.010441911 -0.04550266 0.016420655 -0.020781267
000220 d3 12 90 bc 4f 3b 81 bc 9a 2b d2 bd 82 a0 b7 bd
       -0.017587101 -0.01577535 -0.102622226 -0.08966161
000230 fd cd 86 bd 3a f5 a3 bc f4 8a 12 3d 1f eb 3f bd
       -0.06582258 -0.020014394 0.035777047 -0.04685509
000240 35 96 05 bd b7 0a 4b 3d 14 87 7f 3c 67 c6 4e 3c
       -0.03261395 0.049570765 0.01559617 0.012620545
000250 18 95 6a bc cb dd 89 3c 67 bb 7a 3d 55 57 c1 bb
       -0.014317773 0.016829392 0.061213877 -0.0059003034
000260 6d 99 54 bd 43 25 10 3c ff 9c 4b 3d ce 03 60 3d
       -0.05190413 0.008797946 0.04971027 0.05469113
000270 e4 26 50 3c bc bc d9 ba 56 39 9e 3a f8 ce 0b bb
       0.012704585 -0.0016612033 0.0012071531 -0.002133308
000280 02 57 f1 b9 b8 d4 d4 3c d0 b1 16 3b 78 3d d4 bb
       -0.00046031928 0.025980338 0.0022994168 -0.006477054
000290 68 00 b0 3c d8 5e ee bb 47 09 39 3c 9b b4 15 3b
       0.021484569 -0.00727449 0.011293716 0.0022843245
0002a0 42 8e 0f 3c c2 95 ab bd 8d 02 59 3b 41 15 f6 bd
       0.008761944 -0.083781734 0.0033113093 -0.120157726
0002b0 7b 8b 10 3d 43 b6 95 bc 99 e7 96 3d ea d8 8b bc
       0.03528927 -0.018275386 0.073683925 -0.017071206
0002c0 a9 6a 18 3d e2 8c 75 bc f0 39 d0 bd bb 71 9c 3b
       0.037211094 -0.014987202 -0.10167301 0.0047743
0002d0 73 d6 a3 bc 9d f2 00 3c 8b 5c 7f 3d 7c a3 a7 3c
       -0.019999718 0.0078703435 0.062344115 0.020463698
0002e0 6e 0b d2 3c c4 8c f0 bc 1c d9 e5 3c df a0 2b bc
       0.025640216 -0.029363997 0.028057627 -0.010475366
0002f0 1e 79 0e bd 8b 52 8a 3c 39 a3 f8 bb bf cd 06 be
       -0.034783475 0.016885063 -0.007587817 -0.13164423
000300 30 22 47 bd 63 f0 21 3c 0f df 81 bc 89 ad 06 bd
       -0.048616588 0.009883973 -0.015853433 -0.03288034
000310 60 1b 08 3d 2f 7a d2 bd da 0e 8c bd f4 1e 9f 3d
       0.03322923 -0.10277211 -0.0683877 0.07769576
000320 15 25 da 39 7d 83 2f bd a0 5d cb 3b 86 0e cf 3c
       0.00041607828 -0.042850006 0.0062062293 0.02527548
000330 c6 05 8b bd a2 88 1c bc 8a 26 0a 3c 07 a6 fe bc
       -0.067882106 -0.00955406 0.00843204 -0.031085027
000340 b6 9c b7 3c d0 28 c8 bd 81 c6 a2 3b 05 b5 33 bc
       0.022413593 -0.09773409 0.004967511 -0.010968451
000350 b7 f4 87 bc fb 64 8a bd eb 3f 34 bd 6b c7 73 bd
       -0.016596181 -0.06757542 -0.04400627 -0.05951635
000360 5a e4 8b bc d0 d1 26 bd 75 6c 22 3d 5f 10 c7 bd
       -0.01707666 -0.040727437 0.039654214 -0.097199194
000370 fc b6 11 bd e1 02 e2 3c 3f 87 a3 bc dc 3f 92 3c
       -0.035574898 0.027589263 -0.019961951 0.017852716
000380 57 dd a8 39 60 5c 03 bd fc 29 42 b9 38 de 6a bc
       0.00032208368 -0.032070518 -0.00018516922 -0.014335208
000390 32 fa 56 bb 0d 7d ab ba 08 dd 8f bd 72 75 26 bc
       -0.0032802937 -0.0013083533 -0.0702458 -0.010159837
0003a0 fd a8 d4 3c f1 29 cf 3c 7a b9 a3 bd 95 64 03 3d
       0.025959486 0.025288554 -0.07994361 0.032078344
0003b0 78 c7 49 bd 96 2b 85 3c e9 01 92 bd 2b 3f c6 3d
       -0.049262494 0.016256135 -0.071292706 0.09680017
0003c0 75 64 8d bd a5 c8 ab 3c 60 81 7b 3d 53 e2 b2 bb
       -0.06903926 0.020969698 0.06140268 -0.005459109
0003d0 5d d3 0b bd d1 d6 85 bb 12 2c 4a bd 0c 7e 69 3d
       -0.03413712 -0.004084446 -0.049358435 0.057004973
0003e0 b7 74 87 bd 9e dc fd 3a 77 d8 4a 3c 51 fd ae bd
       -0.066140585 0.0019368117 0.012380711 -0.0854441
0003f0 3f 30 24 bc 69 54 b3 bc c2 fc 91 3c 67 6b dc 3b
       -0.010021268 -0.021890836 0.01782072 0.0067266705

action_model._discrete_distribution.branches.1.bias f4 [3]
000000 e0 92 a5 3b ae d4 28 bc d2 65 7c 3b
       0.0050529093 -0.010304613 0.0038512838

action_model._discrete_distribution.branches.2.weight f4 [2, 256]
000000 84 04 88 3d 61 36 97 bd 83 a5 5b 3d b2 03 97 bd
       0.06641486 -0.07383419 0.05362464 -0.07373752
000010 4a 59 28 bd fa 49 41 3d fe 10 93 bd 41 47 4f 3b
       -0.041100778 0.04718969 -0.071809754 0.0031628164
000020 41 12 4f 3d 51 a2 b1 3d ca 70 56 3a 96 1d 22 bd
       0.050554518 0.086735375 0.0008180259 -0.039578997
000030 d6 80 0f 3d 0a 58 35 3d 95 cc 25 3d ad 7d a2 3d
       0.035034977 0.044273414 0.040478308 0.07934127
000040 81 a1 b7 3d f8 ab 2a bc f9 17 3f 3d ab 4b 22 bd
       0.08966351 -0.010416977 0.04665372 -0.039622944
000050 1c b6 46 bd d7 eb 94 3d 72 a3 ac 3d 8e 25 9e 3b
       -0.048513517 0.072715454 0.08429612 0.004826254
000060 ca 17 16 ba c0 3d 35 bd f0 b7 3a bd 43 19 13 3d
       -0.0005725591 -0.044248343 -0.045585573 0.035912763
000070 2f 51 8f 3c c2 b5 c8 3d 64 d9 89 3c 0f f0 da bc
       0.017494766 0.098002926 0.016827293 -0.026725797
000080 0c 08 2b 3d a3 56 04 bc 85 6f 0a bc fa 18 b7 3c
       0.04175572 -0.008077296 -0.00844944 0.022350777
000090 92 2d 8d 3c a9 30 aa 3d 78 97 e7 3c 27 eb 05 3d
       0.017233644 0.083100624 0.028270468 0.032694962
0000a0 d3 dc 8e 3c 1c 5a 87 3d 63 7c 05 3d 7a 13 cb 3c
       0.017439282 0.06608984 0.032589328 0.02478956
0000b0 56 ff a4 3c 9b 9a 6c bc 37 d9 fe bc db 32 19 3b
       0.020141285 -0.014441158 -0.031109435 0.002337626
0000c0 b1 97 dc 3d 44 f2 bf 3c 35 1a bb 3c a8 cf 98 3c
       0.1077112 0.023430951 0.022839645 0.018653706
0000d0 97 f2 65 3d cf 1e 46 3d b0 8d 25 3d 20 80 0b 3d
       0.056139555 0.048369225 0.040418327 0.034057736
0000e0 81 18 3a 3b cf 52 0e bd d3 55 52 bc ea 81 a4 bc
       0.0028395953 -0.03474694 -0.012837845 -0.02008148
0000f0 e5 87 87 3d 9e c6 de 3b 0a d1 9b 3d d1 27 82 3d
       0.06617717 0.0067985794 0.076082304 0.063552506
000100 14 be d6 3c 7a 6f 8f 3c 74 6b fd 3b 0a d2 ab 3d
       0.026213683 0.01750921 0.0077337567 0.08389671
000110 bb 1a 92 3d e7 a8 10 3d ca 96 03 3d b9 96 06 bd
       0.07134005 0.035317328 0.032126226 -0.032858584
000120 1a e3 7c bd 2b e7 67 3d 5f ff 91 bd 09 44 24 bd
       -0.06174002 0.056616943 -0.07128786 -0.040103946
000130 d2 d8 ab bc 6e dd cd 3c e8 be 7e 3d 5a f1 30 3d
       -0.020977411 0.02513 0.06219378 0.04319892
000140 21 d4 cf 3c 39 03 00 3e c7 a5 98 bc 1c a9 b3 3d
       0.025369706 0.1250123 -0.018633736 0.087724894
000150 95 a9 96 bd 78 a5 86 bd 16 59 89 bd 0b 1f 12 3d
       -0.07356564 -0.065745294 -0.06706445 0.035674136
000160 23 90 d5 3d 13 54 dc 3b 65 34 cf bc 3a 68 b3 3c
       0.104278825 0.0067238896 -0.025293538 0.021900285
000170 5d e2 83 bd b3 36 09 bd a4 56 88 3d 20 27 a7 bd
       -0.0643966 -0.03349943 0.066571504 -0.081617594
000180 76 32 30 3d 85 40 0f bd 11 a4 2e bd ec 88 15 bd
       0.043016873 -0.03497364 -0.042636935 -0.036507532
000190 e0 aa fd bc 85 ec 89 bc fa 4d 2d bd b4 69 56 bd
       -0.030965269 -0.016836414 -0.042310692 -0.0523469
0001a0 43 a2 6b 3d 01 f5 2d 3d 79 c4 e0 3c 91 5b 9c bd
       0.05752779 0.042469982 0.027437435 -0.076346524
0001b0 ab 6a c3 bc 70 16 2d bd 6e 2f e4 bb 83 75 6f bd
       -0.023854574 -0.042257726 -0.006963662 -0.058461677
0001c0 c5 20 68 bc cd 10 c3 3b c9 e4 16 3d 8d df 67 39
       -0.014167969 0.0059529305 0.03683928 0.00022113156
0001d0 5b 7e bd 3d 57 4d 31 3d b7 07 70 3d 45 e8 43 bd
       0.09252616 0.043286648 0.058601107 -0.04782893
0001e0 87 a0 62 3d bc f7 95 3c bb 5a 11 3d b5 8b ba 3c
       0.055328872 0.018306606 0.035486918 0.022771696
0001f0 b3 a0 04 3b 3d 13 9f bd 85 f4 ab 3d 29 ed 44 3d
       0.0020237386 -0.07767341 0.08396248 0.048077736
000200 df dc 9b 3d 26 90 39 3d fc 72 11 3d b5 34 96 3d
       0.07610487 0.045303486 0.03551005 0.07334272
000210 10 22 ef bc 77 8f 3c 3b 32 6f 1a 3d 68 aa ff bc
       -0.029191047 0.0028772035 0.0377037 -0.031209186
000220 fd d2 49 bd 61 85 63 3d 92 ad 34 3d 43 ab dd bc
       -0.04927348 0.055547122 0.044110842 -0.027059203
000230 36 23 7e 3d b1 40 6d bd 1a 2d 24 3d 83 a0 9c 3c
       0.0620453 -0.057923023 0.040082075 0.019119507
000240 69 52 06 bd 18 60 84 3d 11 26 c8 3d 2e c4 49 3c
       -0.032793436 0.06463641 0.097728856 0.012314839
000250 59 81 ad bb 23 63 e5 bb bf 99 80 3c 8f 74 65 3c
       -0.0052949605 -0.0070003434 0.015698312 0.0140048405
000260 b0 cf 75 bd 1b 70 90 bd f6 5f 1f 3d 88 aa d0 3c
       -0.06001252 -0.070526324 0.038909875 0.02547194
000270 35 f4 77 bc f6 60 dc 3c 41 7a 70 3d f6 87 90 bd
       -0.015133907 0.026901703 0.05871034 -0.070571825
000280 bc 80 61 bd d3 cc 7e 3c 21 a7 7b 3c d1 43 0b bd
       -0.05505441 0.015551764 0.015359671 -0.03400022
000290 78 e9 94 bc fa c5 79 bd c5 fc f1 3c 14 02 92 bd
       -0.018177733 -0.06097982 0.029539475 -0.071293026
0002a0 26 28 10 bd e9 d7 9c bd 9b 74 e7 3c 79 ce 28 bd
       -0.03519454 -0.07658369 0.028253844 -0.041212533
0002b0 91 23 a0 3c bf d8 83 bd 19 f9 9d 3c a2 f9 9e 3d
       0.01954821 -0.064378254 0.019283818 0.077624574
0002c0 6b c1 05 bc ff 38 87 ba 4b 8d 02 bd 1b 9c a4 3d
       -0.00816379 -0.0010316669 -0.03187303 0.08037587
0002d0 8e 50 80 3d 79 ed 23 bd f1 f0 e8 3b 12 38 80 bb
       0.062653646 -0.040021393 0.0071088006 -0.003912934
0002e0 5f 3e 61 3d 84 1c 2c 3d 2b f8 5e 3b fc 6d e3 3c
       0.054991122 0.042019382 0.0034022431 0.027762406
0002f0 bf d5 2f bd ca 47 c3 3c 54 d6 95 3b d6 4f 8e bd
       -0.042928454 0.023837943 0.004572669 -0.06948821
000300 6f dc 6d bd a0 1c 58 3c c0 19 5c bd 42 11 c4 3c
       -0.05807155 0.0131904185 -0.053735495 0.02393401
000310 c8 6b c3 3c 2a 1a 65 bd d9 2a 7f 3d ba 1b 94 3c
       0.023855105 -0.055933155 0.062296722 0.018079627
000320 49 c7 09 bd 03 cf 85 3d 02 8c 2b 3d 8a 7f e2 3d
       -0.03363732 0.06533625 0.04188157 0.110594824
000330 1e 49 54 bd 25 02 88 bd e3 a3 89 bc d2 ad 56 bd
       -0.051827542 -0.06641034 -0.01680178 -0.05241186
000340 f7 d1 09 3d e5 76 e8 3c 77 01 b7 ba 0f 7b a5 bc
       0.033647504 0.028377006 -0.0013962229 -0.02020028
000350 55 e0 e0 3b 49 52 19 3d e7 1c cc 3b b7 67 08 bd
       0.00686268 0.03743199 0.0062290314 -0.033302035
000360 d6 b3 e4 3c 52 d2 a2 3d e6 d6 a5 3c cc 76 0c bd
       0.027917784 0.07950272 0.020244073 -0.03429298
000370 61 90 6b bd 4b 18 71 3d 7d 67 50 3d e3 ec ad 3c
       -0.057510737 0.05886106 0.050879944 0.02123112
000380 51 ea 7f 3d d0 66 be bc 4f fe 9f 3d 70 c5 85 3b
       0.06247932 -0.023242384 0.078121774 0.0040823743
000390 fc e2 32 3d 11 59 51 3d 5e 86 0e 3c 92 d6 27 bc
       0.0436735 0.05111033 0.008699028 -0.010244029
0003a0 93 fd 50 3d 7a fb 78 3c cc 6b 44 3d 6e a8 bb ba
       0.051023077 0.015196675 0.047954366 -0.0014317164
0003b0 e2 54 a5 3d ed a5 02 3d 23 3d 50 3c e4 f9 12 bb
       0.08072831 0.03189652 0.012709889 -0.0022426778
0003c0 d3 7d 90 3c 12 01 1a 3b e3 96 40 3d 13 f0 a0 3d
       0.017638123 0.0023499173 0.047018897 0.078582905
0003d0 0f 00 a7 bc d9 ec ff bb 33 25 6b bc 98 7b fa 3b
       -0.02038577 -0.007810217 -0.014352131 0.007644128
0003e0 1e 9d e1 bc 36 f0 3b 3c 1d 04 ae 3c e4 f8 54 bd
       -0.02754074 0.011470845 0.021242196 -0.051995173
0003f0 02 65 98 3d e5 35 35 bd 2a b4 39 3d 51 7e 13 bd
       0.07441141 -0.04424085 0.045337833 -0.036009137

action_model._discrete_distribution.branches.2.bias f4 [2]
000000 ae a1 87 3d b1 a1 87 bd
       0.06622635 -0.06622637
